examples/xydoubleintegrator/models/100r100r2_MPC/model.pt (torch, 45255 bytes, 6 tensors)

seq.0.weight f4 [100, 4]
0.50196224 -0.34319633 -0.37335578 -0.48431864 -0.4709674 0.24092895 0.14412788 -0.11373859
0.356835 -0.1294112 0.44902226 0.39205754 -0.018946305 -0.4752122 -0.09501537 0.50343835
0.014378864 -0.23227207 0.45765275 0.4195758 0.24780767 0.4737112 0.046009604 0.14881639
0.17697524 -0.48149028 -0.050889637 0.44823524 -0.19029988 0.09036442 0.26665416 0.055308323
0.009761619 -0.5078273 -0.534629 -0.52486986 -0.4856466 0.047291066 -0.34186348 -0.22486997
0.4984125 -0.27730757 0.091952845 0.53642535 0.5134994 -0.20699751 -0.19203196 0.022080299
0.5090035 0.16812414 -0.2979475 0.050510336 0.13851221 -0.42833927 0.025124587 -0.2699711
-0.26650718 0.20362139 0.11756744 0.045995016 0.38349545 0.5188126 0.33153197 0.21052602
-0.24252285 -0.19169268 -0.30211335 0.22450213 0.020130865 -0.40234974 0.1562445 0.15517664
-0.4746654 -0.18752888 0.49332643 0.42992556 -0.33531353 0.19643222 -0.48552388 0.1927446
-0.04949885 -0.24238725 -0.10433679 -0.0020816287 0.47994846 0.20054765 -0.26202977 0.32526746
0.3918728 -0.077062406 -0.079545535 -0.30371264 -0.026164802 -0.30482605 0.26427242 0.25673681
-0.4789401 0.36043695 0.32587957 0.15026626 0.43774965 -0.42199752 -0.096039526 -0.118020155
-0.16387704 -0.23352155 0.045876015 -0.31238 -0.27610826 -0.2438781 -0.34996176 -0.045750864
0.19465227 -0.14760707 0.4325666 0.18226337 -0.067201726 -0.23871058 0.1206671 -0.35775775
0.0057173064 0.0057826815 -0.43922874 0.010840353 -0.061732274 0.33914447 0.20777701 0.105148
0.06485899 0.16202971 0.510517 0.555195 -0.22407039 0.010417941 0.20272748 -0.4687558
0.25097185 0.2428822 0.1889874 0.17118567 0.04435972 0.28672075 0.29163986 0.17120348
0.17745654 0.47933465 0.41303685 0.37610492 -0.47842303 -0.34643376 0.01253422 -0.3943541
-0.015507518 0.47212648 0.018596789 -0.46219596 -0.17735535 0.3212576 -0.39050445 -0.41716075
-0.04728623 0.3666958 0.085019566 0.36899558 0.28223777 -0.29718852 -0.08059951 0.044603895
0.40342236 -0.11505765 -0.10384037 -0.18202965 0.14396296 0.2521863 0.32213613 0.097627915
-0.46239763 0.2478609 -0.34661213 0.3678875 0.37930334 0.37682816 0.28716925 -0.10497207
0.33781216 0.39921683 0.362768 -0.10378376 0.1750641 0.138512 0.26115867 0.42566466
-0.1367736 0.092891455 0.4909189 0.09351531 -0.14338046 -0.20085652 -0.22212303 -0.28632838
-0.20657903 0.009998696 0.49042 0.48165008 0.24303913 0.43681777 0.10736565 -0.13584363
-0.010846196 -0.39895225 0.03424964 0.031836025 0.25654146 0.35976404 -0.19359376 0.17168112
0.43034327 -0.13026941 -0.35737205 -0.12007421 0.4016439 0.31227306 0.043782692 -0.23961894
0.22492889 0.37889603 -0.23398682 -0.544997 -0.102470815 0.25039276 0.22461106 -0.15244126
-0.1360002 0.46488386 0.008742159 0.24890079 0.26272243 -0.074453264 -0.251032 0.24624859
-0.46417445 -0.324587 0.01228246 -0.39340875 0.18195444 -0.505589 0.15061054 0.010699245
-0.10751101 -0.26900926 0.31829044 0.35083553 0.21733117 0.08552908 -0.062145054 -0.086514704
00000000: 9980 003f 6eb7 afbe 7d28 bfbe 9df8 f7be
00000010: a422 f1be 14b6 763e 4296 133e c7ef e8bd
00000020: 14b3 b63e 5f84 04be 3fe6 e53e c4bb c83e
00000030: 4835 9bbc 034f f3be 6b97 c2bd 56e1 003f
00000040: 5495 6b3c bbd8 6dbe 7651 ea3e a4d2 d63e
00000050: 4bc1 7d3e 468a f23e 9174 3c3d 5363 183e
00000060: ff38 353e e585 f6be a771 50bd 177f e53e
00000070: f9dd 42be fb10 b93d e586 883e fb8a 623d
00000080: 33ef 1f3c f800 02bf 72dd 08bf df5d 06bf
00000090: aca6 f8be 47b4 413d bb08 afbe 5044 66be
000000a0: ec2f ff3e 42fb 8dbe c651 bc3d 2c53 093f
000000b0: b274 033f 28f7 53be 07a4 44be bee1 b43c
000000c0: 0e4e 023f bc28 2c3e 938c 98be ede3 4e3d
000000d0: 25d6 0d3e 494f dbbe 14d2 cd3c a739 8abe
000000e0: a173 88be 2082 503e 33c7 f03d 4565 3c3d
000000f0: 8459 c43e e7d0 043f 8fbe a93e 2294 573e
00000100: e957 78be 164b 44be 9aae 9abe e3e3 653e
00000110: 7ce9 a43c c900 cebe 8ffe 1f3e a0e6 1e3e
00000120: 5807 f3be 9207 40be 4895 fc3e 341f dc3e
00000130: 37ae abbe 8725 493e 9696 f8be d75e 453e
00000140: 4ebf 4abd 5d34 78be 87ae d5bd ef6b 08bb
00000150: cebb f53e 5d5c 4d3e c428 86be 7589 a63e
00000160: 8da3 c83e e5d2 9dbd c5e8 a2bd 3980 9bbe
00000170: 9157 d6bc 2912 9cbe b74e 873e 0273 833e
00000180: a337 f5be 318b b83e b0d9 a63e 66df 193e
00000190: b920 e03e 0f10 d8be 5fb0 c4bd 8db4 f1bd
000001a0: 62cf 27be 4620 6fbe 7de8 3b3d 45f0 9fbe
000001b0: 105e 8dbe 2ebb 79be 302e b3be 4265 3bbd
000001c0: ed52 473e 4f26 17be 5f79 dd3e 40a3 3a3e
000001d0: 0fa1 89bd 8c70 74be 5020 f73d 062c b7be
000001e0: 3e58 bb3b a67c bd3b 97e2 e0be bc9b 313c
000001f0: fbda 7cbd 58a4 ad3e 7fc3 543e d657 d73d
00000200: cad4 843d 1eeb 253e 3eb1 023f 4221 0e3f
00000210: b572 65be 03b0 2a3c cb97 4f3e c300 f0be
00000220: 627f 803e 1db6 783e ea85 413e 4c4b 2f3e
00000230: 8ab2 353d 10cd 923e d251 953e f74f 2f3e
00000240: 2bb7 353e 5a6b f53e 9179 d33e d390 c03e
00000250: ddf3 f4be c45f b1be 545c 4d3c c8e8 c9be
00000260: 3f13 7ebc 90ba f13e 4b58 983c f3a4 ecbe
00000270: a49c 35be e07b a43e 33f0 c7be 1896 d5be
00000280: 35af 41bd 8dbf bb3e bd1e ae3d fdec bc3e
00000290: 7881 903e 1829 98be 5b11 a5bd 93b2 363d
000002a0: 608d ce3e 58a3 ebbd 43aa d4bd fb65 3abe
000002b0: 076b 133e 901e 813e 07ef a43e 25f1 c73d
000002c0: 62bf ecbe 3fcf 7d3e 2577 b1be c05b bc3e
000002d0: 0c34 c23e 9fef c03e d907 933e 99fb d6bd
000002e0: b7f5 ac3e 2666 cc3e babc b93e 948c d4bd
000002f0: 0144 333e 17d6 0d3e 97b6 853e b8f0 d93e
00000300: 610e 0cbe e03d be3d b959 fb3e f484 bf3d
00000310: 54d2 12be 55ad 4dbe 3874 63be a299 92be
00000320: 7489 53be 92d1 233c 5518 fb3e d79a f63e
00000330: 40df 783e 94a6 df3e 86e2 db3d 981a 0bbe
00000340: 3eb4 31bc 7843 ccbe 5a49 0c3d 7e66 023d
00000350: 6759 833e fe32 b83e 713d 46be 2dcd 2f3e
00000360: f455 dc3e 5865 05be 78f9 b6be 78e9 f5bd
00000370: 45a4 cd3e 41e2 9f3e 7b55 333d ab5e 75be
00000380: c253 663e a9fe c13e 3e9a 6fbe ec84 0bbf
00000390: 38dc d1bd 7b33 803e 7100 663e 9019 1cbe
000003a0: a343 0bbe 4205 ee3e 463b 0f3c d9df 7e3e
000003b0: 8e83 863e f47a 98bd 4487 80be 9728 7c3e
000003c0: 46a8 edbe 4430 a6be 5f3c 493c df6c c9be
000003d0: 4452 3a3e 486e 01bf a639 1a3e e34b 2f3c
000003e0: bb2e dcbd 95bb 89be f7f6 a23e b7a0 b33e
000003f0: 108c 5e3e df29 af3d d08b 7ebd 9f2e b1bd

seq.0.bias f4 [100]
-0.33217055 0.12904973 0.47931245 0.14720318 0.06370228 -0.47305056 -0.09290234 -0.42275193
-0.19859314 -0.4371049 -0.4445231 0.016162964 -0.22766131 -0.254166 -0.11226281 -0.3782365
-0.3454963 -0.042681534 0.32314643 0.4537057 -0.4134498 0.4616354 0.44430417 -0.13221271
-0.18496013 -0.22213523 0.45748964 -0.36175516 0.27792954 -0.11688802 -0.29926392 -0.06902838
0.15235567 -0.30472964 0.48592013 0.11634443 -0.29757917 -0.2268237 -0.19956388 0.38350382
0.08310213 -0.28151917 -0.10096044 -0.056763016 0.46225905 -0.5099911 -0.44617826 0.26128858
0.34431565 -0.3732907 0.2313226 0.49293354 -0.42528963 0.41019887 -0.013238438 0.1547683
0.10708835 0.10106436 0.22220987 0.31368008 -0.47922528 -0.10884808 -0.21087956 0.23849016
0.016720006 0.106501855 -0.43484867 0.07516486 -0.3486434 -0.35028598 0.058369752 0.31530347
-0.36402804 -0.50078243 -0.46913543 -0.46482733 -0.29076594 0.47868884 -0.23251803 -0.15814516
-0.091546156 0.15051156 0.28688967 0.2875264 -0.0013345927 0.40242592 0.37169036 0.073398136
0.41176647 -0.20404832 -0.48440945 -0.029356949 -0.31768972 0.27857164 0.19791935 0.44868767
-0.17650402 -0.053437427 -0.25255054 -0.1765415
00000000: 4212 aabe 9d25 043e 7168 f53e 6ebc 163e
00000010: 5776 823d af33 f2be 9543 bebd f172 d8be
00000020: 005c 4bbe 37cc dfbe 8898 e3be 3168 843c
00000030: 0c20 69be 0c22 82be 0bea e5bd 37a8 c1be
00000040: e4e4 b0be d5d2 2ebd 7373 a53e 1d4c e83e
00000050: b1af d3be 7a5b ec3e d67b e33e c562 07be
00000060: 3066 3dbe 6b77 63be 153c ea3e f937 b9be
00000070: c84c 8e3e fc62 efbd 1f39 99be c05e 8dbd
00000080: 2003 1c3e 8605 9cbe 86ca f83e fd45 ee3d
00000090: 4c5c 98be 7944 68be 795a 4cbe 9d5a c43e
000000a0: 7331 aa3d 4823 90be 59c4 cebd 5680 68bd
000000b0: 38ad ec3e c78e 02bf 7a71 e4be 9ec7 853e
000000c0: 244a b03e f51f bfbe d5df 6c3e c961 fc3e
000000d0: 90bf d9be 9605 d23e 09e6 58bc 957b 1e3e
000000e0: 2351 db3d d5fa ce3d fc8a 633e ad9a a03e
000000f0: 045d f5be beeb debd d0f0 57be c436 743e
00000100: 65f8 883c a51d da3d 7ca4 debe 09f0 993d
00000110: 6381 b2be af58 b3be 1f15 6f3d 756f a13e
00000120: e261 babe 4733 00bf 8532 f0be d9fd edbe
00000130: 46df 94be b416 f53e 3519 6ebe cef0 21be
00000140: 8d7c bbbd b41f 1a3e 34e3 923e a936 933e
00000150: 80ed aeba c50a ce3e 334e be3e c351 963d
00000160: 0ed3 d23e 0bf2 50be 8404 f8be fc7d f0bc
00000170: 3aa8 a2be f1a0 8e3e 5fab 4a3e 64ba e53e
00000180: 78bd 34be 34e1 5abd 4e4e 81be 4cc7 34be

seq.2.weight f4 [100, 100]
0.059853982 -0.006305911 0.043555442 -0.02655744 -0.10052542 -0.036594298 -0.0797539 -0.036177468
0.0017335544 0.031142607 0.036670562 0.045291096 0.010037081 0.037617892 -0.059908442 0.014955416
-0.07891318 -0.0759385 -0.061229944 0.07702661 0.044548392 0.09674352 0.0976939 -0.06469274
0.053762067 -0.0970578 0.06462816 -0.04102511 0.03801046 -0.091003805 -0.027253572 -0.09182614
-0.014119486 -0.07506515 0.056115676 0.019855542 -0.06650051 -0.016018972 0.06617131 0.019949071
-0.0761865 0.0812406 0.0143824 -0.08124156 -0.0074926084 -0.028973695 -0.0293521 0.0989416
-0.029128743 -0.033995714 0.06998123 -0.07629095 0.08949102 -0.027586937 0.0052094506 0.026547639
-0.024376169 -0.022273647 0.097157046 -0.028928163 0.0320144 0.07294097 0.06258991 0.035503622
0.02770761 0.045208402 0.084089324 0.05394007 -0.0077184737 -0.085310124 0.035474543 0.04768245
0.07439144 -0.009788623 0.00085131486 -0.04295329 -0.11525054 0.107406475 0.08286141 0.06054804
-0.047816563 0.058128316 -0.039785966 0.02857301 -0.07601777 -0.047515303 0.048517562 0.030016132
0.06840459 0.09051324 0.041453768 -0.046727363 -0.010533259 0.0689613 -0.026589276 0.065084144
-0.018241286 -0.028597258 0.084207796 0.10243619 0.006950495 -0.01739996 -0.07166574 -0.024265716
-0.051148523 0.051541314 -0.027598267 0.07168949 0.07390206 -0.0006660493 -0.09357443 -0.040328823
-0.0044374913 0.105681196 -0.02549719 -0.020082977 0.045784924 -0.057715513 0.016287593 -0.000953687
-0.07049822 -0.007989292 0.04491984 0.059770808 -0.061248068 0.062413573 -0.026278209 -0.068353735
-0.056957565 -0.07142091 -0.06146719 -0.056763947 0.053055234 -0.07513366 -0.02118888 0.048397217
0.029639455 0.124279745 0.058290496 0.06088627 0.07525924 0.09260828 -0.020350968 0.0746114
-0.06826271 0.0623776 -0.011826363 -0.061352834 -0.059072718 0.11151837 -0.051178098 0.049242526
-0.0861052 0.033652376 0.0805415 -0.053096484 0.053934 0.035238046 -0.07451723 0.011274155
-0.028660541 -0.040636484 0.041491963 -0.04476207 0.043975744 0.070207305 0.013935466 -0.037065733
-0.08400881 -0.09443549 -0.076735556 0.0041138595 0.04719276 0.03289872 0.06479375 -0.091784336
0.09047298 0.025799632 -0.0006255828 0.07826591 -0.061957136 0.09125626 0.08064716 -0.006031839
-0.06763581 0.07811124 0.029074091 -0.029851904 0.046100743 0.048833746 -0.052926023 0.09446845
0.09708662 0.08426448 -0.048804563 0.038669657 -0.042825002 -0.08373607 -0.014779981 0.069953136
-0.08330677 0.04181533 -0.03738539 -0.08543179 0.06533134 0.08723034 -0.03152864 -0.0019671982
0.00096475426 0.01843827 0.06702534 -0.063609354 0.07397795 -0.035308715 0.11309696 0.086901285
0.03201016 -0.03291912 0.068450175 0.028211927 -0.059090782 0.048806105 0.031905957 -0.050749797
-0.012420812 -0.09973844 0.015801758 0.052197892 0.0049873507 0.0025589287 0.08581717 -0.061966732
-0.0063225445 -0.041136008 -0.0067160744 0.02579131 0.14599524 -0.021910544 0.018388277 -0.046786558
-0.010137131 0.011422965 -0.014952309 -0.0071301837 0.08892572 0.0436782 0.020095747 0.030890621
0.073622026 0.018284172 0.03270379 0.047242586 0.049017165 0.03222365 0.0977804 0.10773566
00000000: 7329 753d d1a1 cebb 3167 323d fd8e d9bc
00000010: 45e0 cdbd e7e3 15bd 0356 a3bd d32e 14bd
00000020: 6f38 e33a c81e ff3c df33 163d 2883 393d
00000030: 9272 243c 3815 1a3d 8e62 75bd 9007 753c
00000040: 3c9d a1bd a585 9bbd 40cc 7abd 21c0 9d3d
00000050: 6078 363d 7721 c63d bd13 c83d a17d 84bd
00000060: 9d35 5c3d 3dc6 c6bd c55b 843d f209 28bd
00000070: dbb0 1b3d 3460 babd e242 dfbc 580f bcbd
00000080: 6b55 67bc c2bb 99bd 8dd9 653d 17a8 a23c
00000090: 6b31 88bd 383a 83bc d384 873d 3c6c a33c
000000a0: ab07 9cbd 7961 a63d 28a4 6b3c fa61 a6bd
000000b0: 8e84 f5bb 3e5a edbc d173 f0bc e5a1 ca3d
000000c0: 679f eebc 173f 0bbd 5252 8f3d 6e3e 9cbd
000000d0: 1147 b73d 00fe e1bc 0ab4 aa3b 6f7a d93c
000000e0: 88b0 c7bc 3977 b6bc 46fa c63d c1fa ecbc
000000f0: 8821 033d 1362 953d 242f 803d 3f6c 113d
00000100: 12fb e23c 722c 393d 0637 ac3d 43f0 5c3d
00000110: 40eb fcbb 13b7 aebd c14d 113d ac4e 433d
00000120: 8a5a 983d 7660 20bc c62a 5f3a caef 2fbd
00000130: 7a08 ecbd edf7 db3d 3eb3 a93d 3901 783d
00000140: 4ddb 43bd f517 6e3d 9cf6 22bd f211 ea3c
00000150: 34af 9bbd 689f 42bd 5aba 463d 64e4 f53c
00000160: b517 8c3d 015f b93d 6dcb 293d 3165 3fbd
00000170: b193 2cbc 953b 8d3d c1d1 d9bc d64a 853d
00000180: c06e 95bc cc44 eabc 2375 ac3d 11ca d13d
00000190: fac0 e33b 5c8a 8ebc 7dc5 92bd e5c8 c6bc
000001a0: 1d81 51bd fc1c 533d c315 e2bc f0d1 923d
000001b0: f759 973d d099 2eba f3a3 bfbd d62f 25bd
000001c0: 6068 91bb 626f d83d 7cdf d0bc 0e85 a4bc
000001d0: f988 3b3d 1a67 6cbd 8f6d 853c da00 7aba
000001e0: 5f61 90bd 85e5 02bc defd 373d 3cd2 743d
000001f0: 41df 7abd 60a5 7f3d 6645 d7bc 0bfd 8bbd
00000200: 564c 69bd 2045 92bd 05c5 7bbd 5081 68bd
00000210: 7250 593d addf 99bd 4d94 adbc 293c 463d
00000220: 71ce f23c 6186 fe3d 04c2 6e3d e263 793d
00000230: 8421 9a3d 69a9 bd3d 13b7 a6bc ddcd 983d
00000240: 52cd 8bbd a87f 7f3d 5dc3 41bc 1c4d 7bbd
00000250: 3cf6 71bd be63 e43d 20a0 51bd 88b2 493d
00000260: ec57 b0bd 13d7 093d f1f2 a43d b37b 59bd
00000270: e6e9 5c3d c555 103d 7d9c 98bd 3cb7 383c
00000280: 83c9 eabc 7172 26bd 7af3 293d 6f58 37bd
00000290: e91f 343d d9c8 8f3d 9551 643c 3dd2 17bd
000002a0: d00c acbd 6567 c1bd 8827 9dbd 8ecd 863b
000002b0: 324d 413d cfc0 063d 96b2 843d 6df9 bbbd
000002c0: e649 b93d c059 d33c 27fe 23ba e149 a03d
000002d0: c4c6 7dbd 90e4 ba3d 572a a53d bca6 c5bb
000002e0: a584 8abd c9f8 9f3d ca2c ee3c fb8b f4bc
000002f0: 22d4 3c3d e505 483d f5c8 58bd ad78 c13d
00000300: 5ad5 c63d db92 ac3d 4be7 47bd 1364 1e3d
00000310: 4569 2fbd d17d abbd bc27 72bc 9743 8f3d
00000320: bd9c aabd 8d46 2b3d 6c21 19bd ddf6 aebd
00000330: 70cc 853d d2a5 b23d 2d24 01bd 1cec 00bb
00000340: 90e7 7c3a db0b 973c 9544 893d 9f45 82bd
00000350: c081 973d df9f 10bd 619f e73d 4df9 b13d
00000360: 161d 033d 33d6 06bd 9b2f 8c3d b31c e73c
00000370: 2d09 72bd e9e8 473d d2af 023d 05df 4fbd
00000380: a980 4bbc ab43 ccbd b072 813c 75cd 553d
00000390: ee6c a33b b3b3 273b eac0 af3d d4d0 7dbd
000003a0: 592d cfbb 3b7e 28bd 8412 dcbb 4c48 d33c
000003b0: c77f 153e be7d b3bc 03a3 963c 43a3 3fbd
000003c0: 3616 26bc 6327 3b3c 88fa 74bc 51a4 e9bb
000003d0: b01e b63d eae7 323d d69f a43c 540e fd3c
000003e0: 25c7 963d b0c8 953c 69f4 053d 7181 413d
000003f0: 39c6 483d f2fc 033d 1741 c83d 84a4 dc3d

seq.2.bias f4 [100]
-0.027876047 -0.026267836 0.04164408 0.07889567 0.0725115 -0.070548184 0.10806074 0.010515236
0.03767783 0.026966404 -0.084731735 0.034615595 0.05139126 0.104597606 0.10786577 -0.067068174
-0.06780217 0.04777502 -0.004800328 -0.021649852 -0.09480777 0.027305981 0.051283076 0.10488872
0.07007229 -0.09969636 0.0336861 -0.033225957 0.068236105 -0.05422295 0.06138489 -0.026269795
0.009868553 0.10210747 0.08305884 -0.0020554306 0.10255938 -0.008917798 -0.049579967 -0.099697925
0.042576954 0.012664616 -0.073020995 -0.05810074 0.085874945 0.016490223 0.0041593537 -0.070171215
-0.09989746 0.0007863348 0.017481549 -0.114252105 0.048275717 -0.013766782 0.069168486 0.036797598
-0.108334236 -0.0955612 0.037710894 -0.019294428 0.08954291 0.02699124 0.0002665014 0.09613957
0.0071459445 0.05925587 -0.08703409 -0.07412474 0.08834963 0.001745122 0.10082894 0.03530923
-0.09870053 0.052476887 -0.060063876 -0.051025588 0.071124025 -0.018256612 0.056472044 0.0019043304
0.0013436631 0.021786654 0.0876953 0.07558147 0.07177085 -0.057602443 -0.05901633 -0.00762989
0.062355977 -0.09800821 0.08537073 -0.020442843 -0.024751443 -0.024307037 0.061815213 0.060908243
0.11281547 0.034815695 0.059643984 0.08609978
00000000: 4f5c e4bc a52f d7bc fc92 2a3d 0e94 a13d
00000010: e980 943d 917b 90bd f34e dd3d 1948 2c3c
00000020: 1154 1a3d a6e8 dc3c d587 adbd 15c9 0d3d
00000030: a47f 523d 4537 d63d bbe8 dc3d 0a5b 89bd
00000040: dddb 8abd bdaf 433d 124c 9dbb 085b b1bc
00000050: 932a c2bd cbb0 df3c 340e 523d e6cf d63d
00000060: 1082 8f3d 9b2d ccbd 70fa 093d f117 08bd
00000070: 5fbf 8b3d e218 5ebd b96e 7b3d c133 d7bc
00000080: b6af 213c b91d d13d c11a aa3d 67b4 06bb
00000090: a70a d23d f51b 12bc 5d14 4bbd 6d2e ccbd
000000a0: 2c65 2e3d 407f 4f3c 088c 95bd 0bfb 6dbd
000000b0: 34df af3d 8116 873c 304b 883b edb5 8fbd
000000c0: 0a97 ccbd 0922 4e3a 7735 8f3c 02fd e9bd
000000d0: c2bc 453d 128e 61bc 35a8 8d3d 14b9 163d
000000e0: 57de ddbd 97b5 c3bd bd76 1a3d 590f 9ebc
000000f0: 4662 b73d bc1c dd3c 36b9 8b39 d3e4 c43d
00000100: 8728 ea3b 48b6 723d ee3e b2bd b6ce 97bd
00000110: a7f0 b43d 94bc e43a 677f ce3d 69a0 103d
00000120: 8123 cabd 01f2 563d 8a05 76bd 3500 51bd
00000130: 79a9 913d e48e 95bc 3b4f 673d ba9a f93a
00000140: da1d b03a ed79 b23c 9899 b33d 75ca 9a3d
00000150: 98fc 923d 8af0 6bbd 1bbb 71bd 2804 fabb
00000160: fb68 7f3d 87b8 c8bd d9d6 ae3d c077 a7bc
00000170: 8ac3 cabc 8d1f c7bc f331 7d3d ec7a 793d
00000180: cc0b e73d e79a 0e3d 404d 743d 1555 b03d

seq.4.weight f4 [2, 100]
-0.09874224 0.0491762 -0.30259907 -0.06123232 -0.042892214 -0.011412135 -0.28409037 0.09096452
0.007078892 0.00196474 -0.06301019 0.0520963 0.2034326 0.35065046 -0.10455412 0.06646886
0.07403937 -0.05101842 0.089956075 0.1327358 -0.17484505 0.15304342 -0.118431054 0.12607606
0.1501936 0.3145153 0.1732616 0.04018924 0.13244489 0.07539315 -0.14580838 -0.037204992
0.15456112 -0.12833193 -0.12651362 0.108286545 0.21965516 0.03454145 -0.092394486 -0.038510818
0.0073041576 0.116258755 -0.24647497 0.092253394 0.029973812 0.2181113 -0.023781365 0.015210736
0.04004133 -0.046664204 0.08610582 0.34850746 0.13046515 0.036927138 0.13462527 -0.09040214
-0.08293964 0.024907066 -0.048616316 -0.48322073 -0.06022644 0.03844672 -0.037163083 -0.11241784
0.0798205 -0.08368349 0.023567958 -0.16799834 -0.20715728 0.007229735 0.10205332 0.04508654
0.019922653 -0.06299358 -0.065794565 -0.33408684 -0.051516894 -0.23258278 0.20158494 -0.15413138
0.03758199 0.038663827 0.2941671 -0.00094728684 -0.079797365 -0.022300681 -0.0899851 -0.06994485
0.0035247162 0.043661077 -0.05908556 -0.08486447 -0.056280248 0.055516895 -0.022266096 -0.09101044
0.15600869 -0.12256147 0.13865308 -0.17486276 0.06540236 0.11692232 -0.15229656 -0.12417082
0.033211473 0.15966949 0.15905894 0.14159068 0.022661213 0.07434688 0.05487211 -0.01359704
-0.09673579 -0.07522299 0.3464143 -0.03740224 -0.1312708 -0.08150742 0.13561767 0.002664336
-0.16772541 -0.0019193183 0.104362525 -0.035914667 -0.11023765 0.07712561 -0.32064506 0.09839656
-0.08079114 0.09540823 -0.0741381 -0.0003724868 -0.093435146 0.20688355 -0.05215768 -0.11450513
0.12463622 0.11183286 -0.0669073 -0.21831292 0.08965909 0.47243395 -0.28718415 -0.12381182
0.10057999 -0.07587709 -0.15821294 0.09873474 0.008281146 -0.08894721 -0.2283248 0.09037433
-0.12997521 -0.22543618 0.032378394 0.30826944 -0.14588778 -0.038685814 0.09516127 0.07954631
-0.0025711493 -0.0002345456 -0.14795575 0.30497643 0.1259956 0.0071791243 -0.0033626186 -0.22603944
0.13574044 0.023366347 0.2748385 0.33743006 -0.025954679 -0.0071792537 0.066793874 0.05946403
0.06320978 -0.065632775 -0.17398839 -0.025157914 0.05548374 0.08152122 0.09844699 0.07672353
0.08343251 -0.049281806 0.029858727 0.15754116 0.08146648 -0.07462967 0.07050328 -0.14758372
-0.08393098 0.031905506 -0.38604498 0.067964636 0.03306345 0.0049012857 -0.057376057 0.084463626
00000000: 5f39 cabd fc6c 493d 44ee 9abe bece 7abd
00000010: bfaf 2fbd f7f9 3abc 4b74 91be 9b4b ba3d
00000020: 0df6 e73b dec2 003b 7d0b 81bd ee62 553d
00000030: a350 503e 7588 b33e 7820 d6bd d320 883d
00000040: f4a1 973d b1f8 50bd e43a b83d e5eb 073e
00000050: 950a 33be 6ab7 1c3e fb8b f2bd 151a 013e
00000060: 5acc 193e 2608 a13e 7d6b 313e 799d 243d
00000070: a29f 073e b967 9a3d cb4e 15be 4364 18bd
00000080: 4545 1e3e 7269 03be c98c 01be 56c5 dd3d
00000090: 48ed 603e 567b 0d3d 5239 bdbd 85bd 1dbd
000000a0: b757 ef3b 1219 ee3d ef63 7cbe 59ef bc3d
000000b0: a48b f53c 9258 5f3e 23d1 c2bc 7336 793c
000000c0: 6102 243d f722 3fbd 4058 b03d 926f b23e
000000d0: a898 053e e940 173d 35db 093e c224 b9bd
000000e0: 42dc a9bd e709 cc3c e721 47bd b568 f7be
000000f0: 00b0 76bd 4f7a 1d3d 5138 18bd 533b e6bd
00000100: ee78 a33d 4062 abbd 9711 c13c c207 2cbe
00000110: 0a21 54be 6ae7 ec3b 5501 d13d aaac 383d
00000120: d534 a33c c702 81bd 4dbf 86bd 6e0d abbe
00000130: 6103 53bd 2e2a 6ebe 486c 4e3e 9ed4 1dbe
00000140: 93ef 193d f65d 1e3d 129d 963e 5853 78ba
00000150: cd6c a3bd ebaf b6bc 1c4a b8bd 3f3f 8fbd
00000160: edfe 663b f5d5 323d b303 72bd 6ccd adbd
00000170: 1e86 66bd af65 633d 6367 b6bc ae63 babd
00000180: bec0 1f3e 8201 fbbd 13fb 0d3e 390f 33be
00000190: acf1 853d f874 ef3d a1f3 1bbe 454d febd
000001a0: c108 083d 6680 233e 59e0 223e 26fd 103e
000001b0: 02a4 b93c 2d43 983d 94c1 603d 1fc6 5ebc
000001c0: 6a1d c6bd 830e 9abd 375d b13e 1733 19bd
000001d0: da6b 06be 5ded a6bd 5cdf 0a3e 249c 2e3b
000001e0: 36c0 2bbe a391 fbba 05bc d53d 421b 13bd
000001f0: 47c4 e1bd 08f4 9d3d 972b a4be 2384 c93d
00000200: d375 a5bd 6465 c33d b7d5 97bd 554a c3b9
00000210: ed5a bfbd 48d9 533e 4ba3 55bd aa81 eabd
00000220: 4641 ff3d a008 e53d b206 89bd 6c8d 5fbe
00000230: 2f9f b73d dde2 f13e cd09 93be 0d91 fdbd
00000240: e2fc cd3d 7365 9bbd 9302 22be 7035 ca3d
00000250: a5ad 073c f429 b6bd facd 69be 2d16 b93d
00000260: 3918 05be bed8 66be 359f 043d 7ed5 9d3e
00000270: 9b63 15be 0475 1ebd e9e3 c23d 2de9 a23d
00000280: ba80 28bb 5bf0 75b9 b681 17be df25 9c3e
00000290: fe04 013e dc3e eb3b 615f 5cbb e276 67be
000002a0: 8bff 0a3e c86a bf3c a2b7 8c3e a2c3 ac3e
000002b0: e89e d4bc f23f ebbb 3acb 883d 8e90 733d
000002c0: 2174 813d 7a6a 86bd 032a 32be f817 cebc
000002d0: eb42 633d 99f4 a63d 939e c93d 3a21 9d3d
000002e0: aade aa3d b8db 49bd 4a9a f43c 7852 213e
000002f0: e6d7 a63d 71d7 98bd 0664 903d 3020 17be
00000300: 01e4 abbd 59af 023d b0a7 c5be 0b31 8b3d
00000310: 8a6d 073d f79a a03b 2803 6bbd 44fb ac3d

seq.4.bias f4 [2]
0.12286693 0.16786587
00000000: a8a1 fb3d 08e5 2b3e
