examples/arch-comp/acc/models/controller_3_20/model.pt (torch, 10299 bytes, 5 tensors)

seq.0.bias f8 [20]
0	0x3f978b3d87eb3817	0.022992097302271555
1	0x3fed4e18ca95b2f6	0.9157833058103211
2	0x3fe5db628f4298ce	0.6830303953218164
3	0x3fec41443d85e7c5	0.8829671098349016
4	0x3fee19d821ea76e2	0.9406548178119147
5	0xbfd164501ae330cf	-0.27174761415222987
6	0xbfd675a1b3b617ec	-0.3509296660416783
7	0x3fe1c4754640feef	0.5552317020555771
8	0xbfe23127351625ba	-0.5685001408430062
9	0x3fed55dd9b3069e9	0.9167316466367171
10	0x3feb55f5d5b1c74a	0.8542431997031852
11	0xbfd0d90944a77409	-0.2632468386125884
12	0xbfd3b0eeeb2ca240	-0.307674150145008
13	0x3fd7b6ca93c07d18	0.3705316965951666
14	0x3fdbd541bd551326	0.4348911618183585
15	0x3fe30101c0de8405	0.5938729063965417
16	0x3fc7caf8d41432ee	0.18588171344199317
17	0xbfe9b99141ffea92	-0.8039022721344102
18	0x3fb6c54e94b74542	0.08894816523322382
19	0xbfed2be43847db83	-0.9116078471405306

seq.2.bias f8 [20]
0	0xbfea51cc1737bcdb	-0.8224850133391571
1	0xbfde5a9932bb817c	-0.4742796893533734
2	0xbfe51991a1064126	-0.6593711991318159
3	0x3fb7ff261438eb2d	0.09373701089581905
4	0xbfe42f1779edd3ec	-0.6307484990526269
5	0xbf9a1b860b6b5a2a	-0.025495619246465186
6	0x3fdd4514b8abbe46	0.4573413661409841
7	0x3fedccf9cad6ab96	0.9312714540186444
8	0x3fe34997f7a99fbd	0.6027335965309174
9	0xbfebc5392fe9bb6a	-0.8678251205254643
10	0x3febc86d2171bc25	0.8682161000450647
11	0x3feee94afd00c870	0.9659781400171266
12	0x3fc3fb0621324421	0.15609814282336834
13	0x3fed2a7891018b6e	0.9114344436787698
14	0xbfd5e13731062223	-0.3418710688352197
15	0x3fe9f4157fe79989	0.8110454080713662
16	0xbfef847263a737ea	-0.984917826304579
17	0x3f6290ce14cd912f	0.002266314032043713
18	0xbfe66afdb4964107	-0.7005604292953941
19	0xbfd4b1fe34f66394	-0.32336383030047355

seq.4.bias f8 [20]
0	0x3fb726d9f4bcba70	0.09043657517461567
1	0xbfe015609d1bdcdf	-0.5026095455677043
2	0x3fe9740579020ecb	0.7954127658308264
3	0xbfeb08ea97e18480	-0.8448384252952934
4	0x3fe50256a9b6d4e8	0.6565354647379111
5	0xbfbb6a6841de7002	-0.10709239585997923
6	0x3feba3bd4615b0ff	0.8637377137033865
7	0x3fa5ec0ecda7942e	0.04281660328323543
8	0x3fe767d74f0c8bd3	0.731425909416766
9	0xbfd3612c425162b0	-0.3028059623370991
10	0xbfcbb4a08936b6c0	-0.21644980144394843
11	0x3fd19d986b998ad5	0.2752438593653726
12	0x3fe91648f37574df	0.7839703326277706
13	0xbfe7facb45af1c61	-0.7493645058647297
14	0xbfece694455d989a	-0.9031468729779306
15	0xbfc9ef7fc2e3d64b	-0.20262143150437092
16	0x3fcba9be450f79c0	0.2161176526269184
17	0x3fec229198485ff8	0.8792198156615987
18	0xbfdaecb45f621205	-0.42069730105166087
19	0x3fb568a4a7764c5b	0.0836279782145523

seq.6.weight f8 [1, 20]
0	0x3fe207130265472e	0.5633635565556909
1	0x3f95470d91323942	0.020778858172485266
2	0xbf82141e18b354e1	-0.008827433708953726
3	0xbf995feb2244dc93	-0.02477996250783272
4	0xbf9bac9440781382	-0.027025524554136655
5	0x3fa094288a32fe49	0.03238035857202399
6	0xbf9a1ddf40a17f9c	-0.025504577941660153
7	0x3f73fd0499785176	0.004879968611494303
8	0xbf6701237d49f03c	-0.002808160128834584
9	0x3f95e7bed896becb	0.021391851396116473
10	0xbf77711f5963e522	-0.00572311635755199
11	0x3f8cb8b6dc5efac7	0.014024189567746771
12	0x3f8c0615bd87b320	0.013683481070040637
13	0x3f626631a754ed08	0.002245995502247692
14	0xbf68ab0b9059902a	-0.00301124819343281
15	0x3f9db39ac34c1cdf	0.029005449457170648
16	0xbf71478836057621	-0.004218608927059304
17	0xbf728a1657ab5753	-0.004526221537806868
18	0x3f7ad55e585ce1a4	0.006551140342530824
19	0xbf8e2f640832e003	-0.014738828182416347

seq.6.bias f8 [1]
0	0xbfd1eb70191ce739	-0.279994987987823
