examples/xydoubleintegrator/models/10r10r2/model.pt (torch, 2823 bytes, 6 tensors)

seq.0.weight f4 [10, 4]
-1.0894438 0.5280538 -0.1501495 0.7006934 0.71020097 -0.64769125 0.15569487 -0.076372735
1.1818879 -0.59107715 0.20254637 -0.10166205 -1.226268 0.124708645 -0.36164874 -0.041722428
1.0101445 1.0068244 0.11128085 0.14256983 1.1020117 -0.4151761 0.18924475 -0.6029171
-0.25627217 0.8557164 0.7090085 0.34901598 0.17830631 -0.51015997 -0.71171117 -0.124921754
1.2081023 0.629583 0.18994837 0.088341415 0.14937809 -0.21287648 0.6126117 -0.16807355
00000000: e572 8bbf 892e 073f cac0 19be a560 333f
00000010: bbcf 353f 18cf 25bf 7a6e 1f3e 4f69 9cbd
00000020: 1a48 973f d550 17bf 5168 4f3e 3134 d0bd
00000030: 5af6 9cbf 3f67 ff3d 062a b9be 23e5 2abd
00000040: 6a4c 813f 9fdf 803f 37e7 e33d d3fd 113e
00000050: b80e 8d3f f691 d4be 60c9 413e c658 1abf
00000060: 1b36 83be 3b10 5b3f 9581 353f 39b2 b23e
00000070: ee95 363e d899 02bf b432 36bf fad6 ffbd
00000080: 19a3 9a3f 5a2c 213f d381 423e 58ec b43d
00000090: 92f6 183e 4bfc 59be 1fd4 1c3f 791b 2cbe

seq.0.bias f4 [10]
-0.07820975 -0.023205247 -0.56737906 -0.10933997 0.11527689 -0.16942216 0.34024107 -0.23958912
0.15157029 -0.5125831
00000000: 6f2c a0bd ee18 bebc c13f 11bf a2ed dfbd
00000010: 4a16 ec3d 017d 2dbe 1434 ae3e da56 75be
00000020: 3e35 1b3e a538 03bf

seq.2.weight f4 [10, 10]
0.46033946 -0.06968328 0.0853962 0.06739968 -0.04874624 -0.052336786 0.55244637 -0.28460726
0.57992345 -0.0023934327 1.0608232 0.20697059 0.5723762 -0.13595761 -0.06901817 -0.69784045
0.4782282 -0.08547187 0.57937694 -0.4031912 -0.05648317 0.054510824 -0.8430507 -0.21334565
0.016889548 0.0023836154 0.6177958 -0.061772212 0.116753004 0.09681471 0.4369936 -0.13480414
-0.12867032 -0.05228585 -0.08545282 -0.08812894 -0.2909108 0.035235416 0.10415202 -0.022261824
-0.039191276 0.13032934 -0.13588957 -0.14135244 -0.0121396575 0.19693704 -0.28956947 0.39955992
0.09630628 -0.25256923 -0.2065435 -0.04854511 -0.18829611 0.11009546 -0.30269018 -0.31968257
-0.18578453 0.15222952 -0.073947914 -0.16549025 0.29302314 0.37700173 0.2744859 0.1339998
-0.057174783 -0.33458725 0.28879902 -0.3287486 0.728759 0.1753606 0.54750425 -0.7336867
0.19576235 0.7830328 1.2924901 -0.03604711 -0.061049327 0.6809338 -0.775964 0.028028937
-0.24346165 0.41339934 -0.7473423 0.7971611 -0.05162292 1.0278256 0.65887094 -0.11790464
0.12004378 0.6010743 0.0014795297 0.14104871 0.29383644 0.33441556 0.035405077 0.046122476
-0.40806404 -0.06732655 -0.17773077 -0.2168554
00000000: 9db1 eb3e 1cb6 8ebd 34e4 ae3d d808 8a3d
00000010: 23aa 47bd 195f 56bd 206d 0d3f 0bb8 91be
00000020: dd75 143f 23db 1cbb 0ec9 873f 19f0 533e
00000030: 3f87 123f 7938 0bbe 6659 8dbd aca5 32bf
00000040: 54da f43e e00b afbd 0c52 143f 146f cebe
00000050: e55a 67bd be46 5f3d 2cd2 57bf 4877 5abe
00000060: f35b 8a3c 6e36 1c3b de27 1e3f dc04 7dbd
00000070: 331c ef3d ca46 c63d a0bd df3e 190a 0abe
00000080: 27c2 03be b029 56bd e301 afbd f27c b4bd
00000090: 43f2 94be 0353 103d a74d d53d 6e5e b6bc
000000a0: 0887 20bd 0e75 053e a326 0bbe b2be 10be
000000b0: 6ae5 46bc dda9 493e 7342 94be 1e93 cc3e
000000c0: 3a3c c53d c150 81be 2480 53be 3dd7 46bd
000000d0: b2d0 40be bb79 e13d 35fa 9abe 6fad a3be
000000e0: 4d3e 3ebe 0ee2 1b3e 0172 97bd 4776 29be
000000f0: 2107 963e 5f06 c13e 6a89 8c3e 3e37 093e
00000100: 1b30 6abd 054f abbe 77dd 933e bd51 a8be
00000110: f38f 3a3f bb91 333e 3d29 0c3f e4d2 3bbf
00000120: ed75 483e d674 483f 5170 a53f 22a6 13bd
00000130: dc0e 7abd ad51 2e3f 94a5 46bf f19c e53c
00000140: 034e 79be 14a9 d33e d351 3fbf c012 4c3f
00000150: 8e72 53bd ca8f 833f c4ab 283f fd77 f1bd
00000160: 83d9 f53d 01e0 193f c7ec c13a 136f 103e
00000170: bb71 963e 8438 ab3e ea04 113d ecea 3c3d
00000180: c5ed d0be 81e2 89bd 0eff 35be 580f 5ebe

seq.2.bias f4 [10]
0.11123289 0.12365525 -0.31526774 -0.24187437 -0.20928158 -0.05605748 0.05305327 0.12530373
0.1356763 -0.15693368
00000000: 12ce e33d f73e fd3d c66a a1be eaad 77be
00000010: e94d 56be 879c 65bd 634e 593d 9f4f 003e
00000020: baee 0a3e 39b3 20be

seq.4.weight f4 [2, 10]
-0.6272153 -0.23575057 -0.66488075 0.08475597 0.24398589 -0.23278087 -0.5849052 1.882582
-0.84001106 0.1860129 -0.62795365 -1.5152035 0.65955 -0.42476723 0.22422247 0.20625482
-0.641697 0.5568341 1.5651493 0.45639268
00000000: 2f91 20bf 9968 71be a035 2abf 8a94 ad3d
00000010: 70d7 793e 1c5e 6ebe 59bc 15bf 72f8 f03f
00000020: f70a 57bf 2a7a 3e3e 92c1 20bf 30f2 c1bf
00000030: 45d8 283f 177b d9be 939a 653e 7734 533e
00000040: 4146 24bf ae8c 0e3f d056 c83f 4dac e93e

seq.4.bias f4 [2]
0.55695283 0.5438588
00000000: 7694 0e3f 553a 0b3f
