benchmarks/models/nn_6_relu/model.pt (torch, 6895 bytes, 8 tensors)

seq.0.weight f4 [20, 4]
0	0x3c3ea8d5	0.011636932
1	0x3b57f24d	0.003295082
2	0xbc1a0a95	-0.009401937
3	0xbc907bc2	-0.017637137
4	0x3ca3b088	0.019981638
5	0x3bb7aefd	0.005605577
6	0xbc83f4aa	-0.016107876
7	0xbcf77358	-0.030206367
8	0x3c56e50a	0.013116131
9	0x3b7298db	0.0037017378
10	0xbc2d3fc0	-0.010574281
11	0xbca28edc	-0.019843511
12	0x3bb55070	0.0055332705
13	0x3acf4d2e	0.0015815848
14	0xbb95a3c4	-0.0045666415
15	0xbc0e281d	-0.008676556
16	0x3c5922d0	0.013252929
17	0x3b755eff	0.0037440655
18	0xbc2f6716	-0.01070573
19	0xbca47fcd	-0.020080471
20	0x3ca345ff	0.019930838
21	0x3bb73494	0.0055909846
22	0xbc839cef	-0.016066043
23	0xbcf6e04f	-0.030136256
24	0x00827118	1.1979185e-38
25	0x0128eaf6	3.1025303e-38
26	0x01111c96	2.6652803e-38
27	0x0212d494	1.0787393e-37
28	0x80e361bd	-2.088172e-38
29	0x8133c9c8	-3.3021879e-38
30	0x0289c21c	2.0241754e-37
31	0x80e8d800	-2.1383321e-38
32	0x3b891501	0.004183412
33	0x3a8e0e4b	0.0010838
34	0xbb55ca4f	-0.0032621806
35	0xbbca9e8c	-0.006183451
36	0x3c5e9459	0.0135851735
37	0x3b7bacc0	0.0038402528
38	0xbc33cfb2	-0.010974811
39	0xbca8e4cf	-0.020616917
40	0x3bf5a5b3	0.0074965595
41	0x3b0abc72	0.002116945
42	0xbbc60977	-0.0060436088
43	0xbc3a3896	-0.01136603
44	0x3b4c44e9	0.0031169003
45	0x3a443237	0.0007484289
46	0xbb161638	-0.0022901427
47	0xbb910b9a	-0.004426432
48	0x3c251778	0.010076396
49	0x3b3b9624	0.0028623426
50	0xbc058a4d	-0.008150649
51	0xbc7a2413	-0.01526739
52	0x3c59295b	0.013254489
53	0x3b758e29	0.0037468767
54	0xbc2f5f35	-0.0107038515
55	0xbca4700b	-0.020072958
56	0x3cac77d1	0.021053227
57	0x3bc14e0f	0.005899198
58	0xbc8af4e7	-0.016962482
59	0xbd024b73	-0.031810235
60	0x00f4fff9	2.2499687e-38
61	0x81177988	-2.7821514e-38
62	0x8120c97d	-2.953192e-38
63	0x8087e9a2	-1.2481604e-38
64	0x3c8fbc03	0.017545706
65	0x3ba180cf	0.0049286853
66	0xbc68002c	-0.014160197
67	0xbcd9a21a	-0.026566554
68	0x3cabd9c9	0.020977871
69	0x3bc07e07	0.0058743986
70	0xbc8a750e	-0.01690152
71	0xbd01d77f	-0.031699654
72	0x3c90d0d9	0.017677711
73	0x3ba29b8f	0.0049623917
74	0xbc69d42e	-0.014271779
75	0xbcdb5cd2	-0.026777659
76	0x3be7bb5c	0.0070718955
77	0x3b032d4b	0.002001601
78	0xbbba8c11	-0.0056929667
79	0xbc2ed300	-0.0106704235

seq.0.bias f4 [20]
0	0x3e82412d	0.2544035
1	0x3e613041	0.21991064
2	0x3e8cd41b	0.27505574
3	0x3e98179f	0.2970552
4	0x3e8b7c9d	0.2724351
5	0x3e8665c6	0.26249522
6	0xbe132b0f	-0.14371894
7	0xbd86d24f	-0.06583082
8	0x3e8cbac3	0.27486238
9	0x3e73fafc	0.23826212
10	0x3e913c04	0.283661
11	0x3e992c68	0.29916692
12	0x3e98cd0d	0.2984394
13	0x3e95cd88	0.2925837
14	0x3e5f5b32	0.21812132
15	0xbe08bb01	-0.13352586
16	0x3e71e834	0.23623735
17	0x3e7076a4	0.23482758
18	0x3e616ff3	0.22015361
19	0x3e8ab721	0.2709284

seq.2.weight f4 [20, 20]
0	0x04ee011f	5.595456e-36
1	0x03c1b9aa	1.1386147e-36
2	0x04f0ae1d	5.6583627e-36
3	0x04f29654	5.703198e-36
4	0x04ea8aaa	5.514048e-36
5	0x84f75d11	-5.815489e-36
6	0x84f549c2	-5.766696e-36
7	0x04f466e0	5.74586e-36
8	0x04fa545c	5.885219e-36
9	0x84fac57f	-5.895609e-36
10	0x84f37ea3	-5.7245323e-36
11	0x04f8edb6	5.8522823e-36
12	0x842002ef	-1.8809257e-36
13	0x84fa1e30	-5.880244e-36
14	0x03431889	5.7333515e-37
15	0x05238c18	7.689954e-36
16	0x84fd3103	-5.9525024e-36
17	0x04c735b8	4.6834008e-36
18	0x04f8123d	5.832127e-36
19	0x04f856de	5.8384295e-36
20	0x3da6c158	0.08142346
21	0x3e0e3f38	0.13891304
22	0x3dbb6023	0.09149196
23	0x3d26896d	0.040658403
24	0x3dbd793f	0.092516415
25	0x3e0decd0	0.13859868
26	0x0504b138	6.23916e-36
27	0x04f60dae	5.7846885e-36
28	0x3cf4d786	0.029887926
29	0x3dc262b2	0.09491481
30	0x3d57cf43	0.052687895
31	0x3cac01f4	0.020997025
32	0x3d90ce36	0.070705816
33	0x3dbdb406	0.09262852
34	0x3e15c9dd	0.14627786
35	0x04f9f800	5.876737e-36
36	0x3dfa3689	0.12217433
37	0x3e154038	0.14575279
38	0x3dfc27eb	0.12312301
39	0x3d4a3fb7	0.04937717
40	0x3dc4f06d	0.0961617
41	0x3e2811ae	0.16412994
42	0x3ddd583a	0.108078435
43	0x3d452228	0.048128277
44	0x3ddfeff2	0.10934438
45	0x3e27b891	0.16379
46	0x84e21826	-5.315452e-36
47	0x0512dfdd	6.906004e-36
48	0x3d1071c5	0.03526475
49	0x3de59371	0.11209763
50	0x3d7f14c2	0.062275656
51	0x3ccb6921	0.024830403
52	0x3dab01c0	0.08349943
53	0x3de029cf	0.10945474
54	0x3e30f004	0.17279059
55	0x85031d0c	-6.1649255e-36
56	0x3e13d171	0.14435364
57	0x3e30585d	0.17221208
58	0x3e14f991	0.14548327
59	0x3d6f29c4	0.05838944
60	0x3caa4d77	0.020788891
61	0x3d1177d8	0.035514683
62	0x3cbf7a7a	0.023373831
63	0x3c2a31c9	0.010387846
64	0x3cc19e14	0.023634948
65	0x3d111cc9	0.035427842
66	0x8337e44d	-5.4040943e-37
67	0x84d17bcb	-4.924935e-36
68	0x3bf95a63	0.007609652
69	0x3cc6a738	0.024249658
70	0x3c5c60b3	0.013450789
71	0x3baf6380	0.0053524375
72	0x3c93b6a5	0.018031428
73	0x3cc1c8d7	0.023655338
74	0x3d19260b	0.037389796
75	0x84dd3a54	-5.2010416e-36
76	0x3cffce40	0.031226277
77	0x3d1897fd	0.037254322
78	0x3d00ea5a	0.031473495
79	0x3c4e80d6	0.012603959
80	0x3dc2cb9f	0.09511494
81	0x3e264d03	0.16240315
82	0x3ddaf074	0.10690394
83	0x3d42e39e	0.047580354
84	0x3ddd7abe	0.10814427
85	0x3e25cf32	0.1619232
86	0x050445ee	6.219454e-36
87	0x850a14d4	-6.492554e-36
88	0x3d0edc79	0.034878228
89	0x3de30297	0.11084478
90	0x3d7c58bf	0.061608072
91	0x3cc95aa1	0.024579348
92	0x3da90f48	0.08254868
93	0x3dddb8bf	0.10826253
94	0x3e2efe78	0.1708926
95	0x84c347f6	-4.5910365e-36
96	0x3e123337	0.1427735
97	0x3e2e68d4	0.17032176
98	0x3e13574b	0.14388768
99	0x3d6c6ab0	0.057718933
100	0x3c9c662a	0.019091684
101	0x3d058663	0.032598864
102	0x3cafcbe9	0.021459537
103	0x3c1bde29	0.009513416
104	0x3cb1d1a2	0.021706406
105	0x3d053b92	0.032527514
106	0x04f9ec80	5.875681e-36
107	0x84986c0d	-3.5834257e-36
108	0x3be4fa31	0.006987833
109	0x3cb65f06	0.022262108
110	0x3c4a2b25	0.012339388
111	0x3ba08d46	0.0048996536
112	0x3c87c1ed	0.016571963
113	0x3cb20399	0.021730231
114	0x3d0c95ff	0.034322735
115	0x84c74ade	-4.685343e-36
116	0x3ceae5c7	0.02867402
117	0x3d0c1ed3	0.034209084
118	0x3cecbc7e	0.028898474
119	0x3c3dab4a	0.011576483
120	0x84596afc	-2.5557352e-36
121	0x84ba8c17	-4.3857042e-36
122	0x8560636e	-1.0550692e-35
123	0x8501a626	-6.0960675e-36
124	0x85048edc	-6.232849e-36
125	0x851fe416	-7.518037e-36
126	0x05153647	7.0159155e-36
127	0x05769dbb	1.1595835e-35
128	0x850b1df3	-6.5412494e-36
129	0x04f2f9b8	5.7123257e-36
130	0x05088aec	6.420205e-36
131	0x04f233fe	5.6941674e-36
132	0x8502ac6b	-6.144239e-36
133	0x04f750ba	5.8143557e-36
134	0x05349ad6	8.491998e-36
135	0x04f4fd69	5.7596845e-36
136	0x85220f58	-7.6200216e-36
137	0x850b38a5	-6.5461525e-36
138	0x850c9153	-6.60946e-36
139	0x850bbb83	-6.570189e-36
140	0x3e36f8f3	0.17868404
141	0x3e9c14ca	0.3048461
142	0x3e4db345	0.20087917
143	0x3db723a9	0.089423485
144	0x3e4ff741	0.20309164
145	0x3e9bc5de	0.30424398
146	0x04f5963a	5.7737184e-36
147	0x84d4882b	-4.996601e-36
148	0x3d868f3c	0.065702885
149	0x3e554dce	0.20830461
150	0x3ded3101	0.115816124
151	0x3d3da6f7	0.04630181
152	0x3e1eeb18	0.15519369
153	0x3e504777	0.20339762
154	0x3ea443e9	0.3208306
155	0x069f3177	5.9881835e-35
156	0x3e89590a	0.26825744
157	0x3ea3c1ae	0.31983703
158	0x3e8a640a	0.2702945
159	0x3dde5ead	0.10857902
160	0x3de5a769	0.112135716
161	0x3e43edff	0.19133757
162	0x3e011203	0.12604527
163	0x3d658c30	0.056041896
164	0x3e028db7	0.12749372
165	0x3e439210	0.19098687
166	0x04ffb843	6.011943e-36
167	0x8510f89d	-6.8165105e-36
168	0x3d28a58c	0.041173503
169	0x3e05cfbf	0.1306753
170	0x3d94b0a8	0.07260257
171	0x3ced2a1c	0.028950743
172	0x3dc753f6	0.09732811
173	0x3e02aa9c	0.12760395
174	0x3e4e52dc	0.20148796
175	0x84c14c1d	-4.544398e-36
176	0x3e2c5c88	0.16832173
177	0x3e4da34c	0.20081824
178	0x3e2daaea	0.1695973
179	0x3d8b8865	0.068131246
180	0x3e04c5e0	0.12966108
181	0x3e6259f2	0.22104624
182	0x3e152710	0.14565682
183	0x3d84a285	0.06476311
184	0x3e16f53c	0.14741987
185	0x3e61ef2a	0.2206389
186	0x850f08e4	-6.7254606e-36
187	0x035abc1a	6.428037e-37
188	0x3d42b226	0.047533177
189	0x3e1aa5fa	0.15102378
190	0x3dabcad5	0.083882965
191	0x3d091e94	0.033476427
192	0x3de669bb	0.11250635
193	0x3e16f470	0.14741683
194	0x3e6e4f8e	0.23272535
195	0x84f3fe60	-5.7362632e-36
196	0x3e473aaa	0.19455972
197	0x3e6d7b73	0.23191623
198	0x3e48a375	0.19593604
199	0x3da121c2	0.07867767
200	0x3daf8b12	0.085714474
201	0x3e15c991	0.14627673
202	0x3dc561c4	0.09637788
203	0x3d2f6854	0.042824104
204	0x3dc78a95	0.09743229
205	0x3e157677	0.14595972
206	0x04fcbf70	5.9420723e-36
207	0x84d5a57b	-5.022803e-36
208	0x3d00cee6	0.031447314
209	0x3dccaa4f	0.09993421
210	0x3d634595	0.05548628
211	0x3cb527da	0.02211373
212	0x3d985a52	0.07439102
213	0x3dc7d94f	0.09758245
214	0x3e1db7ca	0.15402141
215	0x84cb1d77	-4.775213e-36
216	0x3e03c513	0.12868147
217	0x3e1d2ad7	0.15348373
218	0x3e04c36d	0.12965174
219	0x3d55043b	0.052005988
220	0x04f65587	5.7912867e-36
221	0x84fb1520	-5.9029217e-36
222	0x851e64ba	-7.447625e-36
223	0x84f07bc3	-5.6537386e-36
224	0x84fc15f6	-5.9265083e-36
225	0x84fbd0b2	-5.9201473e-36
226	0x04cde13d	4.8402117e-36
227	0x84e99d49	-5.492248e-36
228	0x8500616c	-6.036425e-36
229	0x850d054c	-6.630761e-36
230	0x04f3121a	5.714565e-36
231	0x04faf9df	5.9004188e-36
232	0x84f5efa0	-5.7819284e-36
233	0x0500d27d	6.057192e-36
234	0x04eb3016	5.5292394e-36
235	0x04fbf36a	5.9233357e-36
236	0x04f95cb0	5.862474e-36
237	0x04ed387e	5.5770312e-36
238	0x04f01017	5.6438505e-36
239	0x04f534bd	5.7647656e-36
240	0x04ece1d3	5.569072e-36
241	0x85289c4d	-7.92803e-36
242	0x04efa39f	5.6338892e-36
243	0x04f285b5	5.7016717e-36
244	0x04f20d26	5.6906e-36
245	0x83b52ea1	-1.0648929e-36
246	0x04f521fa	5.7630426e-36
247	0x849f75ee	-3.748902e-36
248	0x84f781fc	-5.8188793e-36
249	0x84fd9987	-5.9621007e-36
250	0x0504dc2f	6.2470515e-36
251	0x04f4d9c3	5.7564107e-36
252	0x84f538e5	-5.7651473e-36
253	0x0524a852	7.7421585e-36
254	0x04f39d2e	5.7273372e-36
255	0x84a3b7c3	-3.8489874e-36

seq.2.bias f4 [20]
0	0xbca26e10	-0.019827873
1	0x3e8aefd2	0.27136093
2	0x3e632400	0.22181702
3	0x3e4bfd19	0.19920768
4	0x3e69421c	0.22779125
5	0x3e6210bc	0.22076696
6	0xbd78405c	-0.060608253
7	0x3e3f9a8d	0.187113
8	0x3e4fdf66	0.20300063
9	0x3e324098	0.17407453
10	0x3e694108	0.22778714
11	0xbd82f41f	-0.06394219
12	0xbd0e23e0	-0.03470218
13	0x3f41e2b8	0.7573657
14	0x3e3a5b2c	0.18198842
15	0x3e81d140	0.25354958
16	0x3ea116bf	0.31462666
17	0x3e8a7fae	0.27050537
18	0x3e66c088	0.22534382
19	0x3e3c87f2	0.18411234

seq.4.weight f4 [20, 20]
0	0x050f00fd	6.724009e-36
1	0x3db4a6f6	0.08820908
2	0x3dd54403	0.10413363
3	0x3cb8f9fa	0.022580136
4	0x3dd30887	0.10304361
5	0x3ca9dc2b	0.020734867
6	0x85156cde	-7.025942e-36
7	0x3e45e8f6	0.19327149
8	0x3df896eb	0.1213816
9	0x3e0f6f2c	0.14007252
10	0x3dbe19a6	0.09282236
11	0x852b717d	-8.061226e-36
12	0x05a17e9d	1.5186878e-35
13	0xbe215238	-0.1575402
14	0x3e542532	0.20717314
15	0x3d3e6fa9	0.046493206
16	0x3c42b05a	0.011882866
17	0x3ddadb96	0.10686414
18	0x3d9ab950	0.07554877
19	0x3e45d49a	0.19319382
20	0x0465fce1	2.7034937e-36
21	0x858653ca	-1.2632079e-35
22	0x1aaf7c00	7.2578636e-23
23	0x13f45f50	6.1688245e-27
24	0x85a29498	-1.5288992e-35
25	0x0332f049	5.2585332e-37
26	0x0f5faee5	1.1028432e-29
27	0x2453421c	4.580933e-17
28	0x0a8cb382	1.3549033e-32
29	0xa8b5ccac	-2.0183799e-14
30	0x250232d4	1.1292924e-16
31	0x853dffba	-8.933707e-36
32	0x05310681	8.3236946e-36
33	0x0404a5ad	1.55926e-36
34	0x2eb5926f	8.256939e-11
35	0x1e9333d7	1.5585671e-20
36	0x84bdf3dd	-4.465764e-36
37	0x85a7fd41	-1.5797635e-35
38	0x84b8dda0	-4.3461723e-36
39	0x2ba23084	1.1524258e-12
40	0x854148aa	-9.088163e-36
41	0x3e436f09	0.19085325
42	0x3e66d7b1	0.22543217
43	0x3d47af9b	0.048751455
44	0x3e64452c	0.22292012
45	0x3d37b41e	0.044849508
46	0x853df165	-8.9310745e-36
47	0x3ed61f5f	0.4182081
48	0x3e8686b3	0.26274642
49	0x3e9b5220	0.30336094
50	0x3e4dba23	0.20090537
51	0x055f76c4	1.05072234e-35
52	0x04d5d8f3	5.0275296e-36
53	0xbeae4862	-0.340396
54	0x3ee57784	0.44817746
55	0x3dce34ab	0.10068639
56	0x3cd21ccf	0.025648503
57	0x3e6cb910	0.2311747
58	0x3e2767c1	0.16348173
59	0x3ed5fba0	0.41793537
60	0x054cb05d	9.624427e-36
61	0x03e938b8	1.3707531e-36
62	0x8581314e	-1.2149213e-35
63	0x853594e6	-8.5379274e-36
64	0x83808588	-7.553821e-37
65	0x85775d2a	-1.1630996e-35
66	0x0536ac17	8.589207e-36
67	0x056b1f72	1.10554225e-35
68	0x05237db0	7.687308e-36
69	0x84ecfaa8	-5.5713525e-36
70	0x05aa17e1	1.5995495e-35
71	0x05335730	8.4325534e-36
72	0x052fe9b2	8.2713835e-36
73	0x84a41020	-3.8571023e-36
74	0x04f2210f	5.6924286e-36
75	0x04bffb63	4.5134746e-36
76	0x05040f81	6.209458e-36
77	0x053de7d6	8.929319e-36
78	0x05059155	6.280323e-36
79	0x8589bd4f	-1.2952959e-35
80	0x855918ba	-1.02078325e-35
81	0x05a66509	1.564768e-35
82	0x8478254e	-2.916939e-36
83	0x8586f92c	-1.2692831e-35
84	0x052e53b4	8.1968145e-36
85	0x8573e840	-1.1468463e-35
86	0x056a3048	1.1011495e-35
87	0x0485d025	3.14593e-36
88	0x846269d2	-2.6614763e-36
89	0x0528563b	7.91516e-36
90	0x05283caf	7.910468e-36
91	0x85415b3f	-9.091576e-36
92	0x05612674	1.0586512e-35
93	0x04126094	1.7206564e-36
94	0x0581e2a4	1.2214356e-35
95	0x053dd7d8	8.9263815e-36
96	0x05aeb96a	1.6430992e-35
97	0x854c0e25	-9.594632e-36
98	0x858a3bc5	-1.2999413e-35
99	0x05295661	7.962207e-36
100	0x853cda42	-8.879805e-36
101	0x3da3c352	0.07996239
102	0x3dc12e80	0.09432697
103	0x3ca7788f	0.020443229
104	0x3dbf4983	0.09340193
105	0x3c99fa94	0.018796243
106	0x85295344	-7.961635e-36
107	0x3e336a9c	0.17521137
108	0x3de13593	0.109965466
109	0x3e021398	0.12702787
110	0x3dac64af	0.08417641
111	0x85313196	-8.3316075e-36
112	0x05308ad9	8.3009825e-36
113	0xbe122053	-0.14270143
114	0x3e40194a	0.18759647
115	0x3d2cac9a	0.042156793
116	0x3c302248	0.010750361
117	0x3dc665e5	0.096874036
118	0x3d8c43c3	0.06848862
119	0x3e33598e	0.17514631
120	0x83e29220	-1.3316635e-36
121	0x3e586d1e	0.21135375
122	0x3e7fb67f	0.2497196
123	0x3d5d8e7c	0.05409096
124	0x3e7cd186	0.24689302
125	0x3d4b60d9	0.049652908
126	0x90541ce8	-4.1831897e-29
127	0x3eed2ca2	0.46323115
128	0x3e950370	0.29104185
129	0x3eac166f	0.33610865
130	0x3e63d108	0.22247708
131	0x04db2fd3	5.1530572e-36
132	0x054c7f21	9.615384e-36
133	0xbec054fd	-0.3756484
134	0x3efe247a	0.49637204
135	0x3de42e7e	0.1114168
136	0x3ce7f963	0.028317159
137	0x3e831719	0.2560356
138	0x3e3963d7	0.18104492
139	0x3eed1501	0.46305087
140	0x044b9d0a	2.3934644e-36
141	0x3e0ebb9c	0.13938755
142	0x3e28788e	0.16452238
143	0x3d120bb8	0.035655707
144	0x3e26bb7c	0.16282457
145	0x3d0614a9	0.032734547
146	0x852e3482	-8.191085e-36
147	0x3e9c52e2	0.30531985
148	0x3e447cf9	0.19188298
149	0x3e62d691	0.22152163
150	0x3e163f93	0.14672689
151	0x0421b465	1.9008292e-36
152	0x05531699	9.925323e-36
153	0xbe7e5f1a	-0.24840966
154	0x3ea78f14	0.32726347
155	0x3d967a88	0.0734759
156	0x3c999cf7	0.018751604
157	0x3e2ce806	0.16885385
158	0x3df46501	0.119333275
159	0x3e9c51f9	0.3053129
160	0x853502ed	-8.5111165e-36
161	0x3dca40fd	0.09875677
162	0x3deeeccb	0.116662584
163	0x3ccf1122	0.025276724
164	0x3dec41a0	0.115359545
165	0x3cbe2b33	0.023213958
166	0x0567efa2	1.09055814e-35
167	0x3e5da565	0.21645124
168	0x3e0b2a83	0.13590436
169	0x3e20d635	0.15706713
170	0x3dd4f602	0.10398485
171	0x0539d0de	8.737021e-36
172	0x0517d7e2	7.139637e-36
173	0xbe33753e	-0.17525193
174	0x3e6d9989	0.232031
175	0x3d556066	0.052093886
176	0x3c59cf23	0.013294014
177	0x3df5038d	0.11963568
178	0x3dad3a40	0.08458376
179	0x3e5d9d9c	0.21642154
180	0x05346c07	8.483401e-36
181	0xbbec6c96	-0.007215093
182	0xbc0af837	-0.008482031
183	0xbae9555d	-0.001780193
184	0xbc094973	-0.008379328
185	0xbad4d979	-0.0016239128
186	0x85390876	-8.700212e-36
187	0xbc82bea3	-0.015960043
188	0xbc238c84	-0.009982232
189	0xbc3d18ad	-0.011541528
190	0xbbf89ef3	-0.0075873076
191	0x055a6d98	1.027044e-35
192	0x85411e67	-9.0804004e-36
193	0x3c5670a8	0.013088383
194	0xbc8a90bf	-0.016914723
195	0xbb732ebe	-0.0037106718
196	0xba6199fe	-0.00086060155
197	0xbc0fae6a	-0.008769611
198	0xbbca5869	-0.00617509
199	0xbc824aa9	-0.015904741
200	0x853723f8	-8.611225e-36
201	0x0379e5c0	7.3438263e-37
202	0x84ec4317	-5.5544946e-36
203	0x05830fb4	1.2324949e-35
204	0x05b18782	1.6694778e-35
205	0x85925ae9	-1.3763169e-35
206	0x054db87b	9.6729374e-36
207	0x0503dca4	6.200116e-36
208	0x0485efe0	3.148844e-36
209	0x85543c3a	-9.979254e-36
210	0x02cae85a	2.9814596e-37
211	0x0533c3c0	8.452493e-36
212	0x05394be0	8.712594e-36
213	0x03f8080a	1.4577976e-36
214	0x83f45600	-1.4360776e-36
215	0x842a3a8f	-2.0010293e-36
216	0x05b5a7fb	1.7082864e-35
217	0x053641c0	8.569675e-36
218	0x0575c992	1.1556867e-35
219	0x84d15fff	-4.9223822e-36
220	0x8548fc69	-9.450315e-36
221	0x3dfbb1f2	0.122898
222	0x3e1495e1	0.145103
223	0x3d00c2a7	0.031435635
224	0x3e12ffd7	0.14355408
225	0x3cecaeaf	0.02889189
226	0x8532ed04	-8.413053e-36
227	0x3e89e86e	0.26935142
228	0x3e2d435f	0.16920231
229	0x3e4823ca	0.19544902
230	0x3e04823f	0.1294031
231	0x04e1af8b	5.3058457e-36
232	0x054ae0bc	9.5392715e-36
233	0xbe60be7a	-0.21947661
234	0x3e93be0d	0.28855935
235	0x3d84ceec	0.0648478
236	0x3c878e7b	0.016547432
237	0x3e18745c	0.14888138
238	0x3dd78565	0.1052349
239	0x3e89defe	0.26927942
240	0x043d4629	2.224906e-36
241	0x0594dc8e	1.3998872e-35
242	0x053456b9	8.479488e-36
243	0x05931d80	1.383465e-35
244	0x8549719b	-9.4718406e-36
245	0x04a96257	3.982202e-36
246	0x0560dcfc	1.0573018e-35
247	0x053ad9b1	8.7856616e-36
248	0x852d6ec9	-8.154769e-36
249	0x053def8d	8.930736e-36
250	0x02f1c328	3.5523782e-37
251	0x053f0303	8.98133e-36
252	0x0579bfdf	1.1743165e-35
253	0x0536b263	8.590363e-36
254	0x84dcce9e	-5.19115e-36
255	0x85ae7d79	-1.6408973e-35

seq.4.bias f4 [20]
0	0x3e1fb4bd	0.1559629
1	0xbdb42656	-0.087963745
2	0x3e087604	0.1332627
3	0xb28d3c4f	-1.6441986e-08
4	0xbd411ec0	-0.047148466
5	0x3e115491	0.14192416
6	0x3e0a8811	0.13528468
7	0x3e0f15c3	0.13973145
8	0x3e307ac8	0.17234337
9	0x3de3aad9	0.11116571
10	0xb2f5b12e	-2.8602326e-08
11	0x3e19e006	0.15026864
12	0xbc9b7199	-0.018975066
13	0xbdb98ef9	-0.09060473
14	0x3e40cdd3	0.18828516
15	0x00000000	0.0
16	0x3e086d35	0.13322909
17	0x3e1249b5	0.1428593
18	0x3e132c98	0.1437248
19	0x3e0c9131	0.13727261

seq.6.weight f4 [1, 20]
0	0x3e729b59	0.23692073
1	0xa978b5a7	-5.522462e-14
2	0x3f033891	0.5125819
3	0x1df5b152	6.5034305e-21
4	0xa204c291	-1.7992338e-18
5	0x3e5be84c	0.21475333
6	0x3f114f68	0.5676179
7	0x3ebfa9b6	0.37434167
8	0x3e87c849	0.26519993
9	0xbca14476	-0.019685965
10	0x14217380	8.151201e-27
11	0x3ea90155	0.3300883
12	0x842f9b5a	-2.0642485e-36
13	0x04530cac	2.480875e-36
14	0xbd0909c1	-0.033456568
15	0x043f2877	2.2470523e-36
16	0x3f0ff788	0.5623708
17	0x3e62da6f	0.22153638
18	0x3eccaf7b	0.3997763
19	0x3ef84587	0.48490545

seq.8.weight f8 [1, 1]
0	0x3ff0000000000000	1.0
