examples/benchmarks/models/nn_1_relu_tanh/model.pt (torch, 4603 bytes, 6 tensors)

seq.0.weight f4 [20, 2]
0	0xbbf20c55	-0.007386724
1	0x3d20075f	0.03906953
2	0x3c772f93	0.015087026
3	0xbda3d6d4	-0.079999596
4	0x81f631df	-9.043769e-38
5	0x81f3fc71	-8.962634e-38
6	0x3ca0462f	0.019564716
7	0xbdd3f392	-0.10349192
8	0xbc1a136e	-0.009404046
9	0x3d4bf695	0.049795706
10	0x3ca132b5	0.0196775
11	0xbdd52956	-0.10408275
12	0x00000000	0.0
13	0x01e35c8e	8.351944e-38
14	0xbc3b0234	-0.0114140995
15	0x3d781308	0.060565025
16	0xbbdb7523	-0.0066973134
17	0x3d1115a1	0.035421018
18	0xbbeaab3e	-0.007161527
19	0x3d1b322e	0.037889652
20	0x3c3289d2	0.010897117
21	0xbd6cd60a	-0.05782131
22	0x3ccf0226	0.02526958
23	0xbe08a3b5	-0.133437
24	0xbceee409	-0.02916147
25	0x3e1d8f10	0.15386605
26	0x3c6708c5	0.014101212
27	0xbd993508	-0.07480818
28	0x3cd3d4f0	0.025858372
29	0xbe0bcea6	-0.13653049
30	0x80904bf5	-1.325156e-38
31	0x00e65d5b	2.1155654e-38
32	0x3c971103	0.018440729
33	0xbdc7e0a1	-0.097596414
34	0xbd0a2b74	-0.033732846
35	0x3e361ed7	0.17785202
36	0x3b97b34c	0.004629528
37	0xbcca12bd	-0.024667138
38	0x3cd6cf0c	0.026221775
39	0xbe0dc2b3	-0.13843803

seq.0.bias f4 [20]
0	0x3e4e02f3	0.20118313
1	0x3ecef2a0	0.40419483
2	0xbcbc49a0	-0.022984326
3	0x3e9ff963	0.31244954
4	0x3ead8830	0.33892965
5	0x3ec2aaa3	0.3802081
6	0xbdb4772c	-0.08811793
7	0x3e9a053b	0.30082116
8	0x3e97fe1d	0.2968606
9	0x3d559a67	0.052149203
10	0x3e74645d	0.2386641
11	0x3e8d89ea	0.27644283
12	0x3e75dacb	0.24009244
13	0x3ea09774	0.3136555
14	0x3e802b0c	0.25032842
15	0xbd3834b0	-0.04497212
16	0x3e6531c7	0.2238227
17	0x3ef26ba8	0.4734776
18	0x3e8063f6	0.25076264
19	0x3e97cee6	0.29650038

seq.2.weight f4 [20, 20]
0	0x031e4a50	4.6517333e-37
1	0x8426a13e	-1.9587245e-36
2	0x02fd00b3	3.717541e-37
3	0x80000000	-0.0
4	0x04880c1d	3.198457e-36
5	0x84183084	-1.7889791e-36
6	0x842aafeb	-2.0064182e-36
7	0x835efd19	-6.553048e-37
8	0x039ee986	9.34002e-37
9	0x8347a7bc	-5.8673394e-37
10	0x043a2d36	2.1884955e-36
11	0x83c2893a	-1.1433801e-36
12	0x0478a271	2.922685e-36
13	0x831c1fc7	-4.588076e-37
14	0x03c6ff26	1.1695973e-36
15	0x047eb77c	2.9941808e-36
16	0x84afd780	-4.1340208e-36
17	0x03a94312	9.948326e-37
18	0x039f04ef	9.346313e-37
19	0x844fdffc	-2.4435582e-36
20	0xbdbca7d8	-0.09211701
21	0x3e40e8c8	0.18838799
22	0x84871536	-3.1757827e-36
23	0x3e7965ab	0.2435519
24	0xbdf0281f	-0.117264025
25	0x3e7ad5ce	0.24495623
26	0x83d833f2	-1.2707265e-36
27	0xbe11e7ec	-0.14248627
28	0xbdaaf391	-0.08347238
29	0xbdb6dfac	-0.08929381
30	0x3e0b780f	0.13620017
31	0x3ea0b2ac	0.31386316
32	0xbeb92f9d	-0.3616914
33	0x3e346329	0.17615952
34	0x3ea4693b	0.32111534
35	0x044b6456	2.3908607e-36
36	0x3e6b30fa	0.22967902
37	0xbed6012a	-0.41797763
38	0x3d6da367	0.05801716
39	0x3ea6b6fd	0.32561484
40	0x04aa42ac	4.0028036e-36
41	0x03eb710a	1.3838011e-36
42	0x039ea229	9.3236355e-37
43	0x04a1d503	3.804654e-36
44	0x03dca90c	1.2969249e-36
45	0x8389e9f8	-8.105853e-37
46	0x04a6f9ba	3.925575e-36
47	0x84223eea	-1.9071897e-36
48	0x04b017b9	4.1399187e-36
49	0x0479abfd	2.9348782e-36
50	0x849ecc53	-3.7333264e-36
51	0x0482656f	3.0656005e-36
52	0x045df0df	2.6089028e-36
53	0x84a1daa3	-3.8051704e-36
54	0x841e2fee	-1.8594819e-36
55	0x8248373c	-1.4709531e-37
56	0x83802870	-7.532448e-37
57	0x044e214b	2.4230471e-36
58	0x8433cc89	-2.1135267e-36
59	0x84949e2d	-3.4939894e-36
60	0x3cd69f72	0.026199076
61	0xbd5b856b	-0.053594034
62	0x83ca3b24	-1.1886071e-36
63	0xbd8de71b	-0.069288455
64	0x3d08aa18	0.03336534
65	0xbd8eb954	-0.06968942
66	0x83f8faee	-1.4633741e-36
67	0x3d260971	0.040536348
68	0x3cc287e6	0.023746442
69	0x3ccfebb7	0.025380952
70	0xbd1eb0da	-0.038742878
71	0xbdb6dd56	-0.08928935
72	0x3dd2c257	0.10290974
73	0xbd4d447f	-0.05011415
74	0xbdbb159e	-0.091349825
75	0x04b3b656	4.2250147e-36
76	0xbd85cfb0	-0.06533754
77	0x3df39b73	0.11894884
78	0xbc87260e	-0.016497638
79	0xbdbdb756	-0.09263484
80	0xbdb7570e	-0.08952151
81	0x3e3b4ea8	0.18291724
82	0x304a5100	7.360228e-10
83	0x3e72335e	0.23652408
84	0xbde96c46	-0.11397605
85	0x3e7394f5	0.23787291
86	0x034a1892	5.939067e-37
87	0xbe0dcae3	-0.13846926
88	0xbda62e3d	-0.08114288
89	0xbdb1a989	-0.086749144
90	0x3e076ea6	0.13225803
91	0x3e9c1317	0.30483314
92	0xbeb3e9b9	-0.35139254
93	0x3e2f29e6	0.17105827
94	0x3e9faf4d	0.3118843
95	0x0334a0f1	5.3081997e-37
96	0x3e646bd0	0.22306752
97	0xbecfed1c	-0.40610588
98	0x3d66a32d	0.05630796
99	0x3ea1eac4	0.31624424
100	0x3d3ed0de	0.04658591
101	0xbdc2cb5c	-0.09511444
102	0x84a6d0a3	-3.9218015e-36
103	0xbdfbeb62	-0.12300755
104	0x3d7308b4	0.05933447
105	0xbdfd5a03	-0.12370684
106	0x0357a228	6.3368968e-37
107	0x3d9398fc	0.07206914
108	0x3d2d0867	0.04224434
109	0x3d38eabb	0.04514573
110	0xbd8cd6fe	-0.06876944
111	0xbe225896	-0.15854105
112	0x3e3b3903	0.18283467
113	0xbdb62bb0	-0.088950515
114	0xbe2619b1	-0.16220738
115	0x03929edd	8.617582e-37
116	0xbded95bf	-0.116008274
117	0x3e587127	0.21136914
118	0xbcefac37	-0.029256923
119	0xbe286cce	-0.16447756
120	0x3ba84a63	0.0051358207
121	0xbc2d7a88	-0.010588296
122	0x839017fe	-8.469068e-37
123	0xbc601a86	-0.013678199
124	0x3bd6ebca	0.00655887
125	0xbc61769c	-0.013761189
126	0x84529a02	-2.4756098e-36
127	0x3c02667f	0.007959007
128	0x3b989097	0.0046559083
129	0x3ba3566b	0.004984667
130	0xbbfa8e8e	-0.0076463884
131	0xbc904dac	-0.017615162
132	0x3ca62f3e	0.020286199
133	0xbc2225d7	-0.009896717
134	0xbc93a13f	-0.018021224
135	0x83a20574	-9.522756e-37
136	0xbc533fe0	-0.012893647
137	0x3cc00194	0.023438253
138	0xbb5613b9	-0.0032665564
139	0xbc95bde8	-0.01827903
140	0x3dbbc0a3	0.09167602
141	0xbe3f917d	-0.18707843
142	0x84017858	-1.5219136e-36
143	0xbe77c3e9	-0.24195828
144	0x3def1ba9	0.11675198
145	0xbe792a4a	-0.24332538
146	0x043a1ab9	2.1876465e-36
147	0x3e113557	0.14180504
148	0x3daa428a	0.083134726
149	0x3db5d899	0.08879203
150	0xbe0a852a	-0.1352736
151	0xbe9fad43	-0.31186876
152	0x3eb82955	0.35969034
153	0xbe332952	-0.17496231
154	0xbea35f9a	-0.31908876
155	0x84126a13	-1.7210924e-36
156	0xbe69aeb0	-0.22820544
157	0x3ed4e468	0.4158051
158	0xbd6bb5ff	-0.057546612
159	0xbea5a76d	-0.32354298
160	0xbd8a7f9e	-0.06762622
161	0x3e0dad98	0.13835752
162	0x83441ba0	-5.7630935e-37
163	0x3e37270c	0.17885989
164	0xbdb04fea	-0.086089924
165	0x3e383687	0.1798955
166	0x048ea462	3.3535e-36
167	0xbdd63e86	-0.10461144
168	0xbd7afcb7	-0.061276164
169	0xbd863ed7	-0.065549545
170	0x3dccd99c	0.10002443
171	0x3e6c04ac	0.23048657
172	0xbe87fa54	-0.26558173
173	0x3e047a21	0.12937213
174	0x3e717782	0.23580745
175	0x83a45b9f	-9.660089e-37
176	0x3e2cb655	0.16866429
177	0xbe9d2446	-0.30691737
178	0x3d2e8a02	0.042612083
179	0x3e74db1e	0.23911712
180	0xbda1d97e	-0.079028115
181	0x3e25997a	0.16171828
182	0x83db576a	-1.2891732e-36
183	0x3e5610c4	0.20904833
184	0xbdce05f0	-0.10059726
185	0x3e574ef4	0.21026212
186	0x827cad73	-1.8563814e-37
187	0xbdfa5c4c	-0.122246355
188	0xbd92a382	-0.07160093
189	0xbd9ce88c	-0.07661542
190	0x3def6e89	0.11691005
191	0x3e89ec80	0.26938248
192	0xbe9ee950	-0.31037378
193	0x3e1ad752	0.151212
194	0x3e8d1ba2	0.27560145
195	0x82088b59	-1.0031693e-37
196	0x3e49dc44	0.19712931
197	0xbeb7a302	-0.35866553
198	0x3d4c0a9e	0.049814813
199	0x3e8f16ab	0.27946982
200	0x04a0cb95	3.780278e-36
201	0x841f791b	-1.8745969e-36
202	0x84056b57	-1.5683363e-36
203	0x83a54f9e	-9.716108e-37
204	0x04b4c4df	4.2498594e-36
205	0x83834097	-7.714317e-37
206	0x0499c58d	3.615155e-36
207	0x8409f535	-1.6216866e-36
208	0x048ea2e2	3.3533624e-36
209	0x02f020b4	3.5283601e-37
210	0x03e63db7	1.3532354e-36
211	0x04a34ca8	3.8391513e-36
212	0x84040752	-1.5519887e-36
213	0x8493dff8	-3.4765217e-36
214	0x84051511	-1.5643748e-36
215	0x0199f266	5.655115e-38
216	0x83914856	-8.538942e-37
217	0x846cc7c0	-2.7833387e-36
218	0x8362175a	-6.6442237e-37
219	0x02a09457	2.359503e-37
220	0x3d3d3acf	0.046198662
221	0xbdc14431	-0.094368346
222	0x02dc928c	3.2410208e-37
223	0xbdf9ec06	-0.12203221
224	0x3d70fda0	0.058835626
225	0xbdfb5933	-0.12272873
226	0x84a57098	-3.8894715e-36
227	0x3d925eb0	0.071469665
228	0x3d2b90ed	0.04188626
229	0x3d374dc6	0.044751905
230	0xbd8bbb3c	-0.068228215
231	0xbe210d6c	-0.15727776
232	0x3e39b279	0.18134488
233	0xbdb4bc70	-0.08825004
234	0xbe24c687	-0.16091357
235	0x83e0e2b2	-1.3217583e-36
236	0xbdebb24e	-0.11508618
237	0x3e56a88e	0.20962736
238	0xbceddaac	-0.029034935
239	0xbe271551	-0.16316725
240	0xbdb8095a	-0.08986159
241	0x3e3c2f28	0.18377364
242	0x8445a26f	-2.3231825e-36
243	0x3e734a02	0.237587
244	0xbdea4750	-0.11439383
245	0x3e74b11f	0.23895691
246	0x84358629	-2.1338051e-36
247	0xbe0e558e	-0.13899824
248	0xbda6c45e	-0.08142923
249	0xbdb26523	-0.087106965
250	0x3e080d95	0.13286431
251	0x3e9cc333	0.30617675
252	0xbeb4a6ee	-0.35283607
253	0x3e2ff7fd	0.17184444
254	0x3ea0627f	0.31325147
255	0x03da0baa	1.2815566e-36

seq.2.bias f4 [20]
0	0xbd4aa792	-0.049476214
1	0x3e9e5340	0.3092289
2	0xbda25c98	-0.07927817
3	0x3e7d61e9	0.24744381
4	0x3ea77b94	0.3271147
5	0x3ebceda8	0.36900067
6	0x3d3defed	0.04637139
7	0x3f395771	0.7239905
8	0x3e678bbd	0.226119
9	0x3e86b2c5	0.26308265
10	0xbcc267bb	-0.023731103
11	0x3ebed0cf	0.37268683
12	0x3e9a8181	0.3017693
13	0xbd144c7b	-0.03620575
14	0x3e2ecff9	0.17071523
15	0x3f01755e	0.50569713
16	0x3e8312e3	0.25600347
17	0x3e437a3e	0.190896
18	0x3e88febb	0.26756844
19	0x3f2a3aab	0.6649577

seq.4.weight f4 [1, 20]
0	0x8342581a	-5.711261e-37
1	0x3f01b166	0.50661314
2	0x835d6a93	-6.5068404e-37
3	0xbe13958e	-0.1441252
4	0x3efbf276	0.4920842
5	0xbe8312b1	-0.25600198
6	0xbce8891b	-0.02838569
7	0xbf00ec6d	-0.5036076
8	0x3ebe79d1	0.37202314
9	0x3ede9d03	0.43479165
10	0x031499a0	4.3669644e-37
11	0xbe82035b	-0.25393185
12	0x3efd08a5	0.49420658
13	0x8256b402	-1.5773897e-37
14	0x3e7c88f7	0.24661623
15	0xbeb0a8f6	-0.34503907
16	0xbe2f7c19	-0.17137183
17	0x3e8e48e3	0.27789983
18	0xbe378f49	-0.17925753
19	0xbeecac2b	-0.46225104

seq.6.weight f8 [1, 1]
0	0x4010000000000000	4.0
