examples/arch-comp/docking/models/model/model.pt (torch, 275375 bytes, 5 tensors)

seq.0.bias f4 [4]
000000 00 00 00 00 00 00 00 00 00 00 00 00 00 00 00 00
       0.0 0.0 0.0 0.0

seq.1.bias f4 [256]
000000 7a 94 9a 3d 69 06 39 bc 0c 05 1d bd 49 cd 2c 3d
       0.07547851 -0.011293032 -0.03833489 0.042187963
000010 af f9 bd 3d 8d bf 8b bb e9 40 09 bd 59 fe d7 bc
       0.09276139 -0.004264778 -0.03350917 -0.0263664
000020 7b ce 5f 3d 42 be 43 3d 88 8c 9c 3d 47 35 11 bd
       0.054640274 0.047788866 0.07643992 -0.0354512
000030 75 bd d8 3c 2d 2c c0 bc 3b a9 81 3d 86 d7 cb 3d
       0.026457528 -0.023458565 0.06331106 0.09953217
000040 44 f5 0c bc 12 f2 b7 bb 70 c4 a3 bb d2 76 f9 3c
       -0.008603398 -0.005613574 -0.0049977824 0.030452166
000050 4e 2f e8 3c 3a 6b 72 bd 24 46 a5 bd b3 40 9b bd
       0.02834287 -0.05918429 -0.08070019 -0.075807
000060 d7 a4 0a bd 5b 01 2f 3d b3 32 f3 bc 15 4b 08 bd
       -0.03384861 0.042725902 -0.029687261 -0.03327473
000070 8c 2a b9 3b 3c 7d 55 3c c8 07 01 bd 0d 13 d2 bb
       0.005650824 0.0130303465 -0.03150156 -0.0064109624
000080 0f 22 43 bd f6 3f 01 bd 6d 52 a7 3c 35 b0 86 bc
       -0.047639903 -0.03155514 0.020425046 -0.016441444
000090 12 7b 8e 3d 67 73 93 bc 25 0b 3b 3d a7 b2 86 3d
       0.069570675 -0.017999364 0.045664925 0.06577044
0000a0 35 88 84 bd 2d 34 90 3d 46 e6 c1 3d ac 25 94 bd
       -0.06471292 0.07041202 0.09467749 -0.07233748
0000b0 ed 1b 06 bd 39 67 5e 3d 18 d9 44 3c 5d 66 b7 3c
       -0.032741476 0.05429766 0.01201465 0.022387678
0000c0 cf c6 91 3d d1 a8 8f bd 6d 3e a8 bc 01 8e 84 bc
       0.07117998 -0.07014621 -0.02053758 -0.016180994
0000d0 93 31 97 bd d5 48 ad bd b9 ba 03 bd 71 34 09 3d
       -0.073825024 -0.08461157 -0.032160494 0.033497278
0000e0 b4 f1 8d 3d 68 f5 82 bc 34 78 45 bd ec 6d 3a bc
       0.06930867 -0.01598616 -0.048210338 -0.0113787465
0000f0 49 40 97 bc 07 0b 4a 3d b4 d5 92 3d bf 10 e0 3c
       -0.01846327 0.049326923 0.07169667 0.027351735
000100 63 23 da 3b e5 c0 39 bd b7 f4 14 bb 13 6a a9 bd
       0.0066570505 -0.045349974 -0.002272887 -0.08272185
000110 42 39 af bd 83 11 4a 3d c9 c6 65 3d e5 83 bc bd
       -0.08555843 0.049333107 0.05609778 -0.092048444
000120 dd 7f 84 3c 13 86 96 bc d6 81 14 bd 6b 61 a4 bd
       0.016174251 -0.018374478 -0.036256634 -0.080263935
000130 94 7c c7 bc ef fb f4 3b 5b 56 43 3d f4 59 53 bd
       -0.024351396 0.007476322 0.047689777 -0.051599458
000140 b8 23 11 bd e7 60 b6 3c 83 c2 02 3d 70 10 1b bd
       -0.035434455 0.022263004 0.031923782 -0.037857473
000150 19 fa a3 3c b3 1a c4 bc 49 68 fc bd fa 54 1e 3d
       0.020016717 -0.023938512 -0.12324578 0.03865526
000160 c9 a4 64 bd 0f 6b d1 3c 3a cc 9a bd 7d 53 75 bd
       -0.055821214 0.025563745 -0.075584844 -0.059894074
000170 4d 74 7c 3c 29 b1 6d bd 35 88 65 bd 3c e6 a2 bd
       0.015408588 -0.05803028 -0.0560381 -0.0795407
000180 f2 e5 5f bd 1d 1c a0 bd fd 30 49 bc df f3 9a 3d
       -0.054662652 -0.07817862 -0.012279746 0.07566046
000190 59 37 39 bd 87 61 b8 3a d8 9d e0 bc d9 03 96 3d
       -0.0452188 0.0014067151 -0.027419016 0.07324953
0001a0 4c 2b ca bc 2e 5f 4b 3d f6 db b4 3d 2e 2f b5 3d
       -0.024678849 0.049651317 0.08831017 0.088468894
0001b0 fa 00 83 bd 45 c5 a9 3b b1 86 24 bd 4b 2e 0d 3c
       -0.06396671 0.005180987 -0.040167514 0.008616994
0001c0 2b 79 b0 bc 43 e0 87 bc 1f 8d a9 3d 48 52 39 bc
       -0.021542152 -0.016586429 0.0827887 -0.011311121
0001d0 b7 ac 3b 3d e0 eb 08 bd 92 02 97 3d a7 0a 52 bd
       0.04581901 -0.033428073 0.07373537 -0.05127969
0001e0 b3 30 ad 3d 04 ec 9e bd 99 8d 8e 3d af 04 ad 3d
       0.08456554 -0.0775986 0.06960601 0.08448159
0001f0 7a 55 5d bd 80 a5 a8 3d 1f bc 02 3e fc 95 b1 bd
       -0.054036595 0.082346916 0.12767075 -0.086711854
000200 7d bb f2 3b 62 d4 19 3d 91 28 85 bd 26 16 d0 bd
       0.0074076043 0.03755606 -0.06501878 -0.101604745
000210 26 80 2a 3d 73 28 9c 3d 14 46 c7 3d ad 27 27 3d
       0.041626118 0.076249026 0.09730163 0.040809322
000220 00 ae 5d 3a 01 51 10 bd f3 ed 97 3c bc 09 81 bd
       0.0008456409 -0.0352335 0.01854608 -0.06300685
000230 15 29 4a bd 17 33 b7 bc e9 c6 25 bd 17 03 77 bd
       -0.049355585 -0.022363229 -0.0404729 -0.06030568
000240 8b 4e fb bb b8 6e 1c bd 5e 48 b4 3c b6 dd 96 3d
       -0.007669275 -0.038191527 0.022007164 0.07366507
000250 a2 51 bc bd 6b 68 d2 3d 52 67 ab bd 72 35 83 bd
       -0.09195258 0.102738224 -0.08369316 -0.06406678
000260 b6 05 b9 3d fe 54 79 3d bc 79 d5 3c 33 01 ed 3d
       0.090342924 0.06087207 0.026059024 0.11572494
000270 fd 9e 88 bd 32 8a 28 bd e2 2a ba bc e8 c3 03 3d
       -0.066709496 -0.04114742 -0.022725526 0.032169253
000280 e2 65 67 3d 57 58 1d 3b 49 ed 17 bc 07 54 7f bd
       0.056493647 0.0024008953 -0.009272882 -0.062335994
000290 30 9a 15 bd d4 23 93 bb b4 b5 3f 3d b5 21 1d 3d
       -0.036523998 -0.004490355 0.046804145 0.038362224
0002a0 19 1f 2c 3d 18 58 aa bc b5 d2 8c bd b2 44 50 3d
       0.042021845 -0.02079396 -0.06876127 0.050846763
0002b0 10 5b 5c bd 32 ec 34 bc ed 92 85 bc 16 e3 ad 3d
       -0.05379778 -0.0110426415 -0.016305411 0.08490579
0002c0 e7 16 41 bd 05 45 4d bd 8e 3b 39 3c 1f f0 20 bd
       -0.047140982 -0.05011465 0.011305703 -0.039291497
0002d0 e4 fc b2 3c f6 94 2e bd 27 7a 24 3d 05 49 07 bc
       0.021849103 -0.04262253 0.040155556 -0.008257155
0002e0 85 54 1f 3a 05 be 39 bd ed a3 8f bc a8 9f 62 bc
       0.0006077963 -0.045347232 -0.01753422 -0.01383201
0002f0 17 90 6f bd 96 a0 50 bd cc 82 f0 bc 8d 27 5d bd
       -0.058487024 -0.050934397 -0.029359244 -0.053992797
000300 47 ba bd 3c 00 8e c1 bc d8 a8 9e bd 3c 11 aa 3c
       0.023160113 -0.023627281 -0.07747048 0.020760171
000310 49 4e 92 bc ef f5 74 bd 3d 31 d6 bc af 54 aa 3d
       -0.017859595 -0.059804853 -0.026146526 0.08316933
000320 a1 37 88 bd 04 7b d5 3c 37 6d be 3d 03 b7 18 bd
       -0.06651235 0.026059635 0.09298175 -0.03728391
000330 aa f3 99 bd 06 7e 6f 3d e2 5d 5e bd bc 3d 26 ba
       -0.07517178 0.058469795 -0.054288752 -0.00063415966
000340 f4 41 ee bd b1 de 57 bd 6c 16 94 3d a8 7a 2e bd
       -0.11633673 -0.05270261 0.07230839 -0.042597443
000350 7c 82 a7 bd ab 25 b0 3c 23 a5 19 bd c4 e4 5f bd
       -0.08179185 0.021502336 -0.037511002 -0.054661527
000360 fe 4c 4b 3d e3 e8 4d bc 00 c8 6f bb bd da b4 bc
       0.049633972 -0.012567732 -0.0036587715 -0.022076959
000370 1d 1d 03 3e a7 75 33 bd d9 dc 30 bc 86 2b 6a 3d
       0.12804075 -0.043813374 -0.010794842 0.057170413
000380 2b b3 1b 3d af 74 8e bd 45 ee 7c 3d 99 d3 bc 3d
       0.038012665 -0.069558494 0.06175067 0.092200466
000390 6d 1b 44 bd 33 22 73 3d d8 22 ac 3d 5c a6 57 3d
       -0.047877718 0.059358787 0.084050834 0.052648887
0003a0 35 3b 5a bc 4d 41 50 bb 6b ce e4 bc 0d ad b2 ba
       -0.01331978 -0.0031777204 -0.027930459 -0.0013631895
0003b0 c6 7f 64 3d c7 c6 e6 bc 97 a0 bf bd 5d ec c1 3d
       0.055785917 -0.028170956 -0.09356802 0.09468911
0003c0 d7 34 bb bb 1d e9 7e bc 3a 03 bf 3d 12 9e c7 bd
       -0.005713086 -0.015558508 0.09326787 -0.097469464
0003d0 14 eb 89 3d 2b f0 3b 3d 6b 89 2d bd fc 9c 4a 3d
       0.06734291 0.04588334 -0.04236738 0.04946612
0003e0 37 dd b7 3d 4e cb 55 3c 52 36 3d ba 65 c3 c7 bc
       0.0897774 0.01304896 -0.0007217872 -0.024385164
0003f0 01 4f 8d 3c e4 6a 7b bd 2f d5 4f bc 25 3a 54 bd
       0.017249586 -0.061381236 -0.012685104 -0.051813263

seq.3.bias f4 [256]
000000 c2 32 fb ba 1c 4d 6a 3d 14 e0 a7 bd a5 3b 2d bd
       -0.0019164907 0.057202443 -0.081970364 -0.04229321
000010 37 05 52 3d 9a 26 54 3c c2 50 a0 3d d5 26 a4 bc
       0.051274505 0.012948656 0.07827903 -0.020038048
000020 c8 3a 7d bd 31 a9 ac bc d8 dc 4f bd 92 f3 d9 bc
       -0.061823636 -0.02107677 -0.050747722 -0.026605401
000030 77 40 63 3d ee f9 d7 bd 0e d3 96 ba 57 ea b6 bd
       0.0554814 -0.10545717 -0.0011506991 -0.089314155
000040 52 49 50 bd 16 fd 38 bd 51 bd b7 3d 5d 4f ad bb
       -0.050851174 -0.045163237 0.08971656 -0.005289002
000050 81 79 50 bc 3b ac c2 bd 07 07 11 bd 80 f7 6a bc
       -0.012724281 -0.095055066 -0.035407092 -0.014341235
000060 3a 8f 20 3c cc c8 1f bc e7 26 55 3d e9 3a 41 bc
       0.009799773 -0.009752464 0.052039053 -0.01179383
000070 a6 98 b3 3d 69 41 b4 3d e3 1c e2 3d e1 ef 5d bb
       0.0876935 0.088015385 0.11040666 -0.0033864903
000080 97 f9 8a 3c 78 02 75 3c 83 40 63 bd e7 cd 9a bd
       0.016964717 0.014954202 -0.055481445 -0.07558804
000090 ef 44 95 bd 65 68 ec 3b be e6 b8 bc 09 7b a4 3d
       -0.07288539 0.0072145932 -0.022570964 0.080312796
0000a0 3a ca f4 bc 23 df 5c 3a ff 01 48 3c b7 1c ca ba
       -0.029881585 0.0008425584 0.012207507 -0.0015419935
0000b0 c8 b8 7a bb 1a 7e 56 bb 1f 0d a6 3c aa a4 7d 3d
       -0.003825711 -0.003272897 0.020269929 0.061924614
0000c0 fd 85 ea bc 8b ae 31 3d 80 42 9a bd ed 22 af 3d
       -0.028628344 0.043379348 -0.07532215 0.085515834
0000d0 84 94 c2 bd 88 9f 8d bd 30 e7 1d 3d f5 1d ef bd
       -0.09500983 -0.06915194 0.038550556 -0.11675636
0000e0 60 f8 d7 bb 9c 5d 48 3c 58 ed bf 3d 08 7d 15 3d
       -0.006590888 0.012229349 0.093714416 0.036496192
0000f0 a5 f3 9d bc 76 d3 b4 bd 8c 2d a0 3d fe 02 88 bc
       -0.019281218 -0.088293955 0.078211874 -0.01660299
000100 1b 36 da bd 30 a7 8b 3d 35 c0 72 bd c1 0a 88 bd
       -0.10654851 0.06818998 -0.059265334 -0.06642676
000110 52 7f ae 3d 14 6e 9a bd ec be ae 3d de d7 0a bb
       0.08520378 -0.07540527 0.08532509 -0.0021185796
000120 7e ce 46 3b 51 69 9f bd f2 de 65 bd 5a e7 86 bc
       0.0030335481 -0.077837594 -0.05612082 -0.016467739
000130 b4 96 c5 bd 52 4e 77 bc 7f 51 f4 3c 82 b5 cf 3c
       -0.09647885 -0.015094357 0.029824017 0.025355104
000140 71 08 dc 3d 8b 8e e1 3c 43 c7 e6 3c 7a e8 76 bd
       0.107437976 0.02753379 0.028171187 -0.0602803
000150 18 b9 05 ba c1 66 ec bd 42 c7 9d bd 39 66 9d 3d
       -0.00051011285 -0.11543036 -0.07704021 0.07685513
000160 20 90 24 3d 7f bf 49 3d ae 98 37 3d 13 00 90 3d
       0.04017651 0.04925489 0.04482334 0.07031264
000170 e5 c0 73 bc 07 c5 8d 3d 26 d5 28 3d 94 27 89 3d
       -0.014877533 0.069223456 0.0412189 0.06697002
000180 80 e1 68 bd 06 ce 97 bc 03 0d 51 bd 81 0f 9c bd
       -0.05685568 -0.018530857 -0.0510378 -0.07620145
000190 69 c5 7c 3c 65 3c 48 3c eb 25 97 bd dc 24 db bd
       0.015427926 0.01222143 -0.07380279 -0.1070039
0001a0 6f 69 f6 3c 08 52 8c bc d7 14 09 3e e3 e4 90 bd
       0.030079572 -0.01712896 0.13386856 -0.07074907
0001b0 db c5 10 bd 2a ac 0d 3d 79 f2 93 3d c8 12 6b 3d
       -0.03534494 0.034588017 0.07223982 0.057390958
0001c0 a7 99 89 3d df d2 4e bd 8d 25 e4 3d 64 1b 34 3d
       0.0671876 -0.05049407 0.11139975 0.043971434
0001d0 72 8b b5 bd 78 d8 9e bc df 58 17 3c 62 5f 6f 3d
       -0.08864488 -0.01939033 0.009237497 0.058440574
0001e0 3b 2b 00 3e a8 7b a2 bb 88 6f 6e 3c 01 4a c9 3d
       0.12516491 -0.0049585886 0.014552958 0.09828568
0001f0 de 60 77 3d 5e 50 56 3d c8 c4 24 3e 52 75 bc 3d
       0.060395114 0.052322738 0.16090691 0.092020646
000200 17 3b 96 bd 50 39 0e be 91 1d ad 3d c1 ed 9b 3d
       -0.07335489 -0.1388905 0.08452905 0.07613707
000210 d5 c5 a4 bd cc 90 35 3c c4 6c a6 bc 7b 64 08 be
       -0.08045546 0.011081886 -0.020315535 -0.1331958
000220 43 1a d2 3d 44 5b b1 3c 8d 6e 47 3d 02 78 74 3b
       0.10258915 0.021649964 0.048689414 0.0037302976
000230 f3 e7 d3 3c 79 85 10 3d 60 af 9b bc 13 4a 62 3c
       0.025867438 0.03528354 -0.019004524 0.013811606
000240 e0 d8 07 3e bf c7 ae 3d 5f 36 27 bd c6 0f 8c ba
       0.13266325 0.08534192 -0.040823337 -0.0010685853
000250 11 4a 1d bd 61 c1 92 bd a9 c8 58 3e 07 1a b5 bd
       -0.038400713 -0.0716579 0.21170296 -0.08842855
000260 18 d6 94 3d b8 fc 80 bd 0b 68 e9 bb 29 80 98 bd
       0.07267398 -0.06298202 -0.0071229986 -0.074463196
000270 13 0e 62 3d 9a 42 da 3d dd 9d 5d 3d a7 46 17 3d
       0.055189203 0.106572345 0.05410563 0.036932614
000280 4a 74 22 3d 8f 75 fe 3b 9f 84 c6 bd c4 8e 41 3c
       0.039661683 0.007765479 -0.09693264 0.011813823
000290 ab 92 1a bd 2c 55 88 3d 67 cc 8c 3d f7 33 0b bd
       -0.03773753 0.0665687 0.06874924 -0.033985104
0002a0 99 d7 49 bc 8d 52 c4 3c de a1 05 be b1 6a 43 bd
       -0.012319469 0.023965145 -0.13050029 -0.04770917
0002b0 aa fb ae bb bc 94 90 3d 55 e5 b9 3d 40 f3 9f 3d
       -0.0053400593 0.07059619 0.09076945 0.07810068
0002c0 57 2c 33 bd b7 4c 6a 3c 57 3e b4 3d 0a 40 16 3c
       -0.043743458 0.014300517 0.08800953 0.009170542
0002d0 5a a5 03 bd 4f fd 56 3c 83 d1 98 3d 2f b1 49 bd
       -0.032140113 0.013121917 0.07461836 -0.04924124
0002e0 33 13 c2 bd 31 57 a5 3d e8 e9 93 bd aa 60 13 bc
       -0.09476318 0.08073271 -0.072223485 -0.0089952145
0002f0 1f 33 0a 3d b6 d1 90 bc c3 fc 44 bd a6 9e b9 3c
       0.03374016 -0.017678123 -0.048092615 0.022658657
000300 6a 4a d6 3d c5 46 5c bd b4 64 bc bd 2c 20 f2 3b
       0.10463412 -0.05377843 -0.09198895 0.007389089
000310 96 d2 a1 3d 71 7b a6 bc 46 a1 28 bc 38 37 0d 3c
       0.07901494 -0.020322533 -0.010292357 0.008619122
000320 29 5e de bd b0 b7 85 bd f4 47 62 3c 6a a7 98 3d
       -0.108578034 -0.06529176 0.0138111 0.07453807
000330 e9 bb 98 3c 04 58 03 bd 66 13 4d 3d dd 44 81 bd
       0.01864429 -0.03206636 0.050067328 -0.06311963
000340 0a 18 84 3d b1 d7 ba bd e9 b8 90 3c 2d 8b 3b 3c
       0.064498976 -0.09123171 0.017666297 0.011446756
000350 0c 80 dd 3c ef 96 4a bd f4 94 84 3b 80 7f 41 3d
       0.027038597 -0.049460348 0.004046077 0.047240734
000360 b7 9d dc 3c 31 39 3d 3e d6 a5 54 bc ab 2c 15 3d
       0.026930673 0.18478848 -0.0129789915 0.03641955
000370 0e f9 99 bc fa 6d 06 3d 05 d2 2e 3d c7 06 13 bd
       -0.018795516 0.032819726 0.04268076 -0.035895135
000380 36 ad b9 3d 83 fa 5f 3c d0 62 da bd bc 3a a0 bc
       0.090662405 0.0136705665 -0.10663378 -0.019559257
000390 1a 39 43 bc a3 d0 18 3d c3 67 e8 bc b2 84 d4 3c
       -0.01191547 0.037308346 -0.02836979 0.02594218
0003a0 92 d2 f2 bd 1d 03 a8 bd 0f f3 9b bd 7c 9e 74 3d
       -0.11856569 -0.08203719 -0.07614719 0.059721455
0003b0 7c 1b ac 3d a4 ec b7 bc fd 9e 5c bc ee 4c 86 3d
       0.0840368 -0.022451706 -0.01346564 0.06557642
0003c0 94 66 42 3b 75 63 5f bd 72 32 35 3d 41 e8 8f 3d
       0.0029663192 -0.05453821 0.04423756 0.07026721
0003d0 3e e4 60 bd f3 df be bc aa bb aa 3d 19 cc 2c bb
       -0.05490517 -0.023300147 0.08336575 -0.002636677
0003e0 af 5c 39 3d 7a c0 10 3d 8f 94 8c 3d e7 2d e3 bb
       0.045254406 0.03533981 0.06864273 -0.006932962
0003f0 a0 c9 9d 3c ec 42 8c 3b fb 9f a2 bd 2a c7 08 be
       0.019261181 0.0042804386 -0.0794067 -0.13357225

seq.5.bias f4 [4]
000000 87 8b ec 3b e8 d7 23 be ca e2 03 3c 57 07 0b be
       0.0072187814 -0.1600033 0.008049676 -0.13577019

seq.6.bias f4 [2]
000000 00 00 00 00 00 00 00 00
       0.0 0.0
