benchmarks/models/nn_6_relu_tanh/model.pt (torch, 6331 bytes, 7 tensors)

seq.0.weight f4 [20, 4]
-0.12919427 -0.03618938 0.10376945 0.192282 9.592881e-20 -4.0981854e-06 3.5623927e-18 7.072124e-28
0.19176237 0.053578276 -0.15369111 -0.2856581 -0.048253737 -0.013494903 0.038710687 0.071885034
0.07209271 0.020205963 -0.05780972 -0.10737692 -0.1731064 -0.04840732 0.13908015 0.25775224
0.108463034 0.030438948 -0.08706781 -0.16170017 -0.047918983 -0.01343468 0.03844877 0.07141454
-0.20191163 -0.056446332 0.1620125 0.300586 -0.011826563 -0.0033149146 0.009485512 0.017618513
4.359537e-14 -9.1955104e-07 2.8538334e-36 5.6432804e-15 0.05238534 0.014692267 -0.042184953 -0.078218944
0.23305947 0.065028444 -0.18702617 -0.34683058 -0.23189227 -0.064841874 0.18614164 0.34540164
0.20964903 0.058783848 -0.16828495 -0.31280595 0.12417807 0.034831543 -0.09960586 -0.18506584
-0.21938781 -0.06158679 0.17601289 0.3265611 0.17837813 0.050023712 -0.14311936 -0.26607177
-0.018766006 -0.0052474476 0.015060574 0.027935738 0.34741002 0.09732281 -0.27884185 -0.51728815
00000000: 814b 04be 513b 14bd 1485 d43d 93e5 443e
00000010: 6881 e21f 2583 89b6 d96d 8322 e31f 6012
00000020: 5b5d 443e e574 5b3d 3461 1dbe c741 92be
00000030: b6a5 45bd ba19 5dbc 198f 1e3d 7638 933d
00000040: 58a5 933d fa86 a53c e3c9 6cbd 6ee8 dbbd
00000050: ce42 31be c146 46bd 076b 0e3e 1af8 833e
00000060: de21 de3d 1a5b f93c 9c50 b2bd bb94 25be
00000070: b246 44bd 221d 5cbc 757c 1d3d c941 923d
00000080: ecc1 4ebe 4534 67bd 9be6 253e 68e6 993e
00000090: 33c4 41bc 0a3f 59bb 1f69 1b3c b354 903c
000000a0: 0a56 4429 11d7 76b5 fdc6 7204 1352 cb27
000000b0: 0392 563d d6b7 703c 21ca 2cbd 4131 a0bd
000000c0: 24a7 6e3e a22d 853d ca83 3fbe c793 b1be
000000d0: 2b75 6dbe d1cb 84bd ea9b 3e3e 7cd8 b03e
000000e0: 3cae 563e 55c7 703d e452 2cbe 1a28 a0be
000000f0: 1251 fe3d 85ab 0e3d 28fe cbbd e681 3dbe
00000100: 33a7 60be 6e42 7cbd b93c 343e 0433 a73e
00000110: c2a8 363e aae5 4c3d e28d 12be 8f3a 88be
00000120: 2bbb 99bc c8f2 abbb a0c0 763c 7dd9 e43c
00000130: badf b13e 2e51 c73d 5cc4 8ebe ff6c 04bf

seq.0.bias f4 [20]
0.31012854 -0.10250986 0.86862564 0.22778107 0.3331952 0.41532925 0.5052179 0.37834597
0.48418832 0.09738377 -0.060443796 0.2582158 1.0757649 0.5557026 0.9483205 0.6497192
0.5243875 0.8262303 0.10923489 1.6150029
00000000: 2bc9 9e3e b1f0 d1bd 405e 5e3f 713f 693e
00000010: 9098 aa3e 09a6 d43e f655 013f 90b6 c13e
00000020: 88e7 f73e 2471 c73d ea93 77bd dd34 843e
00000030: aab2 893f 8742 0e3f 22c5 723f ff53 263f
00000040: 423e 063f d483 533f 8bb6 df3d 6ab8 ce3f

seq.2.weight f4 [20, 20]
0.038482066 -3.987049e-38 -0.057292007 0.01436714 -0.021565897 0.051575657 -0.032451328 0.014257964
0.060151685 0.0034691994 1.2005709e-37 -0.01571939 -0.06957855 0.069137976 -0.06272159 -0.03714978
0.06536627 -0.053372912 0.0055339923 -0.103673354 1.6826512e-37 3.9653563e-38 -9.54324e-38 -1.970419e-38
-3.855537e-37 -1.4803559e-37 1.519135e-36 -1.0361866e-36 -2.1615197e-37 -1.9904676e-37 -9.18333e-38 -7.702242e-38
6.6071514e-38 1.5388462e-37 -4.7381085e-38 2.0996706e-37 -2.1629013e-37 -1.6963799e-37 1.8079401e-37 1.6498791e-37
-0.0021093858 -2.1601334e-37 0.0031751909 -0.00077124435 0.0011871465 -0.0028476838 0.0017869958 -0.00078680756
-0.0033229743 -0.00019537481 1.5096323e-37 0.0008699264 0.0038367796 -0.0038284073 0.0034574964 0.0020455825
-0.0036279147 0.0029399823 -0.0003100445 0.005756601 2.3728358e-38 6.6858993e-38 7.800882e-38 2.7085373e-38
-1.899529e-37 -1.8190527e-37 1.4194315e-37 1.9184206e-37 1.3172044e-37 3.987156e-38 2.0194137e-37 -1.4994396e-37
-1.6438005e-37 1.8516141e-37 -1.5883998e-38 2.0653036e-37 9.72422e-38 2.191805e-37 -6.48742e-38 5.2684024e-38
-0.019134276 9.760338e-38 0.028488442 -0.007144711 0.010720043 -0.02568429 0.016131766 -0.007084194
-0.029975692 -0.0017459498 2.3661737e-38 0.007844824 0.034602996 -0.034404118 0.031187441 0.018480057
-0.03257619 0.026528979 -0.0027671333 0.05159726 -4.125615e-38 -1.8325796e-37 1.1606221e-37 -1.5038715e-37
1.3511163e-38 8.7249394e-38 1.4217915e-37 1.541195e-37 -1.3813631e-37 2.169779e-37 -1.5881148e-37 1.5249813e-37
1.0764356e-37 -1.3323447e-37 -2.0891703e-37 -1.9529112e-37 -1.7360956e-37 -1.5415295e-37 -9.2859946e-38 -7.5683996e-38
-0.007731796 -2.0201435e-37 0.01151074 -0.002873317 0.004363503 -0.010302666 0.006533832 -0.0028523386
-0.012073072 -0.000689447 8.8604674e-38 0.0031641182 0.013962798 -0.0138888955 0.012601403 0.0074707456
-0.013147392 0.010700964 -0.0011051386 0.020829368 -0.005761093 -9.420273e-38 0.008571191 -0.002148352
0.0032304132 -0.007729281 0.0048442283 -0.0020796354 -0.008986419 -0.00052521756 -1.8224642e-37 0.0023497483
0.010427463 -0.010360047 0.009402521 0.0055722897 -0.009791279 0.00799887 -0.00080639124 0.01551814
-2.1067594e-37 -4.5639923e-37 1.6976453e-37 1.7842928e-37 -1.0804018e-37 2.1020981e-37 8.284021e-37 7.098703e-38
-1.2644888e-37 2.0344757e-37 -8.4537186e-38 -8.7334183e-07 1.3221312e-37 1.6905508e-37 -1.8026746e-37 -1.3396744e-37
-9.152182e-38 -1.4240069e-37 1.7833314e-37 1.1522717e-37 1.8177597e-37 -1.6956063e-37 -2.3012995e-38 0.0
-3.5842322e-38 -8.764491e-37 1.9041543e-37 -9.704106e-38 1.8623437e-37 1.0794453e-37 1.2187772e-37 1.7211253e-37
1.2592583e-37 9.0541234e-38 2.0984232e-37 -2.1133284e-13 0.0 -7.0840314e-37 1.9300752e-37 0.0
-1.1722993e-37 4.9333257e-37 7.622463e-38 1.6635838e-37 -1.6817243e-37 -7.1251126e-37 8.424771e-38 -1.5334674e-37
1.1602218e-37 -1.061203e-37 2.0007119e-38 1.0086597e-37 -1.3227121e-37 -2.8858618e-38 1.9508601e-37 0.0
-8.657029e-38 8.4564394e-38 1.5626591e-37 -2.0076096e-37 -0.014271846 -2.1814695e-37 0.02132499 -0.0053280443
0.008051203 -0.019208364 0.012105232 -0.0052987253 -0.02242348 -0.0013078433 1.735438e-37 0.0058640717
0.025892343 -0.02575108 0.023338456 0.013843284 -0.02433209 0.019848408 -0.0020546643 0.038619112
-1.1172054e-36 -1.1855073e-38 -2.156242e-37 -4.5936604e-38 5.323647e-38 3.5409243e-38 -1.1728595e-37 -1.9188058e-37
-2.4472232e-38 2.1683867e-37 1.0114702e-37 0.0 -2.1157936e-37 7.53793e-37 6.074307e-38 2.1835696e-37
00000000: 5f9f 1d3d 5a13 5981 06ab 6abd 2764 6b3c
00000010: f7aa b0bc ff40 533d afeb 04bd 3c9a 693c
00000020: 9d61 763d 825b 633b ca69 2302 f3c5 80bc
00000030: 337f 8ebd 3698 8d3d 2d74 80bd 5e2a 18bd
00000040: c0de 853d 8e9d 5abd 7e56 b53b b252 d4bd
00000050: d607 6502 00e5 5701 57e5 0182 448f d680
00000060: 7732 0383 e07e 4982 d53b 0104 4b4c b083
00000070: fc1a 9382 d676 8782 78fe f981 cbac d181
00000080: 20dd b301 f774 5102 ccfb 8081 6ce5 8e02
00000090: 0e33 9382 36e6 6682 8515 7602 e591 6002
000000a0: 9f3d 0abb d502 9382 dd16 503b 552d 4aba
000000b0: 079a 9b3a 35a0 3abb a139 ea3a c341 4eba
000000c0: 42c6 59bb 87dd 4cb9 027b 4d02 c60b 643a
000000d0: 7b72 7b3b 04e6 7abb 2a97 623b 2e0f 063b
000000e0: 4fc2 6dbb b8ac 403b 788d a2b9 dfa1 bc3b
000000f0: 8130 0101 eb01 b601 375c d401 8077 1301
00000100: 7646 8182 bc98 7782 f833 4102 9a8f 8202
00000110: e049 3302 d814 5901 266f 8902 d817 4c82
00000120: 16be 5f82 5607 7c02 20f6 ac80 aa8e 8c02
00000130: f65b 0402 a12a 9502 b89a b081 686b 8f01
00000140: 7cbf 9cbc d0d9 0402 9860 e93c 2e1e eabb
00000150: 1fa3 2f3c dc67 d2bc c426 843c 8722 e8bb
00000160: 958f f5bc 5bd8 e4ba a6d3 0001 9487 003c
00000170: dfbb 0d3d 55eb 0cbd ce7c ff3c 7d63 973c
00000180: 9c6e 05bd 4d53 d93c cb58 35bb a657 533d
00000190: ae9e 6081 1470 7982 c7f9 1d02 46b2 4c82
000001a0: a01f 9300 f483 ed01 3486 4102 cfc6 5102
000001b0: 7b05 3c82 e2aa 9302 b929 5882 d891 4f02
000001c0: 4e84 1202 7059 3582 7b2e 8e82 83e8 8482
000001d0: 1a4e 6c82 77d2 5182 f0c9 fc81 0c08 ce81
000001e0: 015b fdbb dd7b 8982 8b97 3c3c 434e 3cbb
000001f0: b7fb 8e3b 83cc 28bc c119 d63b 4dee 3abb
00000200: 22ce 45bc 01bc 34ba 7234 f101 185d 4f3b
00000210: 38c4 643c 408e 63bc 1d76 4e3c 28cd f43b
00000220: 2968 57bc 1953 2f3c 4cda 90ba 5aa2 aa3c
00000230: 8dc7 bcbb dc38 0082 2e6e 0c3c 5ecb 0cbb
00000240: 57b5 533b e945 fdbb 55bc 9e3b 7e4a 08bb
00000250: c63b 13bc c1ae 09ba 9c0f 7882 3cfe 193b
00000260: f3d7 2a3c 30bd 29bc 080d 1a3c c197 b63b
00000270: 9a6b 20bc b10d 033c 0064 53ba cc3f 7e3c
00000280: ed60 8f82 fb4d 1b83 4e12 6702 88dd 7202
00000290: 820e 1382 b70f 8f02 00f2 8c03 bd3e c101
000002a0: 011d 2c82 9175 8a02 d221 e681 986f 6ab5
000002b0: 8cf5 3302 191b 6602 0b5e 7582 d758 3682
000002c0: 6625 f981 66d3 4182 08bc 7202 cfd6 1c02
000002d0: ae6b 7702 42cb 6682 de96 fa80 0000 0000
000002e0: e824 4381 be1e 9583 0c97 8102 e015 0482
000002f0: 357d 7d02 2eed 1202 30e4 2502 7744 6a02
00000300: bf66 2b02 087a f601 b0cf 8e02 8bf0 6daa
00000310: 0000 0000 9e0e 7183 a75a 8302 0000 0000
00000320: ab90 1f82 54df 2703 d080 cf01 6f6f 6202
00000330: 8ae7 6482 7c74 7283 1658 e501 8ab9 5082
00000340: d4eb 1d02 8771 1082 b5db d900 a94a 0902
00000350: ca09 3482 0b1f 1d81 c7c4 8402 0000 0000
00000360: b0aa eb81 c834 e601 b9b2 5402 7ea1 8882
00000370: 76d4 69bc 8f76 9482 bfb1 ae3c e096 aebb
00000380: 31e9 033c dc5a 9dbc 0655 463c eea0 adbb
00000390: 72b1 b7bc f06b abba 3037 6c02 6627 c03b
000003a0: 2e1c d43c eef3 d2bc 4a30 bf3c f1ce 623c
000003b0: 1754 c7bc 2199 a23c 8ca7 06bb 132f 1e3d
000003c0: 2815 be83 1f17 8180 09bf 9282 481a 7a81
000003d0: 68ec 9001 48c9 4001 30a4 1f82 5096 8282
000003e0: 503d 0581 a092 9302 98ac 0902 0000 0000
000003f0: 53fe 8f82 5140 8003 be5b a501 269b 9402

seq.2.bias f4 [20]
0.6724349 -0.043304693 0.08183849 -0.0333157 0.42399997 -0.12788443 0.21150169 0.20070241
-0.08153988 -0.0667094 -0.08278915 0.34695932 -0.08914778 0.1225163 -0.0132877035 -0.058819998
0.02611077 0.40510947 0.23517455 0.33068147
00000000: b224 2c3f 4360 31bd f09a a73d 0b76 08bd
00000010: 8616 d93e 23f4 02be e693 583e ef84 4d3e
00000020: 61fe a6bd f09e 88bd 5c8d a9bd a7a4 b13e
00000030: 1c93 b6bd d3e9 fa3d abb4 59bc 3ded 70bd
00000040: 41e6 d53c 826a cf3e 99d1 703e 154f a93e

seq.4.weight f4 [20, 20]
0.0 0.0 0.0 0.0 0.0 0.0 0.0 0.0
0.0 0.0 0.0 -0.0 0.0 0.0 0.0 0.0
0.0 0.0 0.0 0.0 0.0006228026 0.0 -3.7967264e-05 0.0
-0.0003352263 0.0 -0.00015320515 -0.00010313923 0.0 0.0 0.0 -0.00027376172
0.0 -0.00010521429 0.0 0.0 -2.8277886e-05 0.00037495588 -0.00016163952 -0.00024817197
-0.0044268034 0.0 0.00026824247 0.0 0.002250723 0.0 0.0009410628 0.00071151694
0.0 0.0 0.0 0.0017067019 0.0 0.0005148954 0.0 0.0
0.000105627 -0.002626254 0.0009889157 0.0015472305 0.0 0.0 0.0 0.0
0.0 0.0 0.0 0.0 0.0 0.0 0.0 0.0
0.0 0.0 0.0 0.0 0.0 0.0 0.0 0.0
0.0 0.0 0.0 0.0 -0.0 0.0 0.0 0.0
0.0 0.0 0.0 0.0 0.0 0.0 0.0 0.0
0.0 0.0 0.0 0.0 0.002922664 0.0 -0.00017946577 0.0
-0.0015416064 0.0 -0.00063830626 -0.00048107893 0.0 0.0 0.0 -0.00116337
0.0 -0.00038439012 0.0 0.0 -5.329351e-05 0.0017568712 -0.00066583755 -0.0010594848
0.0 0.0 0.0 0.0 0.0 0.0 0.0 0.0
0.0 0.0 0.0 0.0 0.0 0.0 0.0 0.0
0.0 0.0 0.0 0.0 0.0 0.0 0.0 0.0
0.0 0.0 0.0 5.531685e-14 0.0 0.0 0.0 0.0
0.0 0.0 0.0 -0.0 0.0 0.0 0.0 0.0
-0.0433772 0.0 0.002452378 0.0 0.02166887 0.0 0.008778041 0.006552693
0.0 0.0 0.0 0.016229728 0.0 0.0047416375 0.0 0.0
0.00063683337 -0.026131373 0.009192688 0.0147096645 0.0 0.0 0.0 0.0
0.0 0.0 0.0 0.0 0.0 0.0 0.0 0.0
0.0 0.0 0.0 0.0 0.0 0.0 0.0 0.0
0.0007152006 0.0 -7.321035e-05 0.0 -0.00041039355 0.0 -0.00017239139 -0.00011865649
0.0 0.0 0.0 -0.00031890656 0.0 -8.4135805e-05 0.0 0.0
-3.424964e-05 0.00040412313 -0.00018998327 -0.00026457146 0.00040683878 -0.0 -3.333018e-05 0.0
-0.00027090783 0.0 -0.000101424725 -8.462141e-05 0.0 0.0 0.0 -0.00021240357
0.0 -8.444469e-05 -2.9200629e-15 0.0 -1.3052589e-05 0.00024342394 -0.00010972918 -0.000198846
0.0011359412 0.0 -0.00010843542 0.0 -0.000606916 0.0 -0.00025462074 -0.00019302349
0.0 0.0 0.0 -0.00048404632 0.0 -0.00015093043 0.0 0.0
00000000: 0000 0000 0000 0000 0000 0000 0000 0000
00000010: 0000 0000 0000 0000 0000 0000 0000 0000
00000020: 0000 0000 0000 0000 0000 0000 0000 0080
00000030: 0000 0000 0000 0000 0000 0000 0000 0000
00000040: 0000 0000 0000 0000 0000 0000 0000 0000
00000050: 9343 233a 0000 0000 0a3f 1fb8 0000 0000
00000060: 50c1 afb9 0000 0000 b2a5 20b9 744c d8b8
00000070: 0000 0000 0000 0000 0000 0000 ad87 8fb9
00000080: 0000 0000 7ea6 dcb8 0000 0000 0000 0000
00000090: 4c36 edb7 ba95 c439 c77d 29b9 141d 82b9
000000a0: b80e 91bb 0000 0000 e5a2 8c39 0000 0000
000000b0: de80 133b 0000 0000 a8b1 763a 1885 3a3a
000000c0: 0000 0000 0000 0000 0000 0000 6ab3 df3a
000000d0: 0000 0000 0cfa 063a 0000 0000 0000 0000
000000e0: 1084 dd38 3b1d 2cbb 819e 813a 71cc ca3a
000000f0: 0000 0000 0000 0000 0000 0000 0000 0000
00000100: 0000 0000 0000 0000 0000 0000 0000 0000
00000110: 0000 0000 0000 0000 0000 0000 0000 0000
00000120: 0000 0000 0000 0000 0000 0000 0000 0000
00000130: 0000 0000 0000 0000 0000 0000 0000 0000
00000140: 0000 0000 0000 0000 0000 0000 0000 0000
00000150: 0000 0080 0000 0000 0000 0000 0000 0000
00000160: 0000 0000 0000 0000 0000 0000 0000 0000
00000170: 0000 0000 0000 0000 0000 0000 0000 0000
00000180: 0000 0000 0000 0000 0000 0000 0000 0000
00000190: 2a8a 3f3b 0000 0000 fa2e 3cb9 0000 0000
000001a0: ba0f caba 0000 0000 0254 27ba 5239 fcb9
000001b0: 0000 0000 0000 0000 0000 0000 387c 98ba
000001c0: 0000 0000 f887 c9b9 0000 0000 0000 0000
000001d0: 7887 5fb8 d146 e63a 9a8b 2eba 69de 8aba
000001e0: 0000 0000 0000 0000 0000 0000 0000 0000
000001f0: 0000 0000 0000 0000 0000 0000 0000 0000
00000200: 0000 0000 0000 0000 0000 0000 0000 0000
00000210: 0000 0000 0000 0000 0000 0000 0000 0000
00000220: 0000 0000 0000 0000 0000 0000 0000 0000
00000230: 0000 0000 0000 0000 0000 0000 0000 0000
00000240: 0000 0000 0000 0000 0000 0000 fc1f 7929
00000250: 0000 0000 0000 0000 0000 0000 0000 0000
00000260: 0000 0000 0000 0000 0000 0000 0000 0080
00000270: 0000 0000 0000 0000 0000 0000 0000 0000
00000280: 4aac 31bd 0000 0000 13b8 203b 0000 0000
00000290: ea82 b13c 0000 0000 c6d1 0f3c f9b7 d63b
000002a0: 0000 0000 0000 0000 0000 0000 35f4 843c
000002b0: 0000 0000 bd5f 9b3b 0000 0000 0000 0000
000002c0: 2af1 263a 7611 d6bc ee9c 163c ce00 713c
000002d0: 0000 0000 0000 0000 0000 0000 0000 0000
000002e0: 0000 0000 0000 0000 0000 0000 0000 0000
000002f0: 0000 0000 0000 0000 0000 0000 0000 0000
00000300: 0000 0000 0000 0000 0000 0000 0000 0000
00000310: 0000 0000 0000 0000 0000 0000 0000 0000
00000320: 4d7c 3b3a 0000 0000 8288 99b8 0000 0000
00000330: 172a d7b9 0000 0000 f6c3 34b9 38d7 f8b8
00000340: 0000 0000 0000 0000 0000 0000 ea32 a7b9
00000350: 0000 0000 1172 b0b8 0000 0000 0000 0000
00000360: 45a7 0fb8 7de0 d339 3f36 47b9 2eb6 8ab9
00000370: fa4c d539 0000 0080 02cc 0bb8 0000 0000
00000380: a208 8eb9 0000 0000 fcb3 d4b8 c676 b1b8
00000390: 0000 0000 0000 0000 0000 0000 a6b8 5eb9
000003a0: 0000 0000 e617 b1b8 a769 52a7 0000 0000
000003b0: 71fc 5ab7 9e3f 7f39 681e e6b8 5181 50b9
000003c0: dde3 943a 0000 0000 d367 e3b8 0000 0000
000003d0: 7119 1fba 0000 0000 9e7e 85b9 5966 4ab9
000003e0: 0000 0000 0000 0000 0000 0000 99c7 fdb9
000003f0: 0000 0000 1443 1eb9 0000 0000 0000 0000

seq.4.bias f4 [20]
-0.0707097 0.09799771 0.054585226 -0.042426705 -0.03940245 0.07700006 -0.04708811 -0.03353166
0.11800183 -0.06073334 0.0038056318 0.040491674 0.012550602 0.15447298 0.033464044 0.09557363
-0.020693285 0.012568763 0.09023221 0.19172554
00000000: 3fd0 90bd 06b3 c83d c294 5f3d a0c7 2dbd
00000010: 7764 21bd 35b2 9d3d 76df 40bd 7e58 09bd
00000020: f2aa f13d 86c3 78bd e867 793b 99da 253d
00000030: 0aa1 4d3c 2a2e 1e3e 9811 093d 1bbc c33d
00000040: f784 a9bc 37ed 4d3c aacb b83d b353 443e

seq.6.weight f4 [1, 20]
0.13462064 -0.03431559 0.24029897 4.504069e-10 -0.032938153 -0.16078603 0.089255355 -0.10623256
2.362992 -0.011400242 -0.039484285 -0.025561862 -0.062661745 -0.31698662 -0.0144906305 -0.02228495
-2.7194662e-14 0.027883623 -0.20529504 -1.4641775
00000000: fed9 093e 818e 0cbd ef10 763e 239d f72f
00000010: 28ea 06bd 18a5 24be 83cb b63d 7590 d9bd
00000020: 433b 1740 15c8 3abc 46ba 21bd 1c67 d1bc
00000030: cd54 80bd 124c a2be 1c6a 6dbc ed8e b6bc
00000040: 9ff2 f4a8 326c e43c dd38 52be 2b6a bbbf
