examples/arch-comp/attitude/models/CLF_controller_layer_num_3/model.pt (torch, 38767 bytes, 10 tensors)

seq.0.weight f4 [64, 6]
00000000: b7f9 573e 9de5 98bd f36a 9bbd 171f c43d
00000010: 7731 66bd 620d aebe 55d7 823d 41ee 79be
00000020: f54e 96be d430 263e 4995 b13d 32eb 403e
00000030: 094e f5bc ad8e f93d fc68 12bd d9b0 b5b9
00000040: 0af0 003f 409f 083d e8c0 d3bc b9c8 13bd
00000050: 0e97 debb e502 cfbe c884 dcbb 466c 933f
00000060: 03a5 043e ecc5 c33d 2452 68bd aacd bcbc
00000070: f841 8abe 2eb9 15be c714 0d3e a49b 8eb9
00000080: 021f d03d 884b 68be 6dd6 ab3d aa30 273e
00000090: 10c3 1cbe bf9d 7ebd a062 d3bd bd31 483e
000000a0: 79a8 89bd cd22 a33e ca59 943c 627b 433e
000000b0: 7d81 7abd 10a6 9bbd 4a28 00bf 80b7 723e
000000c0: 34c4 9abd c80b 963b c2e8 5cbe e6e3 a53c
000000d0: b7ef cfbd 6d04 95be 75b5 243e bfa0 23be
000000e0: 57f5 c83d a0a7 1c3d 2d9b 19bb b7b2 373e
000000f0: 286b 90be 2863 f2bd 9548 a8bd 829b 05be
00000100: 7f48 343e a7a4 193e 272a 93bd bcf7 2e3e
00000110: d7d9 ed3d df7a 923e 15d3 1a3e 43b0 983e
00000120: e4ab a83d 9b8b 123e e010 37be 79d5 16be
00000130: d150 4a3e 13c6 20be 7d01 ddbd c157 2cbe
00000140: 125e 863d 75e6 8a3d 3ecc 07be 6f11 2abe
00000150: 345b 7cbe 5a05 7fbc 3ed8 363e 0ac9 edbd
00000160: bc98 b83d efba 0e3e 2c78 1d3d 69b9 5bbd
00000170: 32dd 4f3e ff7b cfbd 54c8 bdbd 981a 0d3e
00000180: 4e0f 77bd e724 97bd de2a e8bd d81f cc3d
00000190: 1087 5e3e 210f d3be 8915 95be 2d7b 6fbd
000001a0: 9cf8 b13a 559f 163e 0651 8f3c d282 88be
000001b0: 70ed c5bd b298 733e ab49 033e a89c 33be
000001c0: 73fe d8bb 6c0a e4bd faff b33d aad2 ab3d
000001d0: d857 673d 9c54 35be 466b c93e c1b5 47bd
000001e0: f18e 5c3e c005 e4bd 5652 ca3d faf4 6ebe
000001f0: 4d08 64be 84d7 66bc ac67 a8be 613b b93d
00000200: 3606 813d 9c4b 3fbc ab72 8abe 3f14 743d
00000210: e225 22be 10b5 acbd bcaf 70bb 9d2a 83bd
00000220: b393 43be 26ad 29be e483 1d3d ebdc 85be
00000230: 2194 06ba 83dc c6bc 2806 b33e 9c31 6b3d
00000240: b85e ac3d 957d 923c 7312 303e 6d43 7f3e
00000250: 0fa9 543e a5aa febd de12 9d3e 688a 2ebe
00000260: f9b2 e2bd 2aed 0fbd 73fe 0fbe 4d45 44be
00000270: 2671 9a3e ec1a 62be 497a b5bd f165 8f3d
00000280: 61c7 c43d 976c 903e 567a 00be d936 9fbd
00000290: 00ce d53c fccf 7c3e 3352 8a3c 2848 c43b
000002a0: f262 193e c2e2 913e f8fe 23bd 90e2 913c
000002b0: c55b 2cbe d51e 73be e189 313e 076a 22be
000002c0: 1bb9 3b3e 0ca9 6ebd 26e0 6d3c 6f9a 6ebe
000002d0: 4a63 2ebe 0f48 0bbe 623a 2fbd 9aed de3d
000002e0: eae5 a4be e7b6 563e fdbe 15bf d52d 49bd
000002f0: faa1 a2bb ca25 2a3d 30a6 46bd 9c0f 21bd
00000300: addd 133e 3054 e2bd 10dc 813e 251a 02be
00000310: 932f 023e ceff d9be 8b0f de3c ae5a 06bd
00000320: 8c63 b73d f7a3 d73d 5515 19be 86ff 723e
00000330: 4867 cbbe 18ff b1bd 4664 863d 44ea 6f3d
00000340: ab64 50bd 0fdb 1b3e 3011 733e c080 1f3e
00000350: ffd9 fabc e9f4 c93c a0e4 bb3d 822c 533e
00000360: 95b8 1f3e f0a5 593e 9fbd 183d 4110 6a3e
00000370: 0b95 cdbd 6f19 053d 6c14 453e a0fc dd3c
00000380: 13aa edbc 1d8c efbd b2d0 4fbd 7148 7e3c
00000390: aec0 57be 3b96 1d3e 4126 a8bd 1957 41be
000003a0: 8e0f f4bd 13c2 7ebd fe0a 9dbc 7c8d e83d
000003b0: eadf 8c3d 007a cabd 79e0 8d3e 0b09 903e
000003c0: 51c3 f93d 35d7 883e f0e3 82bd 30c0 063d
000003d0: 848d acbd d2e7 da3e 4e86 11be f59c 223e
000003e0: f022 87bd fef9 903d 7c34 02be d9e8 88be
000003f0: 7a83 7b3e 792f dc3d 613d be3d 73e7 89bd
0.21091352 -0.0746567 -0.07588758 0.095762424 -0.056199517 -0.33994585 0.063887276 -0.24407293
-0.29357114 0.16229564 0.08671052 0.1883972 -0.029944437 0.12185416 -0.035744652 -0.00034654772
0.5036627 0.033354998 -0.02584882 -0.036080096 -0.0067929095 -0.40431896 -0.006729696 1.1517417
0.12953572 0.09559235 -0.05671896 -0.023047287 -0.27003455 -0.14621422 0.13777457 -0.00027200312
0.10162164 -0.22685063 0.08390508 0.16327158 -0.15308785 -0.062162157 -0.103215456 0.19550224
-0.06721587 0.31862488 0.018109221 0.19090036 -0.061158646 -0.07600033 -0.50061476 0.23702812
-0.07556954 0.004579041 -0.21573165 0.020250272 -0.10153144 -0.2910494 0.16084845 -0.15979289
0.0981242 0.038245797 -0.002343844 0.17939268 -0.28206754 -0.11835319 -0.08216969 -0.13047603
0.1760578 0.15004216 -0.07185774 0.1708669 0.11613815 0.28609368 0.15119584 0.29821977
0.082359105 0.14311068 -0.17877531 -0.14729871 0.19757392 -0.1570056 -0.107912995 -0.1683035
0.06560911 0.067822374 -0.13261506 -0.16608213 -0.24644166 -0.015565241 0.17855927 -0.11610611
0.09013507 0.13938497 0.038444683 -0.053643618 0.20299223 -0.10131072 -0.09266725 0.13779676
-0.06031733 -0.073800854 -0.11336301 0.09967011 0.2173121 -0.4122248 -0.29117993 -0.05846708
0.001357812 0.14709218 0.01749469 -0.26662308 -0.09664428 0.23788717 0.12821071 -0.17540228
-0.0066221296 -0.111348 0.08789058 0.0838979 0.05648026 -0.17708057 0.39339656 -0.04875732
0.21538903 -0.11133909 0.098789856 -0.23335639 -0.22268791 -0.014089469 -0.32891595 0.09044529
0.06300013 -0.0116757415 -0.2704061 0.05958962 -0.15834764 -0.084329724 -0.003672584 -0.06404612
-0.19099312 -0.16569957 0.03845586 -0.2614511 -0.0005133767 -0.02427507 0.34965634 0.057420358
0.08416504 0.017882148 0.17194538 0.24928065 0.20767616 -0.124348916 0.30678457 -0.17044985
-0.110692926 -0.035138287 -0.14061908 -0.19167061 0.3016445 -0.22080582 -0.08861215 0.07001866
0.09608341 0.28207847 -0.12546667 -0.07774133 0.026099205 0.24688715 0.016884899 0.005990047
0.14979151 0.28493315 -0.04003808 0.017808229 -0.16831882 -0.2374223 0.17337753 -0.15860759
0.18332331 -0.058266684 0.014518773 -0.23301099 -0.17030063 -0.13601707 -0.042780288 0.10885163
-0.3220666 0.20968209 -0.5849455 -0.049115974 -0.004963157 0.041539945 -0.048498333 -0.039321527
0.14440031 -0.11051214 0.25363207 -0.12705286 0.1271346 -0.42577976 0.02710702 -0.032801323
0.08954534 0.10529321 -0.14949544 0.23730287 -0.39727235 -0.086912334 0.065620944 0.058573022
-0.050877254 0.15220283 0.23737025 0.15576458 -0.030621527 0.024652915 0.09174466 0.20622447
0.15597756 0.21254706 0.03729021 0.22857763 -0.10038193 0.03249496 0.19246072 0.027098
-0.029011762 -0.11696646 -0.050736137 0.015520201 -0.21069595 0.1538934 -0.08210421 -0.18880881
-0.11917029 -0.062196802 -0.01917028 0.11355111 0.06878646 -0.09886551 0.27710322 0.281319
0.12195457 0.2672669 -0.06391132 0.032898128 -0.084254295 0.4275499 -0.1421139 0.15880187
-0.06598461 0.07078932 -0.12715334 -0.2674015 0.24561873 0.10751242 0.09289051 -0.067335986

seq.0.bias f4 [64]
00000000: 4bb4 8f3e 44e8 023e e9e2 053d 9581 ab3f
00000010: 3def 993d 82cf f6bd 6eb2 8c3d b873 4a3e
00000020: d8a4 32bd 42b3 b3bc 24ef 203e 4976 e43d
00000030: d380 94bd d1a2 683d cdd5 313d ce0c 69be
00000040: 4520 ca3e 28c1 d83d 09d2 4f3d 0c8b 91bd
00000050: f97c 40be e0ed 31be 8acf 2abe ab11 773d
00000060: 2438 26be ce31 fdbd 7891 e33c 77a0 07be
00000070: 6026 173e e095 813e 70e2 633d 0254 e4bd
00000080: b5b9 583e 2b73 71be 1ebc 3ebd ebd1 ff3d
00000090: a73c d63e 20d1 c6bc 60ad 273e bb52 17be
000000a0: 8005 013e 3c7b 6d3e 7cda 6a3e 8418 0f3e
000000b0: 60fc 183d f225 dbbd 6c6d df3d 65bb 923e
000000c0: b684 303e c5d8 b53d 95bc 943e 613e dbbd
000000d0: 3909 96be cf53 b7bd 4f5c 22bd e3a9 2cbe
000000e0: a2f6 973c c2fc 5f3e 6b0b e93d 341b b43d
000000f0: 11be 93bd 10b9 21bd 8d8c 503e 08ed 13bd
0.2806724 0.12783915 0.0326871 1.339892 0.07516334 -0.12051298 0.0686997 0.19770706
-0.04361424 -0.021936063 0.15716225 0.111553736 -0.07251134 0.0567959 0.043416787 -0.22758791
0.39477745 0.10583717 0.050737415 -0.07106599 -0.18797673 -0.17375898 -0.16680732 0.060319584
-0.16232353 -0.12363015 0.027779326 -0.13244806 0.14760733 0.25309658 0.05563587 -0.11148836
0.21164592 -0.2357909 -0.04656612 0.124912106 0.4184315 -0.02426964 0.16374731 -0.14777653
0.12599754 0.23191541 0.22934908 0.13974196 0.03735006 -0.10700597 0.109095424 0.28658596
0.17238125 0.08879236 0.29050127 -0.10705257 -0.2930391 -0.08951532 -0.039638814 -0.16861682
0.01855022 0.21873763 0.11379131 0.08794251 -0.07213987 -0.03948313 0.20366116 -0.036114722

seq.2.weight f4 [64, 64]
00000000: 53c6 193f eb2e d3be 178b 4dbe ac3c 603e
00000010: 7025 753f 6d42 413f 4f03 703e 98e4 d33e
00000020: 64df 6b3e 3225 94be 4d7d 1a3f 0f23 02bd
00000030: b637 aa3e e646 97bf 977e 343f ca58 9fbf
00000040: dc54 80bf f812 fcba 2e92 e4be 37fa 24bf
00000050: e5d2 a0bf 4fbc 923e c647 603f f567 36bf
00000060: 904e c13d 493b 2cbf d544 3a3e fe72 49bf
00000070: 8cb7 a43f b518 84bf adc2 96bf 5258 d8be
00000080: 6cbe 133f b1ca 27bf 5f8a 48bf 20aa 01bf
00000090: d83e 64be bcbd 95bf d5fb 453f f2f8 503f
000000a0: b96e e83e c44b 9a3f dc0a 1c3f 2f51 7abe
000000b0: f67e 3a3f 5e56 47bf 16e0 2dbf 7621 373f
000000c0: c28b 183f 1fef ec3d 3b03 1b3f 4eb6 6f3f
000000d0: e5fb 4cbf 2695 323f 429e 643f 326b 533f
000000e0: c2f0 81bf aa4c 983f 61b8 06bf e690 32be
000000f0: f4d9 6f3e a5af 983e dfb1 06be d1af 61bf
00000100: 66f6 c9be b9fe 4ebf 7cea 4b3f 44c5 73be
00000110: 27ce 953e 58ff 51bf 9001 cebe d6f2 033f
00000120: 5367 483f 6403 193f ae36 1e3e aed9 7c3e
00000130: 0f83 03bf c4aa 1ebf 339e 6dbf af24 5b3e
00000140: 86d1 38be 4fc5 6e3e 9e88 b43e cbaa f83d
00000150: f139 cabe 10c3 083f 6af4 6dbf cfdf 86bb
00000160: 4a67 90be ac29 483e 5450 95bf cd1f 22bf
00000170: 7227 5b3f a364 3bbe 556a 68bf 038d 883e
00000180: e1ff 2abf ee8f 8d3e 3193 2a3f 3105 813f
00000190: 4a26 653d 5da5 a23e cef5 f83e ae21 4cbf
000001a0: ae84 713f 4920 323f 0d25 b0be b092 41bf
000001b0: f0c9 583f 7d28 7b3e 724a 7d3e 658c 88bd
000001c0: af98 a5bd 4417 51bf 3976 0e3f c82a 883f
000001d0: 5105 46be 6832 673e 50e0 003f b86b 0cbf
000001e0: 0436 e6be b4fb 6c3e 53b6 543f cacd 363f
000001f0: aca0 c9be 501e 7ebe 6188 b83e ac5f 1bbf
00000200: b95f 5f3e b444 66bf c3bb 573e 20a1 94bf
00000210: ac39 6ebe e5d1 6e3f c62a 2b3e 32f0 12bf
00000220: 2e18 4abf f665 42be 70ee d53e 80bc 21bd
00000230: 35da 983f 2b9a 12bc 2428 0e3e 5d66 97bf
00000240: a372 3abf 5b0e 42bf 917a 703f 5f09 da3e
00000250: 3fcd 78bf 21eb 20be b72c 263e 404c 1dbe
00000260: e13e 943e 4fc9 d2be 8628 82bf 9cf1 2d3f
00000270: f83c 773f 2614 37bf dbbe 6cbf 388f 233f
00000280: 8963 74bf bfd7 793e 6e7b 76be d37c 893f
00000290: b2c4 233f af5d 443f 87f8 8a3f e837 6a3f
000002a0: c956 01bf 119d 2bbf e932 86bd 0d30 89bf
000002b0: a2f6 443f 7b02 983e 678e 4dbf 8574 e7be
000002c0: dc11 1a3f f5b5 283f 0d46 93bf 4c57 103e
000002d0: 89c3 223d 2ed0 313f 302c b23e e5e2 2ebf
000002e0: 4f22 4dbe 5101 363f 74ae 663f c908 53be
000002f0: b6d9 37be 51db 923e 9bb1 823f 4436 9e3c
00000300: 5c16 893e eb23 453f 8112 933f 3f0f 6d3f
00000310: ec62 df3e 88f3 edbe 6f55 0dbf 6cd7 0bbf
00000320: f2f4 99be b0f3 12bf 6445 8a3f 1d57 1ebf
00000330: 283f c3be 3ae5 473c 13f9 a4be 0517 703e
00000340: 460f 843d 50ef 703f 3102 453e d726 683f
00000350: 59cb 14bf 5c1a 67bf fb18 1bbe 536a 1ebf
00000360: a647 54bf b1ba 76bf 0c1d 453e 9d25 823f
00000370: 53cb 7c3e 2bda 84bf 4f82 37be 55f5 5dbf
00000380: dec2 493e 4abd e43e 57dd 8b3f 2575 e73e
00000390: 8632 8f3f 9268 433f 3039 88bf 8ef1 ad3e
000003a0: c961 3f3f 2585 fe3e f1d4 853f 59db 043f
000003b0: 9093 d5be a269 623f 61a3 5cbf 6684 05bd
000003c0: 7d38 933f 2a3b 8fbe 1189 513f 5c40 043f
000003d0: c71a cdbe 19ff 183f bec4 543e 2fbc c8bd
000003e0: 97be a1be edeb 8b3f a9e0 6fbf 248b 1ebf
000003f0: cf06 c1be b2b1 8d3e 7641 3a3f 9eae 8ebe
0.60068244 -0.41246733 -0.2007259 0.21898144 0.9576025 0.7549198 0.23438762 0.4138534
0.23034436 -0.28934628 0.60347444 -0.031771716 0.3324563 -1.1818511 0.7050566 -1.2448971
-1.0025897 -0.0019231727 -0.44642776 -0.644443 -1.256436 0.28659293 0.8760952 -0.71252376
0.09438813 -0.6727796 0.1819032 -0.7869109 1.2868514 -1.032004 -1.177816 -0.42254883
0.57712436 -0.6554366 -0.7833614 -0.50650215 -0.22289598 -1.1698527 0.7733739 0.8162986
0.45396975 1.2054372 0.6095407 -0.24445032 0.72849977 -0.7786616 -0.67920053 0.7153543
0.59588253 0.11569046 0.60551804 0.9363755 -0.8007186 0.6975883 0.8930398 0.8258544
-1.0151598 1.1898396 -0.5262509 -0.17438087 0.23422986 0.29821506 -0.1315379 -0.881589
-0.394458 -0.80857426 0.7965467 -0.2380572 0.29258844 -0.8203025 -0.40235567 0.51542413
0.7828266 0.597708 0.15450546 0.24692413 -0.51371855 -0.6197932 -0.9281952 0.21400712
-0.18048677 0.23317455 0.3526048 0.12141951 -0.3949733 0.5342264 -0.9295107 -0.0041160355
-0.28203803 0.19547147 -1.1665139 -0.63329774 0.85607064 -0.18300109 -0.9078725 0.26670083
-0.6679669 0.27648872 0.66630846 1.0079709 0.05594472 0.31766787 0.48625034 -0.7973889
0.9434308 0.69580513 -0.34403268 -0.7561445 0.8468313 0.24527164 0.2473543 -0.06667403
-0.08085763 -0.81676126 0.55649143 1.0638056 -0.19337966 0.22577822 0.50342274 -0.54851866
-0.44963086 0.23142892 0.83090705 0.7140776 -0.39380395 -0.24816251 0.3604155 -0.6069286
0.21813859 -0.8994858 0.21067719 -1.1611671 -0.23264188 0.93289024 0.16715536 -0.5739776
-0.78943145 -0.18984208 0.41783476 -0.03948641 1.1941592 -0.008947889 0.138825 -1.1828114
-0.7283117 -0.75803155 0.9393702 0.42585275 -0.9718818 -0.15714695 0.16227995 -0.15361118
0.28954223 -0.4116921 -1.0168617 0.6794679 0.96577406 -0.7151512 -0.9247872 0.6389041
-0.9546438 0.24398707 -0.24070522 1.0741218 0.6397201 0.7670545 1.0857095 0.91491556
-0.5052305 -0.6703654 -0.06552679 -1.0717789 0.7693883 0.29689392 -0.80295414 -0.45206085
0.601835 0.65902644 -1.1505753 0.14095801 0.039737258 0.6945828 0.34799337 -0.68314964
-0.20032619 0.7109576 0.90109944 -0.2060882 -0.17954144 0.2868295 1.0210451 0.019312985
0.2677487 0.7700793 1.1490022 0.9260139 0.4363016 -0.46474862 -0.55208486 -0.5462558
-0.3006969 -0.5740309 1.0802426 -0.61851674 -0.38134122 0.012200648 -0.3222128 0.23446281
0.06448226 0.9411516 0.19239117 0.90684265 -0.58122784 -0.90274596 -0.15146248 -0.6188099
-0.82921827 -0.9637862 0.19249362 1.0167729 0.24686937 -1.037908 -0.17920803 -0.8670247
0.19703242 0.44675666 1.0926923 0.45206562 1.1187294 0.76331437 -1.0642452 0.33973354
0.74758583 0.49710956 1.045561 0.518972 -0.41714144 0.8844243 -0.86186796 -0.032596968
1.1501614 -0.27974826 0.8184977 0.51660705 -0.40059492 0.5976425 0.20778176 -0.09801518
-0.3159072 1.0931374 -0.9370218 -0.6193106 -0.37700507 0.27674633 0.72756135 -0.27867597

seq.2.bias f4 [64]
00000000: 804e 8bbd ae4f 8cbe 5c7d b9bd f09a fd3d
00000010: c7a9 853e ad01 1cbe 24ef f93c 96cc cbbd
00000020: 025a 6dbd 33b3 ce3c 3bd8 77be 2f07 b13d
00000030: fcfa 4ebc 860f 56be 185f 8cbe 2fcd bb3d
00000040: 1438 b83d 4f0f 473d 6af0 053e 4dfd 67bd
00000050: 5d1f 953b 979f 0d3d 4405 81bd a36c 1f3e
00000060: c1f0 4c3e 3e6a 3ebe b5d1 83bc e54f a4bd
00000070: 798c 02be ebd6 b33d 25a5 583d aaf6 fd3d
00000080: 8126 183e 753b 55be ba5e 26be fdd0 253d
00000090: f415 2fbe fa00 c2bc 645e 423d 9095 cf3d
000000a0: db35 87bd 2bad 433c 49bb 063e 6c96 a53d
000000b0: cc22 c2bd 45f5 e33c 701f 00bb 4ee3 5f3e
000000c0: 44c4 913d 72b1 76bd 2bf4 ef3d b2ac 603e
000000d0: 7b65 50bd a934 abbd c731 2bbe 7253 253c
000000e0: 1760 96be e45f 6fbd 1df1 d1bc c591 abbb
000000f0: b2ee 0ebe c0a1 743c 2683 82be 8bb9 68bd
-0.06802082 -0.2740454 -0.090571135 0.123830676 0.26106092 -0.15235014 0.030509539 -0.09951131
-0.057947166 0.025231933 -0.24203579 0.08643948 -0.0126330815 -0.20904359 -0.274163 0.09169995
0.08995071 0.048598584 0.13079992 -0.05663805 0.004550858 0.034576025 -0.062998325 0.15568785
0.20013715 -0.18595216 -0.016091207 -0.08023051 -0.12748899 0.08781227 0.05289187 0.12400563
0.14858438 -0.20823462 -0.16247073 0.04048251 -0.17098218 -0.023682106 0.0474533 0.10135949
-0.06602069 0.011943142 0.13157381 0.08085331 -0.09479293 0.027826915 -0.0019549988 0.21864054
0.07117513 -0.06022782 0.11716493 0.21940878 -0.05087803 -0.083596535 -0.16718207 0.010090696
-0.29370186 -0.058441058 -0.025627667 -0.005235883 -0.13958243 0.014931142 -0.25490683 -0.056817573

seq.4.weight f4 [64, 64]
00000000: 3989 0a3f 7621 80bf b856 87be 7d08 2fbf
00000010: e920 cfbf ca2c 12bf fbd4 13bf 9f2e 713c
00000020: dd30 2cbd 2dd8 263c a4ad 243e c3ed 5a3f
00000030: b1fd 323f f83d 0cbf 5cee b43e a50e eebe
00000040: 0e6b 603f ff0a 62bf b604 373e a190 1fbe
00000050: cf2c 9bbf 595c 8e3e 5f4f 99bf 379d 983f
00000060: affb 56be c955 93bf b9c6 45bc ae86 8ebf
00000070: b70e d4be aa77 9d3d c1d1 873f dd2e 48bf
00000080: 93b4 213f 3607 fdbe 466a 023f c857 c23e
00000090: 858b 26be 61c4 20be ec73 263f 64b2 383f
000000a0: 81ff 09bf b3ad 233f 4f4d a23e e61d 673e
000000b0: d8ba dcbd a734 973e 5f3d 86bf 5f1c 0abf
000000c0: 5cde 9ebe 41d1 a0bd 4502 1dbf 9907 283f
000000d0: 6021 6e3f 2527 b13f 5277 5abe eb23 b33e
000000e0: 8e90 b23f ad86 e7be e43e e73f 125f ef3f
000000f0: 26ab ad3d 44c8 39bf 5955 60bd b6b9 3fbf
00000100: 2786 f1be fc48 5b3f 129c 723f 2ad2 3f3f
00000110: 67a5 ab3d 9c90 f63d fe6e 633e 0ea0 9fbf
00000120: 133e 45bf 6769 80bf 0eca 6d3f 36e9 a83e
00000130: 39e0 543f a156 7abe 16a0 f5be e2d4 1f3d
00000140: 5c9f 18bf 823e b6bc abbf 043e ff56 8a3f
00000150: eff4 e8bf 033f 88bf dfa6 123f 7abe 8fbf
00000160: 4b95 1a3f 0270 84be 14d5 b93e 4b2a 943d
00000170: 9e43 1d3f 7e7a 943f 75ae 22bf 7f2d ce3e
00000180: d992 5bbf c205 9cbf 4114 ccbe 1385 373f
00000190: 6ee0 a5bf 480a 803e 4c8f 67bf ce2f 37bf
000001a0: 7111 543f 02fc c13e c981 5dbf ba83 83bf
000001b0: 6a93 fb3e 579f df3e 5808 1ebe 0b6c 473f
000001c0: b5dd 0e3f fd40 c2bf 0079 19bd 6ef6 74bf
000001d0: e84a 413f 98f8 4fbf 87b6 59bf 82fc a7bd
000001e0: 3e51 2e3f 3c8d a9be cc98 5a3f b788 473f
000001f0: 90f5 363f bcd4 a5bf e055 533f 2d9b 263e
00000200: 9073 27be 8dc3 1b3f de8a 22bf 6907 8a3e
00000210: 8067 01bf f7ed c1be e7b1 3c3f 7ffe 293e
00000220: 8c08 8cbd c4f6 223f c504 cc3e d65b 4bbe
00000230: 2e0d 5fbf 4bfd b23d 7893 a7bc 51ab c63b
00000240: cd96 f0be b110 b43e f118 233e c0cc c73d
00000250: d536 d0bd 0004 3e3f 6021 90be 449d 263e
00000260: 97ce ba3d 33cb d6bd a2a8 87bd b4f5 003f
00000270: 1d8a 443e cf72 91be 19eb 03bf e91c d33e
00000280: afac 733e 742e 4abf e033 393e 4e63 54bd
00000290: de24 9c3d 9d89 14bf aa54 393f fd0c ddbe
000002a0: dd94 cebe 77d2 80bc 0e2d 253f ca92 f0bd
000002b0: 0a89 2abf 647d 4ebe 38e8 39be d14a 2cbf
000002c0: ae08 11be 81a4 013d a69b f7be 68e3 29bf
000002d0: 7a35 b73e 6449 8c3f 1147 8ebd af71 3a3f
000002e0: 4710 363f 2d02 183e d8b0 0ebe e9e8 9c3f
000002f0: 5a9e 713d 98a5 c73d 16df 69be 14cb 10be
00000300: 2a08 51be b26f f03d fa3c 853f ab77 ef3e
00000310: 8f61 fc3e 7d84 5b3e 14e9 84bf 32e6 c4bf
00000320: c330 49bf db1f 233f 2248 ecbd 27f7 00bf
00000330: 6c0b 973e 44d3 a6bf 39e7 1c3f 89b9 753f
00000340: 648d 8dbe dc8c bc3e 3cf6 453f 3ffa 953f
00000350: d57f 7abe eb6d 383f 1260 97bf 1ddc e3be
00000360: 4aaa cb3e 9697 653f da99 47bf 94ef 7c3e
00000370: de1b 84bf a8a1 eb3d 750e 8fbe 8820 3f3e
00000380: 4de7 843f 6abb 25bf d520 8bbe ec6b 973e
00000390: 8023 ce3f cb61 c83e c005 de3d be43 f33e
000003a0: f892 14bf d742 0ebf e3fd 98bd fd98 f83e
000003b0: 2215 113f 9a37 22bf e91a 82be 4dd5 8f3c
000003c0: 7dd2 bc3f 37c4 043e 8955 62bf 7f1d 88be
000003d0: 59ff ab3f 38a4 bcbf 1b5a 84bf 88d7 883e
000003e0: 9a67 00c0 9ffa 193f 34b4 bebe 8fe8 4cbd
000003f0: 7bce 48bf dbee b7bf 977b 053f b324 7d3e
0.54115635 -1.0010211 -0.2643335 -0.6837233 -1.6181918 -0.5709959 -0.5774686 0.014720588
-0.042038787 0.010183376 0.16081864 0.85519046 0.6991835 -0.54782057 0.35338104 -0.46495548
0.8766335 -0.8829803 0.17872891 -0.15582515 -1.212305 0.2780483 -1.1977347 1.1922978
-0.20994447 -1.1510555 -0.012071305 -1.1134851 -0.41417477 0.0768884 1.0610887 -0.7819651
0.6316616 -0.49419564 0.5094341 0.37957597 -0.1626416 -0.15699913 0.6502063 0.721472
-0.53905493 0.6393692 0.31699607 0.22569999 -0.10777825 0.29532358 -1.0487479 -0.5394954
-0.31029022 -0.07852412 -0.6133159 0.65636593 0.93019676 1.3840071 -0.2133458 0.3498834
1.3950365 -0.45219937 1.8066068 1.8700888 0.084799096 -0.72571206 -0.054768894 -0.7489275
-0.47172663 0.8565824 0.94769394 0.7493006 0.08381157 0.12039301 0.22210309 -1.247072
-0.7704784 -1.0032166 0.92886436 0.32990426 0.83154637 -0.24447109 -0.47973698 0.03902138
-0.59618163 -0.022246603 0.1296374 1.0807799 -1.8199748 -1.064423 0.57285875 -1.1230004
0.60384053 -0.25866705 0.36295378 0.07234629 0.614313 1.1599882 -0.6354745 0.40269086
-0.85770947 -1.2189257 -0.39859203 0.7168743 -1.2959116 0.25007844 -0.9045303 -0.7155732
0.82839113 0.3788758 -0.8652616 -1.0274575 0.49135906 0.43676254 -0.1543287 0.77899235
0.5580705 -1.5176083 -0.03746891 -0.9568852 0.7550492 -0.812387 -0.8504414 -0.08202459
0.68092716 -0.33115566 0.853894 0.77942985 0.7146845 -1.2955546 0.8255291 0.16270132
-0.16352677 0.6084526 -0.63493145 0.26958779 -0.50548553 -0.37876865 0.7370896 0.16600989
-0.06837568 0.63657784 0.3984739 -0.19859251 -0.87129486 0.08739718 -0.02045606 0.006062903
-0.46990052 0.35168985 0.15927483 0.0975585 -0.101667084 0.74224854 -0.28150463 0.1627093
0.09121435 -0.10487976 -0.06623961 0.50374913 0.19193311 -0.28407905 -0.51530606 0.41232994
0.23796342 -0.7897713 0.18086195 -0.051852517 0.07624219 -0.5802248 0.7239481 -0.43173972
-0.4034795 -0.015725357 0.64521873 -0.11746748 -0.66615355 -0.2016502 -0.1815499 -0.6730166
-0.14163467 0.031651024 -0.48360938 -0.6636262 0.35782987 1.0959897 -0.069471486 0.7282972
0.7111859 0.1484458 -0.13934648 1.2258579 0.058988906 0.097483814 -0.22839007 -0.14139968
-0.2041327 0.11740054 1.0409234 0.46770987 0.4929318 0.21437259 -1.038363 -1.538275
-0.7859003 0.6372048 -0.11537196 -0.50377125 0.29500902 -1.3033223 0.6129032 0.9598623
-0.27646935 0.36826217 0.7732885 1.1716994 -0.24462827 0.7204272 -1.1826193 -0.4450387
0.39778358 0.89684427 -0.77969134 0.24700767 -1.0321004 0.11505443 -0.27940717 0.18664753
1.0383087 -0.64739096 -0.27173486 0.29574525 1.6104584 0.3913711 0.108409405 0.4751262
-0.58036757 -0.5557074 -0.074703 0.4855422 0.5667287 -0.6336609 -0.25411156 0.017557764
1.4751736 0.12965475 -0.88411766 -0.26585004 1.3437301 -1.4737616 -1.0339998 0.26726937
-2.0063233 0.6014804 -0.3724686 -0.050026473 -0.78440064 -1.4369768 0.5214171 0.24721031

seq.4.bias f4 [64]
00000000: 56c4 d13d 4773 17bc d677 e53d 4759 e93c
00000010: 91ee b93b 6776 fb3d b57c e8bd 50dc e4bb
00000020: f151 4abd ac7c 9cbd 1a55 f8bd 0759 433e
00000030: e32e a2bd 7095 bebd d312 6ebd a225 bdbd
00000040: 5e3f b63c f417 073e 6c8f d03c 4a6c 14be
00000050: 16ee 04be 9c72 5dbd 25e6 4d3d de5c 9d3c
00000060: 670b d83d a66c f9bd 0d94 403c 3ef3 31bc
00000070: a0be 21be 9c94 b7bd fc8d 07bb 891b 8f3d
00000080: 277d 33be c214 af3d d268 40bb 4335 3fbe
00000090: 90b9 b2bd a62e dbbd ec3f febd 859e 0b3d
000000a0: 0f3f b7bd 784b 26be b6cc f9bc 7b1a ac3c
000000b0: 7266 453c ac30 90bc 82a4 173e bb41 71bd
000000c0: 578f b33d 5832 1f3d 67b5 db3c 2fd1 fd3c
000000d0: ce25 a93b e5c8 623d 6266 6d3c 5df0 e6bd
000000e0: 8db4 2f3d fded fdbd 2189 0dbe 0355 4ebe
000000f0: 56bc 21bd 0b1d 67bd 1ef5 c43d a324 da3d
0.10242526 -0.009243793 0.112044975 0.028484954 0.0056741913 0.12278443 -0.11351911 -0.006984271
-0.04939455 -0.07640967 -0.12125607 0.1907693 -0.07919099 -0.09305847 -0.05812342 -0.092356935
0.022247013 0.13192731 0.025459014 -0.14494434 -0.12981448 -0.05406438 0.05026831 0.019209322
0.1054905 -0.12178926 0.011754048 -0.010861216 -0.15795374 -0.08963892 -0.0020683995 0.06987674
-0.1752821 0.08548881 -0.0029359353 -0.18672661 -0.087267995 -0.10702257 -0.12414536 0.034086723
-0.08947574 -0.16239727 -0.030493122 0.02100872 0.012048351 -0.017601334 0.14808849 -0.058900576
0.08767574 0.03886637 0.026819898 0.030983536 0.0051619774 0.05536737 0.014489742 -0.112763144
0.042896796 -0.12398908 -0.13821842 -0.20149617 -0.03948625 -0.056424182 0.09617065 0.10651519

seq.6.weight f4 [3, 64]
00000000: 9a65 8b3f dd8f 95bd 4012 c33e 4fd0 1b3d
00000010: 25ad 443f cfc8 cfbe 5422 293f 2592 0cbf
00000020: c150 32bc 6fce 09bf 1d44 f43e 28df 283d
00000030: 7a52 683c 4996 44bf 26bc 1fbf 9704 723f
00000040: 7ad3 5dbf dac5 20bf d520 b13d 057e e13e
00000050: 7d15 2fbf 6e46 08bf bc07 413e 8f42 c53e
00000060: 5017 31bf 5f5a e7bd 6eb2 0e3f b2e8 5cbe
00000070: 802f 163f 4a6d 943e 24e0 c3bb b81a 523e
00000080: a629 1dbf faa3 6c3d 5d73 363f e3fe 713f
00000090: facf 863d 09a2 5e3e d4d1 4fb9 cbc6 0d3d
000000a0: 9238 29bd 1a9c c13e 3a02 103e db9c 03be
000000b0: 2abf 34bf 5b1e 343c b2b5 d8bd a920 333f
000000c0: 35b7 703d e8f0 013f 3f07 59bf 5c6e 3c3d
000000d0: 590d 3ebf ede3 30be ccd3 6fbf 761d 3bbe
000000e0: cb3b 91be 8f17 5c3b f6e6 81bc 72c3 1a3d
000000f0: 8a4e 423e ee72 e7be a6f2 e8be 6b8f 453f
00000100: c160 993e 84f3 3bbf 758a 8b3d 5553 b6be
00000110: a29e e93d a5a0 b13e 9a96 aa3e a32a 95bd
00000120: cc3c 573e 524b 2dbd 02b2 80be ae56 9a3d
00000130: 4be3 22bb cd69 6e3c c4b8 64bc 434c 08be
00000140: 180d b63e fd21 1eba 0950 143d 479f 22bf
00000150: 4ae3 9e3d 424e 4e3e a87d 263e d623 003e
00000160: 8e4e 153f 8753 923d 9d06 2d3e 5228 9abe
00000170: 6afd 373e fdc3 52bf e884 9a39 42c3 eebb
00000180: a4bf d5bb 544d ae3d 4ada c13d a7fe 19bf
00000190: dd4c 3abd bcef b9be 96fa 903c 4489 e73d
000001a0: 6a5c c93a e5f4 033f 4075 fcbd 3e6b 1e3e
000001b0: 0641 e23d 89b1 40bc 71d9 b3bf 6f2f 74bd
000001c0: 6d29 8a3d ac51 01be 6391 ca3d f584 cd3d
000001d0: 45eb 22bf 3278 51be 5ec7 99be eda2 cfbf
000001e0: 7733 72be 1229 adbb 7e41 0db9 3165 c13f
000001f0: 232e b13c 2a8e d83e 378b d93c 0a49 843e
00000200: 7367 1b3d de73 543e 54e3 743d 49b8 6b3f
00000210: fccb aabe b089 a03c 4926 c1bd 69a5 dd3c
00000220: e48c 863c ebbd 8ebe 3365 22be 8245 2dbd
00000230: d66f b73b 0539 363c 3e21 ccbd b60e 8a3b
00000240: 50d9 513c b727 ddbe 5d39 65bd f01f 36bf
00000250: 4211 56be e822 bd3e 594b 4a3c 08a6 22bf
00000260: f4de a2bd 4717 ccbe c214 d53c 70dc 4bbe
00000270: 8e8c f13d ae7d 273d c37d 943a a136 e13c
00000280: 6054 4cbd 8a08 25bb 7634 153e 4353 16be
00000290: 347b 0c3d 88e2 883d 5e2f a2ba 1aca 89bb
000002a0: 2237 1f3d 044b 043e 3de5 58bd 5e69 69be
000002b0: 5b6d d53e 1799 893c 77e2 a8be dcf9 52be
000002c0: eced 5bba 9ff7 9a3e 9c3d 1ebe 1cbb 1dbc
000002d0: 5127 adbe 2b0a 263f fb1f 2dbd 45a0 6a3e
000002e0: 8124 fdbd c9b4 dd3b 1ab2 e5bb 9eab 81be
000002f0: 39d9 803f 4a50 f4bc d568 ef3e c5ca 333e
1.0890381 -0.0730283 0.3809986 0.038040455 0.768267 -0.40582892 0.66068006 -0.549105
-0.010883511 -0.5383062 0.47708216 0.041228443 0.01417982 -0.76791817 -0.62396467 0.94538254
-0.8665081 -0.628019 0.0864884 0.44041458 -0.68392164 -0.5323247 0.18850607 0.38527343
-0.691762 -0.11296534 0.5574101 -0.21573141 0.5866623 0.2898963 -0.0059776474 0.20518005
-0.61391675 0.057773568 0.7126978 0.9452955 0.06582637 0.21741499 -0.00019819225 0.034613412
-0.041313715 0.3781441 0.1406335 -0.12852804 -0.70604193 0.010993565 -0.10581531 0.6997171
0.05876847 0.5075822 -0.8477668 0.046003684 -0.74239117 -0.17274447 -0.9368255 -0.18272957
-0.2836593 0.0033583378 -0.015857201 0.037784047 0.18975273 -0.45204872 -0.45497626 0.77171963
0.2995663 -0.7341845 0.06813518 -0.35610452 0.1140721 0.34692875 0.33318025 -0.07283523
0.21019286 -0.04230816 -0.2513581 0.07536064 -0.0024854715 0.014551592 -0.013960067 -0.13310342
0.35556865 -0.00060322863 0.03620914 -0.6352429 0.07758196 0.2014704 0.16258872 0.1251367
0.5832299 0.07144838 0.16897054 -0.30108887 0.17967764 -0.82330304 0.00029472192 -0.00728646
-0.0065230895 0.08510843 0.094654635 -0.60154194 -0.04548346 -0.36315715 0.017697614 0.11305478
0.0015362625 0.51545554 -0.12327051 0.15470597 0.110475585 -0.011761078 -1.4050733 -0.05961555
0.067461826 -0.12628812 0.098910116 0.10035125 -0.6364024 -0.20456007 -0.30034918 -1.6221596
-0.23652445 -0.005284437 -0.00013471206 1.5109006 0.021628445 0.42295963 0.02655564 0.25836974
0.037940454 0.20747325 0.05978711 0.9207807 -0.33358753 0.019596905 -0.094311304 0.027056413
0.016424604 -0.2787927 -0.15858917 -0.042302616 0.0055980487 0.011121993 -0.09967278 0.0042131795
0.012808159 -0.43194363 -0.05596291 -0.7114248 -0.20905021 0.36940694 0.012347066 -0.63534594
-0.07952681 -0.3986151 0.026010875 -0.19908309 0.11794387 0.040891342 0.0011328984 0.02749187
-0.049885154 -0.0025182092 0.14570794 -0.146802 0.034297183 0.066838324 -0.0012373736 -0.0042050006
0.038870938 0.12919241 -0.052952994 -0.227941 0.41684994 0.016796632 -0.3298528 -0.20603126
-0.000838964 0.30267045 -0.1545319 -0.00962713 -0.3381906 0.64859265 -0.042266827 0.229127
-0.12360478 0.006765936 -0.0070097568 -0.25326246 1.0066291 -0.029823441 0.46759668 0.17557819

seq.6.bias f4 [3]
00000000: 02cf c53e e9f7 233f 78dd f33d
0.38634497 0.64050156 0.11907476

seq.7.weight f8 [3, 3]
00000000: 0000 0000 0000 f03f 0000 0000 0000 0000
00000010: 0000 0000 0000 0000 0000 0000 0000 0000
00000020: 0000 0000 0000 f03f 0000 0000 0000 0000
00000030: 0000 0000 0000 0000 0000 0000 0000 0000
00000040: 0000 0000 0000 f03f
1.0 0.0 0.0 0.0 1.0 0.0 0.0 0.0
1.0

seq.7.bias f4 [3]
00000000: 0000 0080 0000 0080 0000 0080
-0.0 -0.0 -0.0
