benchmarks/models/nn_4_relu/model.pt (torch, 4167 bytes, 5 tensors)

seq.0.weight f4 [20, 3]
0.06541497 -0.012703783 -0.06966465 0.058857366 -0.011437489 -0.062638804 0.05339374 -0.010393287
-0.056833155 0.072156034 -0.013999994 -0.07683328 0.032796387 -0.00640388 -0.03492927 0.015461689
-0.0029828327 -0.01646153 0.11532881 -0.028555278 -0.12294283 0.038291264 -0.007481653 -0.040750705
0.14872332 -0.042288516 -0.15710987 0.069132306 -0.013408379 -0.07361605 0.20124699 -0.066888474
-0.20928667 0.16035174 -0.050487135 -0.1678036 0.13262594 -0.03358506 -0.14134912 0.16114743
-0.042408235 -0.17127876 0.058179267 -0.011290854 -0.061942875 0.034775455 -0.006792782 -0.037033565
0.07043574 -0.0136539135 -0.0750021 0.048102535 -0.009376832 -0.051188957 0.1288176 -0.03160986
-0.13729608 0.046412926 -0.009055506 -0.04939286
00000000: 49f8 853d 8723 50bc 57ac 8ebd 6c14 713d
00000010: 4e64 3bbc c648 80bd 65b3 5a3d 9b48 2abc
00000020: e2c9 68bd 8bc6 933d 3b60 65bc c45a 9dbd
00000030: 8155 063d a4d7 d1bb ff11 0fbd 0653 7d3c
00000040: a17b 43bb 55da 86bc 8331 ec3d c2ec e9bc
00000050: 73c9 fbbd 4dd7 1c3d a728 f5bb 36ea 26bd
00000060: ed4a 183e b936 2dbd 69e1 20be 3d95 8d3d
00000070: d1ae 5bbc 03c4 96bd b113 4e3e d3fc 88bd
00000080: 3f4f 56be 3f33 243e 99cb 4ebd b5d4 2bbe
00000090: 18cf 073e 7d90 09bd d3bd 10be d503 253e
000000a0: 42b4 2dbd b363 2fbe 624d 6e3d 46fd 38bc
000000b0: d0b7 7dbd b570 0e3d fc95 debb 82b0 17bd
000000c0: 9d40 903d aab4 5fbc b39a 99bd 2a07 453d
000000d0: 49a1 19bc 83ab 51bd c3e8 033e 5779 01bd
000000e0: 5897 0cbe 7b1b 3e3d 8c5d 14bc 2b50 4abd

seq.0.bias f4 [20]
0.46164912 0.6574273 0.5932103 0.5993284 0.51908183 0.24016896 0.34921575 0.3824724
0.32318255 0.50763756 0.38713282 0.31927177 0.37132892 0.39484134 0.473332 0.5505752
0.54913557 0.58012646 0.3956206 0.59165305
00000000: 465d ec3e 284d 283f a1dc 173f 966d 193f
00000010: 8ce2 043f daee 753e 68cc b23e 6cd3 c33e
00000020: 2f78 a53e 89f4 013f 4636 c63e 9777 a33e
00000030: d31e be3e a528 ca3e 9258 f23e 7ff2 0c3f
00000040: 2694 0c3f 2b83 143f c98e ca3e 9376 173f

seq.2.weight f4 [20, 20]
0.1605457 0.14439572 0.13092478 0.17712528 0.08040845 0.037807066 0.28504494 0.09393108
0.3673602 0.16960752 0.49615276 0.39582077 0.32760334 0.39837682 0.14268589 0.08522209
0.1728736 0.11791395 0.3182005 0.11377682 3.0977664e-38 4.533598e-36 2.3973023e-36 -4.1046646e-36
-3.634128e-36 7.380954e-36 -5.3458515e-36 6.852598e-37 -5.2799882e-36 4.4426856e-36 6.396851e-36 6.5990354e-36
3.3276563e-36 -3.220974e-36 -1.5504798e-36 -5.7441643e-36 2.1099853e-36 -2.9451226e-36 -1.5003557e-37 6.124154e-36
0.14486508 0.13028659 0.11813795 0.1597852 0.07250504 0.03406635 0.25724158 0.08475929
0.33151826 0.15305552 0.44774705 0.35724092 0.29561618 0.35951608 0.12879193 0.07688644
0.15598059 0.10640634 0.2871482 0.10264706 -4.2569483e-36 -3.2670536e-37 5.639099e-36 6.794513e-36
3.8588963e-36 -1.7698323e-36 -7.3238536e-36 7.039641e-36 4.070139e-36 -1.2444121e-36 -7.106781e-36 -5.8664712e-36
3.148925e-36 -2.8475895e-36 -1.0093856e-37 3.7229963e-36 -4.2822006e-36 -5.935589e-36 -8.250209e-36 7.9138105e-36
0.18431246 0.16567242 0.1503044 0.20335098 0.09229075 0.043386932 0.3270755 0.1078058
0.42150137 0.19472378 0.569225 0.45410246 0.37586522 0.45701957 0.16389805 0.097853966
0.1983427 0.13539451 0.36502606 0.13062261 0.14412269 0.1295998 0.11754639 0.1589501
0.07217096 0.033901416 0.2562502 0.0842907 0.33021593 0.15227672 0.4458926 0.35577703
0.294444 0.3580984 0.12814325 0.07650481 0.15515219 0.105878904 0.286032 0.10216827
0.20032977 0.18010598 0.16335711 0.22095321 0.100349404 0.047174554 0.35533163 0.1172056
0.4579263 0.21158381 0.6185081 0.49338493 0.40838093 0.49662372 0.17803322 0.10635159
0.21565664 0.1471594 0.39665365 0.14200355 0.14902075 0.13398254 0.12154716 0.16434671
0.074625395 0.03505591 0.26485527 0.08713714 0.341291 0.15742084 0.46088633 0.36774263
0.3043452 0.3701313 0.13245335 0.079104476 0.1604018 0.109476864 0.29562068 0.10563141
0.1213034 0.10904693 0.09890706 0.1337486 0.060726874 0.028474769 0.21578534 0.07089649
0.2780716 0.12813643 0.37546068 0.29960382 0.24792573 0.3015591 0.107825994 0.06437598
0.1305622 0.089090034 0.24086767 0.085960016 0.14132099 0.1270602 0.115225896 0.1558389
0.07073475 0.03320972 0.25122854 0.08264453 0.32372642 0.14929447 0.43712473 0.34880853
0.2886555 0.35106963 0.12558949 0.074997775 0.15208682 0.103804275 0.28041193 0.10015355
-4.022882e-36 -9.099651e-37 -1.701103e-36 3.9814332e-36 1.8543795e-36 -0.0 4.415229e-36 4.0313042e-36
-4.6855406e-36 -2.271695e-36 -8.234813e-36 -3.326885e-36 -3.7649002e-36 -4.705564e-36 -5.0074273e-36 -7.47101e-36
3.8627857e-36 -7.5164e-36 3.8774582e-36 -4.867208e-36 2.928165e-36 -7.104783e-36 3.4214857e-36 2.544777e-36
5.336026e-36 -6.510123e-36 -2.1232655e-36 -3.091682e-36 2.7815218e-36 -6.483662e-36 -5.3610327e-36 -2.6923642e-36
2.0227711e-36 4.9865078e-36 7.098783e-36 -4.6801037e-36 -3.0458308e-36 -3.87453e-36 -4.2796625e-36 -2.5207742e-36
0.017304093 0.015518614 0.014143546 0.019066181 0.008627743 0.0040013804 0.030982168 0.0100877965
0.0398758 0.018260334 0.0539735 0.042961013 0.03558124 0.043256387 0.015380028 0.009158466
00000000: 1866 243e 79dc 133e 2511 063e 5460 353e
00000010: 2fad a43d 95db 1a3d 69f1 913e f05e c03d
00000020: a316 bc3e 98ad 2d3e bc07 fe3e 05a9 ca3e
00000030: a0bb a73e 0cf8 cb3e 401c 123e eb88 ae3d
00000040: c705 313e de7c f13d 2deb a23e d203 e93d
00000050: 90a8 2801 83d6 c004 9ff0 4b04 d797 ae84
00000060: 2694 9a84 bcf9 1c05 2b63 e384 8c2e 6903
00000070: fb95 e084 90f8 bc04 c50b 0805 9158 0c05
00000080: f88a 8d04 4d01 8984 76e6 0384 6954 f484
00000090: 697f 3304 178b 7a84 c437 4c82 113f 0205
000000a0: 8357 143e d969 053e 4ff2 f13d bb9e 233e
000000b0: 867d 943d 2889 0b3d 2bb5 833e 4796 ad3d
000000c0: c3bc a93e 96ba 1c3e 1a3f e53e 48e8 b63e
000000d0: 015b 973e 7e12 b83e 08e2 033e a376 9d3d
000000e0: 60b9 1f3e 91eb d93d 1705 933e 9f38 d23d
000000f0: 1012 b584 1a58 de82 5adc ef04 d980 1005
00000100: a923 a404 898f 1684 dac2 1b85 74b7 1505
00000110: e41f ad04 cbb9 d383 ff24 1785 3788 f984
00000120: c2f0 8504 023f 7284 f463 0982 d75b 9e04
00000130: 0925 b684 d778 fc84 6976 2f85 e24e 2805
00000140: 68bc 3c3e 08a6 293e 66e9 193e 3d3b 503e
00000150: ef02 bd3d 7fb6 313d 7176 a73e 4ac9 dc3d
00000160: 07cf d73e ac65 473e bbb8 113f 1e80 e83e
00000170: 6871 c03e 78fe e93e e4d4 273e a967 c83d
00000180: 591a 4b3e dca4 0a3e b2e4 ba3e efc1 053e
00000190: e694 133e cfb5 043e 29bc f03d d1c3 223e
000001a0: 5ece 933d 36dc 0a3d 3a33 833e 9aa0 ac3d
000001b0: 1012 a93e 6eee 1b3e 094c e43e 6828 b63e
000001c0: 5dc1 963e ac58 b73e fc37 033e 8eae 9c3d
000001d0: 37e0 1e3e 0ad7 d83d c972 923e 993d d13d
000001e0: 3f23 4d3e b46d 383e 1647 273e 8f41 623e
000001f0: fd83 cd3d 1b3a 413d 07ee b53e 7d09 f03d
00000200: 5175 ea3e 6da9 583e 8c56 1e3f f39c fc3e
00000210: 4e17 d13e 7745 fe3e 574e 363e ddce d93d
00000220: 18d5 5c3e f4b0 163e 3016 cb3e 6169 113e
00000230: e598 183e b832 093e b8ed f83d 814a 283e
00000240: 33d5 983d c996 0f3d 1c9b 873e f574 b23d
00000250: b2bd ae3e ee32 213e 4bf9 eb3e c348 bc3e
00000260: 22d3 9b3e da81 bd3e daa1 073e 8701 a23d
00000270: 5f40 243e 6835 e03d 985b 973e 4855 d83d
00000280: eb6d f83d ff53 df3d c98f ca3d 65f5 083e
00000290: bebc 783d eb43 e93c d5f6 5c3e 2e32 913d
000002a0: 675f 8e3e 3236 033e 623c c03e ac65 993e
000002b0: 3ee0 7d3e f465 9a3e e0d3 dc3d 8ed7 833d
000002c0: 19b2 053e d674 b63d 04a6 763e ce0b b03d
000002d0: 73b6 103e 121c 023e 8efb eb3d 3c94 1f3e
000002e0: 61dd 903d ea06 083d 07a1 803e 8941 a93d
000002f0: 78bf a53e a6e0 183e d0ce df3e 0897 b23e
00000300: a7ca 933e 66bf b33e 889a 003e 6f98 993d
00000310: a6bc 1b3e 5697 d43d 2792 8f3e 4e1d cd3d
00000320: 4e1d ab84 92d2 9a83 beb6 1084 f859 a904
00000330: cfc0 1d04 0000 0080 96cd bb04 0479 ab04
00000340: 054d c784 2341 4184 9622 2f85 9282 8d84
00000350: 2224 a084 0e27 c884 0efe d484 0ce4 1e85
00000360: 034e a404 2ddb 1f85 c8ed a404 3407 cf84
00000370: c919 7904 1e1a 1785 ae88 9104 567c 5804
00000380: 2ef8 e204 7b74 0a85 a1a0 3484 7081 8384
00000390: 2ea0 6c04 6ae4 0985 7a08 e484 800a 6584
000003a0: 0e14 2c04 431a d404 73f9 1605 d111 c784
000003b0: 298e 8184 e5cd a484 6609 b684 9a71 5684
000003c0: 50c1 8d3c c941 7e3c 55ba 673c ae30 9c3c
000003d0: 615b 0d3c 031e 833b 51ce fd3c 4947 253c
000003e0: cf54 233d b296 953c 5113 5d3d e3f7 2f3d
000003f0: a2bd 113d 9c2d 313d 83fc 7b3c 640d 163c

seq.2.bias f4 [20]
0.3169177 -0.07259349 0.32625854 -0.07602648 0.2964778 0.34688294 0.28006598 0.32183617
0.44714484 0.35328647 -0.11641477 -0.06916937 0.018416218 0.33768788 0.48287514 0.38371912
0.39054957 -0.12835845 -0.09169906 0.38914344
00000000: 0943 a23e e5ab 94bd 5c0b a73e c5b3 9bbd
00000010: f0cb 973e a49a b13e cf64 8f3e b6c7 a43e
00000020: 2bf0 e43e f7e1 b43e de6a eebd aca8 8dbd
00000030: 9cdd 963c 6de5 ac3e 693b f73e d576 c43e
00000040: 1df6 c73e 6670 03be b7cc bbbd cf3d c73e

seq.4.weight f4 [1, 20]
0.4456654 -9.191862e-37 0.40216583 2.9200708e-37 0.5113497 0.4005018 0.5556556 0.413973
0.33719796 0.39262548 4.263289e-37 2.8425357e-37 0.04842878 0.37749186 0.3129785 0.37954295
0.35448188 3.9403015e-37 2.2886932e-37 0.35286692
00000000: 412e e43e 3564 9c83 aee8 cd3e cfba c602
00000010: d0e7 023f 920e cd3e 723f 0e3f 45f4 d33e
00000020: 36a5 ac3e 3506 c93e 7c12 1103 f573 c102
00000030: 425d 463d 9d46 c13e b83e a03e 7453 c23e
00000040: a67e b53e de14 0603 a9c2 9b02 f9aa b43e
