examples/doubleintegrator/models/close_linear/model.pt (torch, 1683 bytes, 3 tensors)

seq.0.weight f4 [4, 2]
0	0x3f800000	1.0
1	0x00000000	0.0
2	0xbf800000	-1.0
3	0x00000000	0.0
4	0x00000000	0.0
5	0x3f800000	1.0
6	0x00000000	0.0
7	0xbf800000	-1.0

seq.0.bias f4 [4]
0	0xbdcccccd	-0.1
1	0xbdcccccd	-0.1
2	0xbdcccccd	-0.1
3	0xbdcccccd	-0.1

seq.2.weight f4 [1, 4]
0	0xbfcccccd	-1.6
1	0x3fcccccd	1.6
2	0xc0a33333	-5.1
3	0x40a33333	5.1
