benchmarks/models/nn_1_sigmoid/model.pt (torch, 4603 bytes, 6 tensors)

seq.0.weight f4 [20, 2]
0	0xbd038f61	-0.03211916
1	0x3e3f525b	0.1868376
2	0x3c47a15a	0.012184465
3	0xbd8fd051	-0.07022155
4	0x3d08c3e8	0.033389956
5	0xbe46ec7c	-0.19426149
6	0xbd160dd5	-0.036634285
7	0x3e5a39d8	0.21311128
8	0xbd03864f	-0.03211051
9	0x3e3f4526	0.18678722
10	0x3cde4391	0.027131828
11	0xbe2185b8	-0.15773666
12	0x3cf6e892	0.030140195
13	0xbe3386a7	-0.17531835
14	0x3d01b318	0.031664938
15	0xbe3ca1fc	-0.18421167
16	0x3d03acee	0.03214734
17	0xbe3f830e	-0.18702337
18	0x3ce47de0	0.027892053
19	0xbe26138f	-0.16218399
20	0xbd0a682f	-0.033790763
21	0x3e494b2c	0.19657582
22	0xbd0c6ce9	-0.034283552
23	0x3e4c3b72	0.19944552
24	0x3ced614f	0.028977064
25	0xbe2c9210	-0.16852593
26	0xbd0df08c	-0.03465323
27	0x3e4e6f2f	0.201596
28	0x3cd9c5e1	0.026583614
29	0xbe1e3cd9	-0.15452899
30	0x3cfa5490	0.0305579
31	0xbe36058b	-0.17775552
32	0xbd0dbc41	-0.03460336
33	0x3e4e22f0	0.20130515
34	0xbc99cbc9	-0.01877393
35	0x3dde7e87	0.10863977
36	0x3ce55b57	0.027997656
37	0xbe26b5c8	-0.16280282
38	0xbd078e1e	-0.033094518
39	0x3e45246e	0.19252178

seq.0.bias f4 [20]
0	0xbd8a4e4d	-0.06753216
1	0x3cc388bb	0.02386891
2	0x3d8fec52	0.070274964
3	0xbd9e30ee	-0.07724176
4	0xbd8a44c6	-0.06751399
5	0x3d688dbc	0.056775793
6	0x3d819388	0.063269675
7	0x3d884f12	0.066557065
8	0x3d8a703d	0.06759689
9	0x3d6f47e5	0.058418173
10	0xbd91aac1	-0.07112647
11	0xbd93d68e	-0.072186574
12	0x3d78dfed	0.060760427
13	0xbd95774c	-0.07298145
14	0x3d63b42b	0.055591743
15	0x3d836bc3	0.06417038
16	0xbd953f15	-0.072874226
17	0xbd1eea12	-0.038797446
18	0x3d7037da	0.058647014
19	0xbd8e99f4	-0.06962958

seq.2.weight f4 [20, 20]
0	0xbed384a6	-0.4131214
1	0x3e1e6cd9	0.1547121
2	0x3edbfd64	0.4296676
3	0xbef17f5b	-0.47167477
4	0xbed375e7	-0.4130089
5	0x3eb270ca	0.34851676
6	0x3ec66a92	0.38753182
7	0x3ed089b8	0.4073007
8	0x3ed3bd89	0.4135554
9	0x3eb77d47	0.35837767
10	0xbede9e23	-0.43480024
11	0xbee1e41e	-0.44119352
12	0x3ebeb19a	0.37244874
13	0xbee4585e	-0.4459867
14	0x3eaeccfe	0.34140772
15	0x3ec93053	0.3929468
16	0xbee40364	-0.44533837
17	0xbe759dd2	-0.23985985
18	0x3eb83138	0.3597505
19	0xbed9feb5	-0.4257714
20	0xbed21ea6	-0.41039008
21	0x3e1d5b69	0.15366901
22	0x3eda842d	0.42678967
23	0xbeefe5c2	-0.4685498
24	0xbed2101f	-0.41027924
25	0x3eb13ee8	0.34618306
26	0x3ec51683	0.38493738
27	0x3ecf2434	0.40457308
28	0x3ed25285	0.41078582
29	0x3eb642c3	0.3559781
30	0xbedd250f	-0.43192336
31	0xbee06571	-0.43827394
32	0x3ebd6ac0	0.36995506
33	0xbee2d579	-0.44303492
34	0x3eada168	0.33912206
35	0x3ec7d77c	0.3903159
36	0xbee28110	-0.44239092
37	0xbe74016b	-0.23828666
38	0x3eb6f581	0.3573418
39	0xbed88da7	-0.42295572
40	0xbed796ee	-0.42107338
41	0x3e2184bc	0.1577329
42	0x3ee04496	0.43802327
43	0xbef627e1	-0.480773
44	0xbed787d8	-0.42095828
45	0x3eb5e889	0.35528973
46	0x3eca45f0	0.39506483
47	0x3ed4979f	0.41521928
48	0x3ed7db66	0.42159575
49	0x3ebb0e34	0.36534274
50	0xbee2e7ec	-0.44317567
51	0xbee63e64	-0.44969475
52	0x3ec26673	0.37968788
53	0xbee8beec	-0.45458162
54	0x3eb232b0	0.34804296
55	0x3ecd1995	0.4005858
56	0xbee8683e	-0.4539203
57	0xbe7a4fcb	-0.24444501
58	0x3ebbc592	0.36674172
59	0xbede316e	-0.43397087
60	0xbed4bea4	-0.41551697
61	0x3e1f5e6b	0.15563361
62	0x3edd499b	0.4322022
63	0xbef2e6e4	-0.4744178
64	0xbed4afe2	-0.41540438
65	0x3eb37e45	0.35057274
66	0x3ec79633	0.3898178
67	0x3ed1c499	0.40970305
68	0x3ed4fd3e	0.41599458
69	0x3eb8925a	0.36049157
70	0xbedfe8fc	-0.4373244
71	0xbee333f8	-0.44375587
72	0x3ebfd196	0.3746459
73	0xbee5abec	-0.44857728
74	0x3eafd509	0.3434222
75	0x3eca6023	0.39526471
76	0xbee5566c	-0.44792497
77	0xbe770727	-0.24123822
78	0x3eb9475b	0.36187252
79	0xbedb4297	-0.42824242
80	0x3ec0c2db	0.37648663
81	0xbe104bee	-0.14091465
82	0xbec860e8	-0.39136434
83	0x3edc0c54	0.42978156
84	0x3ec0b589	0.376385
85	0xbea28c7c	-0.31747806
86	0xbeb4bd10	-0.35300493
87	0xbebdf42a	-0.37100345
88	0xbec0de74	-0.37669718
89	0xbea72586	-0.32645816
90	0x3ecadd70	0.39622068
91	0x3ecdd837	0.4020402
92	0xbeadb4fd	-0.33927146
93	0x3ed0140a	0.4064029
94	0xbe9f3c00	-0.31100464
95	0xbeb7434a	-0.35793525
96	0x3ecfc6b5	0.4058129
97	0x3e5fefac	0.21868771
98	0xbea7c968	-0.32770848
99	0x3ec6a84e	0.3880028
100	0xbed78f16	-0.42101353
101	0x3e217988	0.15769017
102	0x3ee03872	0.43793064
103	0xbef61eb0	-0.48070288
104	0xbed7802d	-0.42089978
105	0x3eb5de56	0.3552119
106	0x3eca3ad3	0.39498004
107	0x3ed48bfb	0.41513047
108	0x3ed7cfa5	0.42150608
109	0x3ebb03c5	0.36526313
110	0xbee2dfa0	-0.44311237
111	0xbee635e3	-0.44962987
112	0x3ec25ba9	0.37960556
113	0xbee8b64f	-0.4545159
114	0x3eb228a2	0.34796625
115	0x3ecd0e4b	0.40049967
116	0xbee85fb0	-0.45385504
117	0xbe7a4865	-0.24441679
118	0x3ebbbb28	0.36666226
119	0xbede2955	-0.4339091
120	0xbed33b11	-0.41256002
121	0x3e1e3295	0.15448983
122	0x3edbae4f	0.42906424
123	0xbef12b14	-0.47103179
124	0xbed32c6e	-0.41244835
125	0x3eb23082	0.34802634
126	0x3ec62335	0.38698736
127	0x3ed03eb6	0.40672845
128	0x3ed37165	0.4129745
129	0x3eb73b38	0.35787368
130	0xbede5090	-0.4342084
131	0xbee19571	-0.44059327
132	0x3ebe6d01	0.37192538
133	0xbee408c7	-0.44537947
134	0x3eae8e13	0.3409277
135	0x3ec8e806	0.3923952
136	0xbee3b3f6	-0.44473237
137	0xbe7549b9	-0.23953904
138	0x3eb7eedc	0.35924423
139	0xbed9b2e4	-0.42519295
140	0x3ec546a3	0.38530454
141	0xbe13b1b3	-0.14423256
142	0xbecd1883	-0.40057763
143	0x3ee135d7	0.4398639
144	0x3ec538f3	0.3852001
145	0xbea65f19	-0.3249443
146	0xbeb8fda0	-0.36131
147	0xbec26c85	-0.3797342
148	0xbec56882	-0.38556296
149	0xbeab13e7	-0.33413622
150	0x3ecf9e83	0.40550622
151	0x3ed2ab62	0.4114638
152	0xbeb1cb04	-0.347252
153	0x3ed4f4c3	0.41592988
154	0xbea2fa8f	-0.31831786
155	0xbebb9327	-0.36635706
156	0x3ed4a5a0	0.41532612
157	0x3e652831	0.22378613
158	0xbeabbb99	-0.33541563
159	0x3ecb4fd0	0.3970933
160	0xbec07a56	-0.37593335
161	0x3e10144f	0.14070247
162	0x3ec81450	0.39077997
163	0xbedbb950	-0.4291482
164	0xbec06d06	-0.37583178
165	0x3ea24e64	0.31700432
166	0x3eb47803	0.35247812
167	0x3ebdab8d	0.37044945
168	0x3ec094c8	0.3761351
169	0x3ea6e5a6	0.32597083
170	0xbeca9109	-0.39563778
171	0xbecd8aab	-0.40144858
172	0x3ead72a1	0.33876517
173	0xbecfc5a2	-0.4058047
174	0x3e9eff24	0.31054032
175	0x3eb6fd4d	0.35740128
176	0xbecf7867	-0.40521547
177	0xbe5f9c4a	-0.21836963
178	0x3ea78945	0.32721916
179	0xbec65d7d	-0.387432
180	0x3ed0fc95	0.40817705
181	0xbe1c8aa5	-0.15287264
182	0xbed95c30	-0.42453146
183	0x3eee9a90	0.46602297
184	0x3ed0ee1b	0.4080666
185	0xbeb04fa9	-0.34435776
186	0xbec40bff	-0.38290402
187	0xbece0be0	-0.40243435
188	0xbed135d1	-0.4086137
189	0xbeb54ca3	-0.35410032
190	0x3edbf3bf	0.429594
191	0x3edf2fb2	0.43591076
192	0xbebc6ad1	-0.36800244
193	0x3ee19c44	0.44064534
194	0xbeacb726	-0.3373348
195	0xbec6c936	-0.38825387
196	0x3ee14850	0.44000483
197	0x3e72af01	0.23699571
198	0xbeb5fe6f	-0.3554568
199	0x3ed762a6	0.4206745
200	0x3ed10c01	0.4082947
201	0xbe1c974d	-0.15292092
202	0xbed96d15	-0.42466035
203	0x3eeeac49	0.46615818
204	0x3ed0fd7a	0.40818387
205	0xbeb05d6c	-0.34446275
206	0xbec41b3c	-0.38302028
207	0xbece1be9	-0.4025567
208	0xbed14615	-0.4087378
209	0xbeb55ace	-0.3542084
210	0x3edc040e	0.42971843
211	0x3edf4037	0.4360368
212	0xbebc797f	-0.36811444
213	0x3ee1ad05	0.44077316
214	0xbeacc4a2	-0.3374377
215	0xbec6d8b3	-0.38837203
216	0x3ee158ff	0.4401321
217	0x3e72c086	0.23706254
218	0xbeb60ca0	-0.35556507
219	0x3ed7729d	0.4207963
220	0x3ed234d8	0.41055942
221	0xbe1d79e8	-0.15378535
222	0xbedaa5c9	-0.4270461
223	0x3eeffffb	0.46874985
224	0x3ed2262e	0.41044754
225	0xbeb15afc	-0.34639728
226	0xbec53531	-0.38517144
227	0xbecf4448	-0.40481782
228	0xbed27305	-0.41103378
229	0xbeb65f86	-0.35619754
230	0x3edd3cab	0.43210348
231	0x3ee07d8d	0.43845788
232	0xbebd8879	-0.37018183
233	0x3ee2ede0	0.4432211
234	0xbeadbd05	-0.33933273
235	0xbec7f697	-0.3905532
236	0x3ee2996f	0.44257686
237	0x3e741689	0.23836721
238	0xbeb71250	-0.3575616
239	0x3ed8a4b8	0.4231317
240	0x3ed112c5	0.40834633
241	0xbe1c979d	-0.15292211
242	0xbed9709f	-0.42468736
243	0x3eeeb3c9	0.4662154
244	0x3ed10448	0.4082358
245	0xbeb06003	-0.3444825
246	0xbec41e4b	-0.38304362
247	0xbece1f2b	-0.40258154
248	0xbed1496d	-0.40876332
249	0xbeb55d7c	-0.35422885
250	0x3edc0b13	0.429772
251	0x3edf4750	0.43609095
252	0xbebc7c5c	-0.3681363
253	0x3ee1b432	0.4408279
254	0xbeacc712	-0.3374563
255	0xbec6dbd0	-0.3883958

seq.2.bias f4 [20]
0	0xbdf2cede	-0.11855863
1	0xbdf0d069	-0.11758501
2	0xbdf85478	-0.12125486
3	0xbdf4aa5e	-0.119465575
4	0x3ddb5dd6	0.10711257
5	0xbdf7f187	-0.121066146
6	0xbdf242d6	-0.11829154
7	0x3de0f2e2	0.10983826
8	0xbddafc89	-0.106926985
9	0x3df002b1	0.11719263
10	0x3df026cd	0.11726151
11	0x3df1cc06	0.118064925
12	0x3defdffe	0.11712645
13	0xbdf8a9f0	-0.12141788
14	0xbddffa31	-0.10936392
15	0x3deaf825	0.11473111
16	0x3de288ea	0.110612705
17	0x3deb958e	0.11503135
18	0xbdfad371	-0.122473605
19	0x3df28737	0.118421964

seq.4.weight f4 [1, 20]
0	0x3fb1c5b6	1.3888462
1	0x3fb092f2	1.3794844
2	0x3fb541d3	1.4160713
3	0x3fb2d356	1.3970745
4	0xbfa1c1da	-1.2637284
5	0x3fb53993	1.4158195
6	0x3fb1860d	1.3869034
7	0xbfa59a48	-1.2937708
8	0x3fa18875	1.2619768
9	0xbfaf9918	-1.3718596
10	0xbfafa68c	-1.3722701
11	0xbfb0a4c3	-1.3800281
12	0xbfafaac1	-1.3723985
13	0x3fb567b5	1.4172274
14	0x3fa535fd	1.2907101
15	0xbfac581f	-1.3464392
16	0xbfa6b36d	-1.3023506
17	0xbfacc11d	-1.3496433
18	0x3fb74254	1.4317117
19	0xbfb13b16	-1.3846157

seq.6.weight f8 [1, 1]
0	0x4020000000000000	8.0
