examples/xydoubleintegrator/models/100r100r2_LQR/model.pt (torch, 45255 bytes, 6 tensors)

seq.0.weight f4 [100, 4]
000000 25 40 6b 3e 26 85 df 3e 44 31 ab bd 3d fe 45 3c
       0.22973688 0.43656272 -0.08359006 0.012084541
000010 eb e5 f6 3e 66 f1 e6 3e cd 81 dd bd bd 63 de 3e
       0.48222288 0.45106047 -0.10815773 0.4343547
000020 22 6d c3 3e e2 29 ce be 76 36 a1 be 96 d1 53 bd
       0.381692 -0.4026633 -0.31486863 -0.05171355
000030 aa e5 f5 be 6e 8a 1b be 71 9b d9 be c3 70 23 bd
       -0.48026782 -0.15189525 -0.42501405 -0.03990246
000040 7b de be bc 13 17 92 bb 64 67 a6 3e 84 f0 73 be
       -0.023299446 -0.004458317 0.32500756 -0.23822218
000050 6e 05 91 3d 6a e0 a1 3c db 43 7c 3e 44 01 5c 3e
       0.07081114 0.01976033 0.2463526 0.21484858
000060 26 fc d4 be 2e 70 91 be 33 20 ec be 3e 77 4d be
       -0.41598624 -0.284059 -0.46118316 -0.20065019
000070 f4 da 06 3f 52 5e f8 3e 14 96 ff 3e 53 6b 34 be
       0.52677846 0.4850946 0.49919188 -0.17619066
000080 b1 1f a6 3e eb ab 81 be 0c 56 80 be e0 64 f3 bb
       0.32446054 -0.25326476 -0.2506565 -0.0074277967
000090 75 54 01 be f6 73 8e 3d 69 21 89 3e 88 2f f3 be
       -0.12629874 0.069557115 0.26783302 -0.474972
0000a0 68 e2 ae 3e 21 6a 19 be 88 5f d6 3d c8 7c 0d be
       0.3415711 -0.14981891 0.1046744 -0.13817132
0000b0 74 37 9d be 3b 17 d1 3e f5 49 4c bd 68 78 0c be
       -0.3070637 0.40838036 -0.04987522 -0.13717806
0000c0 51 fa 70 be 11 58 82 3d 85 9e b8 be f3 4e 87 bd
       -0.23532988 0.063644536 -0.3605844 -0.06606855
0000d0 dc ff 3b 3e 01 a5 65 3d 11 c7 e3 be 99 97 a1 be
       0.18359321 0.056065563 -0.44487813 -0.31560972
0000e0 ba 1f ad 3d 6c 3f 20 3e 0f ae 17 be 0a 97 82 3e
       0.08453317 0.15649194 -0.14812492 0.2550586
0000f0 18 fc a3 be d8 a5 8b be 6d bc 50 be 13 60 14 bf
       -0.3202827 -0.27274966 -0.20384379 -0.579591
000100 c8 e0 c0 3e 1e d7 f3 3e e0 93 ce 3e 20 3f 00 bf
       0.37671494 0.4762506 0.40347195 -0.5009632
000110 f9 17 50 be cc c3 1b be fa 85 01 3e 05 27 d0 bd
       -0.20321645 -0.1521141 0.12648764 -0.101636924
000120 6a af 94 3e bb cf 83 be 77 9f 31 3d 78 b0 43 3e
       0.2904008 -0.25744423 0.04336497 0.19110286
000130 f4 52 94 be f4 68 cc be 3d 92 98 be e2 b5 76 be
       -0.28969538 -0.39923823 -0.2979907 -0.2409282
000140 65 98 07 be 6a 58 e6 be ef 0b fb bd ee 9e 9b bd
       -0.13241728 -0.4498933 -0.122581355 -0.07598673
000150 ac 83 0f be dc e3 cd bc dc ef fb 3d 4d e7 36 3e
       -0.14015073 -0.025133066 0.12301609 0.17861672
000160 3f 25 a1 bd 61 d2 ce 3e b2 12 de 3e 0d f9 08 3e
       -0.07868432 0.4039488 0.43373638 0.13376255
000170 8f 76 02 bf 1f f7 86 3e 8a 35 48 3e d4 4d c2 3e
       -0.50962156 0.26360413 0.19551674 0.37950003
000180 24 98 e5 bd 32 4b 3c 3e a3 57 b8 be 3f e6 de be
       -0.11210659 0.1838806 -0.36004362 -0.4353504
000190 e1 da 16 be 92 a5 38 bd c7 30 ef be 0e 3c b7 be
       -0.14731933 -0.045079775 -0.46716902 -0.35788006
0001a0 8a 84 69 3c 40 c7 01 3f e5 8e 86 3e 6f a0 57 be
       0.014252791 0.50694656 0.26280895 -0.21057294
0001b0 e4 21 6c 3e 3c 2d b8 3e b9 d3 f9 be 1d f6 d7 bb
       0.23059803 0.3597201 -0.48794344 -0.0065906183
0001c0 27 55 8f 3d a8 1b dd be 25 40 da 3a 74 69 f9 3e
       0.069986634 -0.43185163 0.0016651197 0.48713267
0001d0 1c da e6 bd 9d 21 67 3e b4 0f d7 bd 22 04 fa be
       -0.1127207 0.22571416 -0.10501042 -0.48831278
0001e0 57 bc b6 bd 1b 5d 88 3d 6d d5 73 be ce 76 08 3e
       -0.08922642 0.066583835 -0.23811884 0.1332657
0001f0 0b 6b 51 3c 48 e9 a5 be 0d c0 ca be ae 4b c8 3e
       0.012781869 -0.32404542 -0.39599648 0.3912024
000200 41 0c 7c 3e 90 d7 e4 be 6e a1 8a 3d d6 ea a0 be
       0.2461405 -0.4469571 0.067690715 -0.31429166
000210 4b 58 fc be b4 99 a8 be 1e d6 bd be 32 49 02 3f
       -0.49286112 -0.32929766 -0.3707742 0.5089294
000220 ca 15 23 bd 84 51 fd 3e 04 97 93 3e 12 8e 07 3e
       -0.0398157 0.49476254 0.28826153 0.1323779
000230 4e 07 cb 3e 63 50 ec 3e a7 56 f6 be 93 73 8e be
       0.3965401 0.4615508 -0.48112985 -0.2782255
000240 b1 e3 ce be d1 a1 eb be 5e 81 ef 3e 49 2b 38 bc
       -0.4040809 -0.46021894 0.46778387 -0.011240789
000250 32 fe c2 be e3 40 9a 3e 39 bf d8 3e 47 ac 0b 3f
       -0.3808456 0.3012763 0.4233339 0.5455975
000260 c3 04 aa 3c 9a 84 65 3d 7f 52 25 bd c2 ea ed 3d
       0.020754224 0.05603466 -0.040361878 0.11617042
000270 c9 e1 0f bc 5d 57 14 be 55 0b bf 3e fd 61 47 3e
       -0.008781859 -0.14486451 0.37313333 0.19470973
000280 ca 52 62 3e 32 05 82 be 0c a6 ab be bc 72 a7 bd
       0.22101894 -0.2539459 -0.3352512 -0.08176181
000290 72 e4 d6 be b5 aa 5c 3e 5b 5b ec 3e 17 c4 32 3d
       -0.41971165 0.21549495 0.4616345 0.043644037
0002a0 20 4c f9 bd d8 90 bd 3e 14 c1 24 3e 32 01 f0 be
       -0.12172723 0.3702457 0.16089278 -0.46875912
0002b0 bf 03 d8 be 38 f3 a2 3d 9c 6f 89 3d da 72 5b 3d
       -0.42190358 0.079565465 0.06710741 0.053576328
0002c0 d1 39 aa 3e de 11 c8 be 90 b5 e5 3e 43 13 8c 3e
       0.33247235 -0.39076132 0.44865084 0.27358446
0002d0 95 81 9d 3e dd 42 fc 3e 5b ac 92 3e 46 02 03 3f
       0.30762926 0.49269763 0.28647122 0.51175344
0002e0 a1 a4 e6 3e 79 70 c2 be 99 bb 34 3e 5e 9b db 3e
       0.45047477 -0.37976435 0.17649688 0.42891973
0002f0 91 f2 2e be 70 6e a6 be 3d 78 50 be eb b0 d2 be
       -0.17084719 -0.32506132 -0.20358367 -0.41150603
000300 39 3e 15 be b8 42 99 3e c2 91 a2 3e 9b e1 f4 be
       -0.14574517 0.29933715 0.3175183 -0.47828373
000310 8b 27 5d 3e 2b 02 84 be 5d 1c be 3e 6a 17 46 bd
       0.21597116 -0.25782904 0.37131014 -0.048362173
000320 bc 9f 30 3e 02 f7 a6 3e e4 92 24 3d d3 96 1e be
       0.17248434 0.32610327 0.04017915 -0.15487222
000330 ee e5 c1 3e 6e 86 a5 3e 43 bb dc 3d 17 47 df bd
       0.37870735 0.32329124 0.10777905 -0.10902231
000340 7c 3d 84 3e 0c 8f 2e 3e d4 f2 ee 3e f1 79 dd be
       0.2582816 0.17046756 0.46669638 -0.43257096
000350 cb 3d 3d be c0 9c a0 3e c4 44 fd 3e 34 ad db be
       -0.18480603 0.3136959 0.49466527 -0.4290558
000360 d7 64 d6 3e 03 11 e0 bc a4 88 a9 3d ba a9 70 3e
       0.4187381 -0.027351862 0.08278015 0.23502246
000370 eb da 80 3c 92 93 69 be 3f 04 d8 be d0 e0 a5 be
       0.015729388 -0.228102 -0.4219074 -0.3239808
000380 d7 92 d1 3e fc 40 5a 3e d2 66 b1 be 80 d8 65 be
       0.40932342 0.21313852 -0.34648758 -0.2244587
000390 86 d8 db 3e e7 c9 de be 17 2d 05 bf 77 05 38 3e
       0.42938632 -0.43513414 -0.52021927 0.17970835
0003a0 2f 55 7b be e4 4c 86 3e 34 bd 9e be 5c 6b 80 3e
       -0.24544214 0.26230538 -0.31003726 0.2508191
0003b0 c5 3a d3 be 52 97 82 be 3e c5 82 3e a9 3d ed be
       -0.41255775 -0.25506073 0.2554111 -0.46336105
0003c0 73 23 c5 bd 26 7d ac be 60 27 89 3e c8 8b ad 3e
       -0.09625902 -0.3368923 0.26787853 0.33895707
0003d0 91 7d ad 3e 78 2b 85 3d 7c 0c 5e 3d 0a e4 6f 3e
       0.33884862 0.06502432 0.054211125 0.23426834
0003e0 38 d1 a1 be ce 3e b3 bd 7b 1e 48 3e 04 52 df 3e
       -0.31604934 -0.087522134 0.19542877 0.4361726
0003f0 a9 7e 93 bd 72 ce 29 bc 10 5d 83 3e c0 23 c8 be
       -0.07201893 -0.010364162 0.2565694 -0.39089775

seq.0.bias f4 [100]
000000 96 4e 8e 3e b6 a6 ae be 47 7b f1 be 0e af 35 3e
       0.2779433 -0.34111565 -0.47164366 0.1774256
000010 d5 ff 8a be ac 72 f5 be f0 7d aa bd ad b6 6b 3e
       -0.2714831 -0.4793905 -0.08324802 0.23018904
000020 2c 0e 96 be df c7 04 3e d1 cb e5 be 72 ee fc be
       -0.29307687 0.1296687 -0.44882062 -0.4940067
000030 09 27 88 3d 0c b6 cd 3e 09 ae 98 be 19 12 ed be
       0.0664807 0.40177953 -0.29820278 -0.4630287
000040 29 60 6f be 14 08 96 bd 63 9a a0 3e f4 f9 a1 be
       -0.23376526 -0.073257595 0.31367788 -0.31636012
000050 c8 37 f1 3d 5c d8 b5 be 01 6b e8 be b9 38 10 be
       0.117782176 -0.35516632 -0.45394138 -0.14084138
000060 cf d4 bd be 03 80 f5 be fb 7b c1 be 32 84 8b be
       -0.37076423 -0.47949228 -0.37789902 -0.27249295
000070 2d 50 8a 3d e8 8d 70 3e ff d0 ca bd 01 35 be be
       0.067535736 0.23491633 -0.09903144 -0.37149814
000080 ab a9 81 3e fd a7 b7 3e d6 dd 4f be 15 0f eb be
       0.2532476 0.35870352 -0.20299467 -0.45909944
000090 1a 9d 4e 3e e2 a6 ca 3e c0 33 ce 3d d0 69 a3 bd
       0.20177117 0.39580446 0.10068464 -0.079791665
0000a0 d3 d2 b4 3e bf c8 ef 3e 8b 67 23 be e6 49 48 3e
       0.35317096 0.46832845 -0.15957467 0.1955944
0000b0 23 2a 26 be 5e 95 dc 3e bf 9b a6 3e 04 06 a3 be
       -0.16227011 0.43082708 0.325407 -0.31840527
0000c0 7f fe c7 3d 64 19 8c 3e d1 f3 89 be 66 06 e3 3d
       0.09765338 0.27363122 -0.2694383 0.11085205
0000d0 8f bf b5 be 6e e4 d2 be 29 6f dc be 22 74 b0 3e
       -0.3549771 -0.41189903 -0.43053558 0.34463602
0000e0 e5 cb 72 be df 3a fa 3e ab 6a c1 3e 52 28 f2 3e
       -0.23710592 0.4887304 0.37776694 0.47296387
0000f0 40 c4 7e 3e f9 b2 5e be e1 5d eb 3e f5 33 86 be
       0.24879551 -0.2174796 0.4597006 -0.26211515
000100 3e 97 44 3e e8 38 c9 be 4b 26 10 3d b5 08 d8 3e
       0.1919832 -0.3930123 0.03519277 0.42194143
000110 07 e6 f7 be 81 d6 a2 3e c0 ff d9 3e 60 89 c9 3e
       -0.48417684 0.31804278 0.42577934 0.3936262
000120 61 7a f1 bc 05 8d cd be a0 8a a3 3e 56 24 24 be
       -0.0294773 -0.40146652 0.319417 -0.16029486
000130 9d 33 e1 bd 0c 25 ea bd d9 38 b5 3e 80 8b e6 3e
       -0.109961726 -0.114328474 0.35394934 0.45028305
000140 72 70 8a be 7f be a2 3e fd 49 85 3e ff 48 d6 3e
       -0.27038914 0.31785962 0.2603301 0.41852567
000150 21 64 8e be ed 59 02 bd dd 89 4a bc 3a 44 00 3f
       -0.27810767 -0.03182404 -0.012361971 0.50104105
000160 fb cf 86 3e 33 da b3 be f3 12 c7 3e c1 02 4f 3e
       0.26330552 -0.3512741 0.38881645 0.20215894
000170 3e e4 b0 be d5 0f c3 3e 6c 09 a0 be dd a3 c3 be
       -0.34549135 0.38098016 -0.31257188 -0.38210955
000180 a9 b0 92 3e 52 1e 79 3a ec d2 f5 3e 07 1e 8b be
       0.28650406 0.0009503114 0.48012483 -0.27171347

seq.2.weight f4 [100, 100]
000000 b8 04 38 bd 66 3d 2f bd 22 a1 bd bd fd b2 42 bd
       -0.044926375 -0.042783163 -0.09259249 -0.047533978
000010 3f c9 ac 3d 22 f6 ac bd d2 e4 7f bd 15 59 02 3d
       0.08436822 -0.084453836 -0.06247408 0.031823236
000020 5a d1 93 bd 52 03 ae bd 08 03 7c bd 12 e6 83 3d
       -0.07217665 -0.08496727 -0.06152633 0.06440367
000030 30 e2 28 bd ce 6b 13 3d af 26 55 3c a7 1a 2c 3d
       -0.041231334 0.035991482 0.013009711 0.042017605
000040 66 83 84 3d 1e 39 11 bb a9 09 e9 3c ba e7 c6 3d
       0.06470375 -0.0022159289 0.02844699 0.09712167
000050 29 72 d9 3c d9 5f 80 3d a5 c1 83 bd 87 43 f8 3a
       0.026543694 0.062682815 -0.06433419 0.0018941023
000060 96 c5 aa bd 5e e1 4a bd 10 45 6b 3c 1f d9 e4 3d
       -0.08338468 -0.049531333 0.0143597275 0.11174225
000070 c3 88 af 3d 1c a4 83 bd 84 3e b5 bd 0c 51 3c 3d
       0.08571007 -0.06427786 -0.088498145 0.04597573
000080 da fc 20 bc d7 75 30 bc 82 97 b9 bc b8 29 d9 3d
       -0.0098259095 -0.010770283 -0.022655252 0.1060366
000090 6d aa 11 bd 3d c0 ae bd 2e dd ec bb 2a 0f 9d bd
       -0.03556292 -0.0853276 -0.007228515 -0.07668908
0000a0 f1 66 6a bc 99 0f 2d bd cb 97 c9 3d 2d c4 3f bd
       -0.01430677 -0.042251203 0.09843405 -0.046817947
0000b0 2f e3 82 bd ed a1 c7 3d fb c5 84 3c 47 84 6c bd
       -0.06390988 0.09747682 0.016207686 -0.057743337
0000c0 60 aa 74 3d 4f ba 2d 3d 85 28 70 bc 2f fe 73 bd
       0.059732795 0.042414006 -0.014658098 -0.05956858
0000d0 58 b5 94 bd ba 00 0b bd 0a 08 7c 3d d2 51 16 3d
       -0.07261151 -0.03393624 0.061531104 0.036699124
0000e0 77 8f b2 3d 00 3a e6 3c 42 6b 5e 3b 71 6a 09 bd
       0.0871877 0.028103828 0.0033938442 -0.033548776
0000f0 77 f5 64 3d c5 80 ba 3d 54 13 bf bd b3 bb 78 3d
       0.055898156 0.09106592 -0.093298584 0.06072588
000100 de ba 9c 3d 1f 95 d5 bc bb dd 1f bd 6c b9 1d 3d
       0.076528296 -0.026072083 -0.039029818 0.03850691
000110 05 10 a6 bd cf b5 02 3d 20 a9 02 3c 09 9e b0 bd
       -0.08108524 0.031911667 0.007974893 -0.08623893
000120 19 5d 9b bd 34 63 19 3d af 55 34 3d 2c 4d 32 3d
       -0.07586116 0.037448123 0.044027027 0.043530628
000130 bc a3 09 3c 62 a8 ce 3a 70 e8 a1 3d 27 59 5d bb
       0.008400854 0.0015766735 0.07905662 -0.0033775063
000140 10 bd 5b 3d 83 4b 92 bd 36 64 03 bd bd 03 29 3d
       0.0536471 -0.07143309 -0.03207799 0.04126333
000150 f1 f3 3f 3d 35 ed db ba 37 89 f6 bc f0 dd e7 3c
       0.0468635 -0.0016779067 -0.030094726 0.02830407
000160 97 5c 8b bd 79 60 ea bb 51 96 d1 bc b8 e1 b7 bd
       -0.068047695 -0.0071526137 -0.025584372 -0.08978599
000170 5a 69 d7 3d 9c 92 7d bc 30 eb b8 bd 02 77 22 3d
       0.10518141 -0.015476849 -0.090292335 0.039664276
000180 e4 d1 48 bc 38 fa 77 bd c6 bc cb 3d 9b de 87 3d
       -0.012257073 -0.06054136 0.09948115 0.066342555
000190 78 4e 87 3b 15 9b 12 bd 97 f8 b1 bd d9 57 ee 3c
       0.0041292273 -0.03579243 -0.08689993 0.029094623
0001a0 eb 7d 99 bd aa 90 da bc 04 d1 5c bd 20 8d 47 bd
       -0.0749472 -0.02668031 -0.05391027 -0.04871857
0001b0 33 a3 ae ba 6c b1 9b bd 72 81 c6 bd db f6 a5 bd
       -0.0013323784 -0.076022 -0.096926585 -0.081037246
0001c0 64 80 34 3d 6b e8 a8 bd e2 90 5f bd 66 de af bc
       0.044067755 -0.08247455 -0.05458153 -0.021468353
0001d0 b2 0e d6 3b 0a 3b 1f 3d 07 8e 6f bd e1 17 88 bd
       0.0065325135 0.038874663 -0.058485057 -0.066451795
0001e0 c1 ef 2c bb ae 58 15 bd 3c 96 96 3d 33 e3 86 3d
       -0.0026388022 -0.036461525 0.07352874 0.065863036
0001f0 4f 6c 59 bd 09 f4 f1 bc 39 52 ae 3d f0 80 a1 bc
       -0.053081807 -0.02953531 0.085117765 -0.019714803
000200 64 b6 db 3c 1c 1a 97 bd 8c c8 06 3d e5 74 b2 bd
       0.026820369 -0.07378027 0.0329061 -0.08713702
000210 a2 2c 32 bc 12 84 e4 bc 2d 94 7f bd df f7 35 bc
       -0.010874899 -0.027895007 -0.06239717 -0.01110646
000220 fe 92 8f 3d ef 66 9a 3d 3f 0c 30 bd 06 0c 86 3b
       0.070104584 0.07539164 -0.04298043 0.004090789
000230 cb 3f 28 bd 40 f6 a9 bd 38 f1 1f 3d e4 c7 61 3d
       -0.041076463 -0.082989216 0.039048404 0.05512227
000240 85 97 1e 3d 95 08 c2 bd 70 3a 69 3c c7 f7 64 bb
       0.03871872 -0.09474293 0.014235124 -0.0034937726
000250 50 ff 80 3d a9 0a b0 bd 6a 62 84 3d cb b1 db 3c
       0.06298697 -0.08595783 0.064640835 0.026818177
000260 b3 5b 81 3d 89 c4 c5 bd 00 fe 79 3d 2d a7 9a 3d
       0.06316318 -0.09656627 0.06103325 0.075514175
000270 95 74 91 3b e7 06 97 bc 0b 6b 20 3d 36 0c da bb
       0.0044389465 -0.018435908 0.039164584 -0.0066542877
000280 c3 6d 84 bd 76 5e f3 3c cd 3b c5 3d 83 f9 b3 bd
       -0.06466248 0.029708128 0.09630547 -0.08787825
000290 38 e8 aa bd 53 52 90 bd 11 10 87 3b 20 20 0b 3a
       -0.083450735 -0.07046952 0.0041217883 0.0005307216
0002a0 22 19 a4 bd c5 9b 51 bc 2d 58 87 3c b0 86 6e bd
       -0.08012606 -0.012793486 0.016521538 -0.058233917
0002b0 14 aa 27 bd 6c e6 8e bb 0e ef 68 3d b8 42 a2 3d
       -0.040933684 -0.0043609645 0.056868605 0.07922882
0002c0 31 e4 7e bd cb 99 b8 bd 50 fe e9 bc a3 5e a2 3b
       -0.06222934 -0.09013709 -0.028563648 0.004955129
0002d0 5d 8d 2a bd 85 96 a9 bd 0a b0 a5 3d 1d c7 88 bd
       -0.04163872 -0.082806624 0.080902174 -0.06678603
0002e0 b8 ce aa bb 78 74 4c bd 5e f0 a5 bd f3 e7 bc bc
       -0.005212631 -0.04991576 -0.08102487 -0.02305982
0002f0 50 59 18 3d 03 0f 6c bd bb 18 67 bc 5e a7 a3 bc
       0.03719455 -0.057631504 -0.014105017 -0.019977268
000300 ca 71 7b bb ff 15 8a 3d 86 53 64 bd 92 46 2d bd
       -0.0038367384 0.06742477 -0.055743717 -0.04230363
000310 9f 9d 47 3d bf c2 71 3d 22 17 bd bd 76 fa 86 3c
       0.048734304 0.059023615 -0.09232928 0.016476851
000320 68 6a 87 3c ad 18 62 3d e4 9d 7d 3d ef 00 0d bc
       0.01653023 0.055199314 0.061918154 -0.00860618
000330 35 84 db 3c 83 48 dc 3b a7 86 e4 bc 13 e2 0e 3d
       0.02679644 0.0067225113 -0.027896238 0.03488357
000340 52 4f 9a 3c e7 a5 63 bd f1 09 63 3d c8 91 ae bd
       0.018836651 -0.05557814 0.055429403 -0.08523899
000350 d9 6e be 3c 0d 32 aa 3d f5 2a a5 bd 26 fd 63 bd
       0.023246216 0.08310328 -0.08064834 -0.055661343
000360 00 c4 a9 bc 4a 45 e7 3b 3d 19 8b 3c f0 17 89 3c
       -0.020723343 0.0070578204 0.016979808 0.016735047
000370 87 7e 6c 3d af 5e 55 3d e0 3a ab 3d 9b 87 90 3d
       0.057737853 0.05209225 0.08360839 0.07057115
000380 d2 1f 7c bd 2e 1a 6d 3d dc 70 97 bd 6e 26 95 3d
       -0.061553784 0.057886295 -0.07394573 0.072827205
000390 9f f6 f1 3b bc 1c 79 3d 24 35 99 bd b0 2a b1 bd
       0.007384136 0.06081842 -0.07480839 -0.0865072
0003a0 40 9e 99 3d 7f be bd 3d 2b 6c 99 3c 00 10 f1 bc
       0.07500887 0.0926485 0.018728336 -0.029426575
0003b0 9c 30 b5 bc c8 29 b5 3d 5c b1 91 3c 1b e4 b4 3d
       -0.022117905 0.0884586 0.017784767 0.0883257
0003c0 cc 81 bc bd 64 a1 d3 3c f9 36 9d 3d 57 ed 7b bd
       -0.09204444 0.025833793 0.07676501 -0.06150564
0003d0 0a 6d d3 3d 71 26 bd bb bc 97 2b 3d 46 a2 01 bd
       0.10323532 -0.005772405 0.041892752 -0.031648897
0003e0 72 4c 25 bd 7d ba 9f 3d ab 26 0c bd 6f dd a5 bd
       -0.040356107 0.07799242 -0.034216564 -0.08098876
0003f0 b9 59 97 3d d9 7a b9 bd 7d 49 da 3d 6c 30 38 3d
       0.0739016 -0.090566345 0.10658548 0.044968054

seq.2.bias f4 [100]
000000 91 1e ce bc 6a c2 78 bd 72 fc 85 bc 9f 6a 5c bb
       -0.02516106 -0.060732283 -0.016355727 -0.0033632887
000010 df 7f 49 bc 88 c2 c9 bd 30 58 78 3d fd 42 db bd
       -0.012298553 -0.09851557 0.060630977 -0.107061364
000020 a8 63 73 3c 3b 41 4f bd 6a 35 13 bd 47 e7 0d bd
       0.014855303 -0.050599318 -0.03593961 -0.03464439
000030 4c e4 dd 3d 90 97 80 bd 67 a2 a4 3d a9 34 89 bd
       0.1083456 -0.06278908 0.08038788 -0.06699497
000040 ee 24 9a 3c 02 1d 99 bd 65 bf 38 bc 7e 35 94 bd
       0.018816438 -0.07476236 -0.011276101 -0.07236765
000050 ed d3 8c 3d d5 dc 17 3c 5d 01 b6 bd b1 88 75 bd
       0.06876359 0.009268959 -0.08886979 -0.059944812
000060 e7 35 6f bd 59 da d0 bc 10 3a f7 3d 3f 39 27 bd
       -0.058401015 -0.025494741 0.120716214 -0.04082608
000070 e4 53 a5 bd c8 09 08 be f6 36 ae bd e9 6c 3c 3d
       -0.080726415 -0.13284981 -0.08506577 0.046002302
000080 d4 14 c1 bd 36 35 12 bd 7c 6f ad 3d 9a e2 67 3b
       -0.09427801 -0.035695277 0.084685296 0.0035382868
000090 a7 3e a3 3b 2f 1e dd 3d 17 6f 98 bd a2 04 2e 3d
       0.004981834 0.10796773 -0.07443064 0.042484887
0000a0 31 e1 44 3d 9d fc 54 3d 0b 89 60 bd a5 4a 70 bd
       0.04806632 0.051998723 -0.054818194 -0.058664937
0000b0 b9 fe b5 bd cb f3 7e bd c5 d9 de bc 5b fb 45 3d
       -0.08886475 -0.062244218 -0.02720345 0.048335414
0000c0 31 73 05 3d 82 37 9b 3c fe f0 8a 3b ad 1a 39 bd
       0.03258056 0.018947367 0.0042401543 -0.045191456
0000d0 1e b2 3c 3d dc 7c 8c 3c 42 fb af 3c 50 de a1 bc
       0.046068303 0.017149381 0.021482114 -0.019759327
0000e0 02 8d a1 bc 81 72 b9 bc db d3 9e 3d 82 d2 c4 bb
       -0.019720558 -0.022637608 0.07755252 -0.00600654
0000f0 e2 73 9e 3d 3d 27 30 3d 92 58 b6 bd 02 c8 b6 3d
       0.07736947 0.04300617 -0.08903612 0.08924867
000100 2f bb cb 3d 09 63 10 bc 93 21 83 3d 28 af 17 3d
       0.09947812 -0.008812674 0.06402888 0.037032276
000110 e8 af a3 3d 49 90 b2 bc 11 ad 6d 3c 85 74 ce bb
       0.07992536 -0.021797316 0.014506594 -0.0063005113
000120 c2 9a 9b bd 72 5d c7 ba 53 c0 1a 3d 75 b1 01 bd
       -0.07597877 -0.0015210344 0.03778107 -0.031663377
000130 d3 5d 10 bd 1a 39 7f 3d 9c 76 b1 3d de 4e c8 3d
       -0.035245728 0.062310316 0.08665201 0.09780668
000140 ed 45 fa 3c 0c 6f 80 3d 5a 46 7e bd 7c 9a 3e bd
       0.030550921 0.062711805 -0.06207881 -0.046534047
000150 53 f5 c5 bd 22 a3 03 bc ed 48 b6 3b 2a 71 0a bd
       -0.096659325 -0.008034499 0.0055628926 -0.033799328
000160 a3 b5 ac 3d 25 49 db bd d5 72 b8 bd bc 21 a0 bd
       0.08433082 -0.107073106 -0.090062775 -0.07818934
000170 a9 f9 98 3d e8 84 47 bc 38 b4 d7 bd eb 24 90 3c
       0.07469494 -0.012177683 -0.10532421 0.017595729
000180 b5 80 98 bd 2a 33 5c bc 39 04 3c bd 50 0d a2 3d
       -0.07446424 -0.013439933 -0.045902465 0.079126954

seq.4.weight f4 [2, 100]
000000 dd 80 ab bd ba db de 3c e3 e3 02 bb b2 46 82 bd
       -0.08374188 0.027204383 -0.0019972257 -0.0636114
000010 d8 88 34 bd 51 c9 e9 3d 44 03 e4 bc cc 7d 91 bc
       -0.044075817 0.11415351 -0.027833588 -0.01776018
000020 43 72 91 be 58 10 3a be 59 86 53 3d 33 da 06 bd
       -0.28407487 -0.18170297 0.051641796 -0.032922935
000030 e5 28 e9 3e 8a 98 c2 bc 3e da 54 bb c1 f6 7a 3c
       0.45539013 -0.023754377 -0.0032478715 0.01531762
000040 cd e4 35 3d b1 19 22 3e f6 ae 76 be c7 bb 1d 3e
       0.044407655 0.15830113 -0.2409018 0.15403663
000050 b5 ac 00 be 5b cc 20 be 2c 32 0d be 80 a1 b3 bd
       -0.12565883 -0.15702955 -0.1378867 -0.08771038
000060 3a e7 91 3e 15 17 06 bd 90 ce 42 bd c9 96 9e bc
       0.28496724 -0.032736856 -0.047560275 -0.01935901
000070 e9 4c da bd 13 7a 64 3e 75 58 82 3b f8 27 fc bd
       -0.10659201 0.22312193 0.00397783 -0.12312311
000080 4e ff ee 3d 98 94 0b bc 27 8d d0 3d 33 f8 16 bc
       0.11669789 -0.008519314 0.10183173 -0.009214449
000090 90 1b 5d 3e 83 2f 26 be cd f8 c8 bd 50 64 b4 bc
       0.21592546 -0.16229062 -0.0981308 -0.022020489
0000a0 a4 0a 41 be f3 c2 9c be 95 68 93 3d 7a 3e 79 bd
       -0.18851715 -0.30617484 0.07197682 -0.060850598
0000b0 87 ea d3 bd 0c 17 02 3d 88 59 80 3e af 8b ac bd
       -0.10347467 0.03176026 0.25068307 -0.0842508
0000c0 05 41 b0 3d 51 20 a4 3b 19 aa d2 3d 09 56 71 39
       0.086061515 0.005008735 0.1028635 0.00023015602
0000d0 46 97 45 bc 2b da 19 bd 64 89 1a 3d d8 e0 b2 bd
       -0.012059992 -0.037561577 0.037728682 -0.08734292
0000e0 fb e9 bd 3d c6 4f d7 3d 2c 25 95 3d 36 15 ab be
       0.09273144 0.105132625 0.072824806 -0.3341462
0000f0 eb 1c 15 3e 0a db 01 be ff 59 c1 bc 10 30 8f bd
       0.14561813 -0.12681213 -0.023602484 -0.06991589
000100 2f 0b 90 be 80 6d 97 3d 16 80 e3 bd c4 6b 3b 3d
       -0.28133532 0.07393932 -0.11108415 0.04575707
000110 16 0a 26 3e 96 c9 9f bc 47 73 18 3e e7 39 ee 3b
       0.16214785 -0.019505303 0.14887725 0.007270086
000120 67 21 1c 3d 64 17 65 3e f0 c5 92 bd 6c e2 9b 3d
       0.038117792 0.22372204 -0.0716666 0.07611546
000130 51 20 52 bd 67 b1 3e 3e 39 74 b6 3e 66 b6 86 3d
       -0.05130035 0.18622361 0.35635546 0.065777585
000140 dd 4a 9b be 31 35 9c bd 0b fc c9 bd 38 92 9a 3c
       -0.30330554 -0.07627333 -0.098625265 0.01886855
000150 45 65 99 3c c0 eb c9 3e c7 59 30 3e 81 51 24 be
       0.018725047 0.39437675 0.17221747 -0.16046716
000160 f2 b5 b2 bd 1a 3f 82 be f6 38 8a 3b 7d 1d cc 3d
       -0.087261096 -0.25438768 0.004218216 0.09966562
000170 b4 0e bb be 13 96 f4 3d af b6 32 be ed 30 8b 3e
       -0.36534655 0.11942687 -0.17452501 0.27185765
000180 1b a9 87 bc 3d 76 0c bd 54 f4 46 bd cc 2a 98 bd
       -0.016560128 -0.03429245 -0.048572853 -0.07430038
000190 fb a1 3c 3d 62 a5 cd bb e1 58 9f bd 63 55 1e 3e
       0.046052914 -0.0062758187 -0.07780624 0.1546226
0001a0 af fa fb bd 67 3d 66 be 10 f7 8b 3b 43 90 b5 be
       -0.123036735 -0.2248436 0.0042713955 -0.35461625
0001b0 ac 88 c8 bb bb ff c9 bd 89 6c ef 3d d3 a4 2a be
       -0.006119808 -0.0986323 0.11690623 -0.16664438
0001c0 9e 98 be 3d 09 b2 ee 3d 9d 59 e8 bc f2 9d 8a be
       0.09306453 0.11655051 -0.028363043 -0.27073628
0001d0 33 38 85 bc 2c ad f4 3d 0f 64 fb 3d 86 7f a6 3e
       -0.01626215 0.119470924 0.12274944 0.32519168
0001e0 04 bf 87 3d 92 5e c2 3d 1e 20 73 3d f4 19 26 bc
       0.0662823 0.09490694 0.0593568 -0.010138024
0001f0 16 fc 07 3d 82 f5 f7 bc 7e 1e c5 3e 20 4a eb 3d
       0.033199392 -0.030268434 0.38499826 0.114887476
000200 a0 1e cb bd 43 83 a4 be 74 a6 c1 3d ff 3e 92 3a
       -0.09917951 -0.32131395 0.094555765 0.001115769
000210 2f 66 23 bd 34 5b c3 3d 77 a4 18 3e 33 37 d8 ba
       -0.03989237 0.0953888 0.14906488 -0.0016495943
000220 2b 08 3e 3e 3e f2 d4 3d b3 d1 a8 bb 9c c1 ce bd
       0.18557803 0.103977665 -0.005151951 -0.10095522
000230 6b d8 2f 3e 1d 72 c3 3d 4b 44 bc 3d f5 c4 61 bc
       0.171724 0.0954325 0.09192713 -0.013779868
000240 12 9d 4f bd 4b db 78 bd 73 b2 55 be 46 e4 89 3d
       -0.050686903 -0.06075601 -0.20868854 0.06732993
000250 8d fd 7b bd ec 43 39 3e ec a4 67 be 8d ea 8b 3d
       -0.0615211 0.18092316 -0.22621506 0.068318464
000260 54 c3 91 bd ef 19 17 3d ef 2a 18 bd b8 27 80 3d
       -0.07117334 0.036889967 -0.03715032 0.06257576
000270 d4 64 c2 3d 54 34 62 3e 6c a0 3f bd 7c 15 a5 bc
       0.09491888 0.22090274 -0.04678385 -0.020151846
000280 d2 68 d4 bc af 42 59 be b8 68 3a bd 8f b8 42 3d
       -0.025928888 -0.21216844 -0.045510024 0.04753929
000290 52 2e b7 3e bf b7 9f 3d 79 57 24 be 41 fe 8f 3d
       0.35777527 0.07798719 -0.16048993 0.07030917
0002a0 72 9a 9c 3d e5 8f 0e ba cf 1c d0 be af 73 12 be
       0.076466456 -0.0005438312 -0.4064698 -0.14301942
0002b0 56 69 2e bd 3f d9 86 bd ec f7 c0 3e a7 78 8b 3e
       -0.042580925 -0.06584405 0.3768915 0.27240488
0002c0 e8 83 25 3c dc 71 94 3c f5 fe 1b 3e ad 71 8a 3e
       0.01010225 0.018120699 0.15233977 0.27039853
0002d0 3a 77 04 bd 37 ed 4f 3c 94 83 9f 3d 86 f2 af 3d
       -0.032340266 0.012690834 0.077887684 0.085911795
0002e0 ad 6d 59 3d 5f ac f2 3d 09 50 fd bd af 3e ee bd
       0.05308311 0.118492834 -0.12368781 -0.1163305
0002f0 d6 45 09 3e ed b3 b9 be c5 60 81 3d 96 aa 14 3e
       0.13405547 -0.36270085 0.063172854 0.14518198
000300 9c d9 b1 bd fa b5 2d be 2c 3b 03 be 9f 25 89 be
       -0.08684084 -0.1696395 -0.12815541 -0.26786515
000310 bc 5d 23 be 0d 9b 52 3e 61 32 26 3d b8 35 2e 3e
       -0.15953726 0.2056696 0.04057539 0.1701268

seq.4.bias f4 [2]
000000 98 7c 3c 3d 97 f3 af 3d
       0.04601726 0.08591383
