examples/vehicle/models/100r100r2.onnx (onnx, 57644 bytes, 6 tensors)

0.bias f4 [100]
-0.34380388 0.6730794 -0.6528815 0.37302083 0.11058328 -1.0306157 1.0455807 0.94748455
-1.9082216 -0.6192711 -0.7711018 -1.2439164 -1.6129904 -0.27083975 -4.1017623 0.44535774
-0.11845438 0.12894419 -0.26002726 -1.0630407 -0.6573452 -1.552569 0.74786097 -1.3106958
-2.235838 1.4382977 0.78710884 0.9275154 0.78923506 -0.9798166 -2.2013304 0.08898307
-0.73527855 -0.06809405 0.106658965 -0.5266502 -0.90356225 -0.63863206 0.5818866 -0.081661865
0.2842622 0.02141532 -0.9411242 1.3299302 0.57094985 0.04181306 -1.3027768 -1.8950043
1.5729318 0.40040946 -0.06130031 1.4626067 1.6864276 -1.2201514 0.88259184 -1.4669359
0.5890232 -0.41679442 -0.17388733 -1.823037 -0.1364491 0.93911874 -0.14101602 -2.448474
-1.3450824 1.5591238 -0.98868656 -0.43254057 -1.3772737 1.115393 -1.0558834 0.05238006
-0.6475053 -0.8462962 0.88661736 -2.331347 1.2115153 -0.4338584 1.2507629 0.44589883
2.6531305 0.67518747 -0.08831644 0.04305199 -0.7221582 0.48505998 -0.2437587 -0.5479506
0.15402855 -0.69353336 -0.8349565 -0.4036542 -0.81387997 -0.42045984 0.7926792 0.51342916
1.2850522 -0.7578823 0.2789111 0.28714487
00000000: 1007 b0be ee4e 2c3f 3e23 27bf 96fc be3e
00000010: 7d79 e23d 37eb 83bf 97d5 853f 598e 723f
00000020: 9b40 f4bf 8d88 1ebf ed66 45bf a738 9fbf
00000030: 7876 cebf 82ab 8abe a341 83c0 ee05 e43e
00000040: 3698 f2bd f209 043e 4b22 85be b811 88bf
00000050: c647 28bf 95ba c6bf d173 3f3f e1c4 a7bf
00000060: f817 0fc0 241a b83f f77f 493f a671 6d3f
00000070: 4f0b 4a3f 43d5 7abf 99e2 0cc0 c13c b63d
00000080: 373b 3cbf e574 8bbd 0470 da3d 8cd2 06bf
00000090: db4f 67bf 647d 23bf 85f6 143f 563e a7bd
000000a0: d18a 913e 2e6f af3c 84ed 70bf 273b aa3f
000000b0: c529 123f 2c44 2b3d 64c1 a6bf 808f f2bf
000000c0: d455 c93f 7802 cd3e 0916 7bbd b236 bb3f
000000d0: dcdc d73f ec2d 9cbf 8af1 613f 8ec4 bbbf
000000e0: 39ca 163f 1466 d5be 850f 32be 4759 e9bf
000000f0: 50b9 0bbe 166a 703f 8166 10be ccb3 1cc0
00000100: a92b acbf 5e91 c73f 901a 7dbf f575 ddbe
00000110: 814a b0bf 33c5 8e3f 3027 87bf 798c 563d
00000120: e8c2 25bf dea6 58bf 5bf9 623f ca34 15c0
00000130: ef12 9b3f b022 debe 0019 a03f da4c e43e
00000140: e4cc 2940 16d9 2c3f 40df b4bd 4957 303d
00000150: 5cdf 38bf c859 f83e e19b 79be 7e46 0cbf
00000160: a9b9 1d3e 678b 31bf b6bf 55bf c3ab cebe
00000170: 705a 50bf 8346 d7be 06ed 4a3f 1870 033f
00000180: 977c a43f 9304 42bf 70cd 8e3e a704 933e

2.bias f4 [100]
0.020932138 0.05021001 -0.35787222 0.13491881 -0.24437542 0.011970652 -0.3851029 0.065274
0.03396104 0.05703166 0.3780405 -0.10483381 0.15755458 0.298786 0.028110143 0.21699253
-0.057893902 -0.06247894 0.044150148 0.077620305 0.12336755 0.28893632 0.008787739 0.090576634
0.105916 -0.2393278 -0.05569805 -0.1498386 -0.044949144 0.037036937 0.06001942 -0.060064483
-0.17170964 -0.077135324 -0.08779306 -0.0012889651 -0.0013256152 -0.5814828 0.09386353 0.6614308
-0.053411387 0.6989868 -0.023786267 0.3211358 0.080000505 0.029897194 0.18257993 -0.14348982
-0.034545876 0.081787914 0.24582724 -0.0042337263 -0.057160515 0.22290339 0.41361037 0.057571948
0.0060574734 -0.08392046 0.34963492 0.09612886 -0.013629298 0.07957241 -0.19292763 0.00967734
0.005531202 -0.11568978 -0.026024861 -0.15346736 -0.043465022 -0.0844566 -0.1316912 0.052183107
-0.11611178 -0.053002965 0.03419604 -0.046994206 -0.530927 0.0095244795 -0.028986584 0.09392524
-0.13032228 -0.46131814 -0.09117395 -0.04234853 -0.22640982 -0.08761428 0.025896141 0.32408533
0.05359108 -0.15748075 0.01120077 -0.37876958 0.2796002 0.0037899225 -0.1577562 -0.14610356
-0.33105728 0.026403941 0.06286537 -0.020038404
00000000: e079 ab3c 03a9 4d3d 073b b7be 2828 0a3e
00000010: 8d3d 7abe 8e20 443c 352c c5be 60ae 853d
00000020: bb1a 0b3d 089a 693d 868e c13e 1cb3 d6bd
00000030: fd55 213e 7bfa 983e 3e47 e63c 4a33 5e3e
00000040: 2822 6dbd ebe9 7fbd c9d6 343d 65f7 9e3d
00000050: 20a8 fc3d 76ef 933e 73fa 0f3c 3e80 b93d
00000060: 7dea d83d 5912 75be a323 64bd 4a6f 19be
00000070: 981c 38bd 0bb4 173d ecd6 753d 2d06 76bd
00000080: a7d4 2fbe 20f9 9dbd d9cc b3bd 7ef2 a8ba
00000090: 44c0 adba 0fdc 14bf 863b c03d 8753 293f
000000a0: e6c5 5abd cdf0 323f 6bdb c2bc e96b a43e
000000b0: 4ed7 a33d f6ea f43c 3cf6 3a3e ffee 12be
000000c0: fa7f 0dbd 6c80 a73d 23ba 7b3e 12bb 8abb
000000d0: 2521 6abd c940 643e bdc4 d33e 90d0 6b3d
000000e0: c57d c63b 7dde abbd 5903 b33e 35df c43d
000000f0: 6b4d 5fbc dcf6 a23d d28e 45be b58d 1e3c
00000100: 163f b53b c3ee ecbd 1732 d5bc 8c26 1dbe
00000110: 6108 32bd 95f7 acbd 0fda 06be f4bd 553d
00000120: 03cc edbd a319 59bd 2611 0c3d ff7c 40bd
00000130: d5ea 07bf 900c 1c3c 4675 edbc e05b c03d
00000140: 3473 05be e431 ecbe 68b9 babd a775 2dbd
00000150: fad7 67be 1e6f b3bd 2524 d43c 83ee a53e
00000160: 5282 5b3d a242 21be 6f83 373c 16ee c1be
00000170: c227 8f3e 5960 783b d78a 21be 2c9c 15be
00000180: 5780 a9be 144d d83c 8fbf 803d 9427 a4bc

4.bias f4 [2]
0.21317737 0.33056438
00000000: 2b4b 5a3e bc3f a93e

onnx::MatMul_18 f4 [4, 100]
-0.032041054 -0.19171585 -0.15762572 0.97996575 -0.25025246 -0.042640388 -0.2620852 -0.5739411
-0.013061904 -0.22298747 0.2763334 -0.049150433 1.2801118 0.3254759 -0.051251527 -0.242162
-0.12461789 0.2571973 -0.10653141 -0.2454994 -0.12932464 0.09278379 -0.25948477 0.72509956
-1.3321689 -0.1402693 -0.972985 -0.7213374 -0.6608918 0.057249524 -0.04732221 -0.6682022
0.38276523 0.28206423 -0.3220803 0.6356253 -0.24245399 0.058187272 0.10351539 -0.05287342
0.8185894 -1.4741429 -0.066708855 -0.069730595 0.04714434 0.28062657 0.0028881596 0.057360053
0.37883574 0.43902662 0.18285759 0.3734064 -0.18300398 -0.19618377 0.027394447 -0.0037453556
0.64126486 -0.4782065 -0.55885476 -0.67851055 -0.25160688 0.46765688 0.08456479 0.4873573
-0.06382278 -0.11121835 0.7063836 0.059655193 0.10738933 -0.3523726 0.09329759 0.30317727
0.0019401505 0.350569 -0.09283611 0.22875924 -0.24369983 -1.1997678 0.017815163 -0.09204082
0.5178715 0.17177285 -0.39947227 -0.6954361 0.8601844 0.41329738 0.5017409 0.489939
-0.088573314 -0.07899168 -0.17663267 0.7704071 -0.042894237 -0.106181726 -1.0230479 -0.21134976
0.0074124015 0.16955948 -0.18981756 -0.13174996 0.1778095 0.029493544 -0.40662214 -0.8924583
-1.2276118 0.45438454 -0.18999402 -0.0540367 0.32759473 0.29346782 -0.17551684 -0.016982079
-0.40655988 -0.40209156 0.36402237 -0.014058304 0.16309752 -0.4333478 -0.6855565 -0.17420486
0.08002857 0.19692679 -0.29873335 -0.35150778 -0.86809486 0.050999556 -0.55762166 -0.32885993
-0.4465372 0.31544945 0.104617156 -0.4224552 -0.2664881 -0.7218056 -0.01095835 -0.15595388
0.4079796 0.1455757 -0.08245574 0.2413961 -0.056699064 -1.1958174 -0.07663649 -0.24418129
-0.14831364 -0.23554811 0.25246236 0.6106538 0.036807507 -1.4093521 0.22632536 -0.095813565
0.12314051 0.30901828 0.22694297 0.36459318 -0.34979913 0.21699311 -0.9563317 -0.16761954
0.30845612 -0.13632956 0.007454825 0.1914358 0.30189997 -0.21504644 -0.4391004 0.08346318
0.20895098 -1.2482519 0.13835795 0.062605925 -0.64904207 0.19906045 0.12621732 0.42911026
-0.04201471 -0.79708207 -0.11779677 0.031036127 -0.40475363 -0.50474215 -1.3448004 -0.25892234
-0.2792131 0.020047694 -0.47736347 -1.2951376 0.050480023 -0.34712842 0.15617315 -0.9960141
0.3380789 -0.8826352 -0.27809042 0.14594287 0.011885011 -0.36224326 -0.31546897 -0.007442688
-0.2534897 -0.31851068 -1.2766426 -0.49554458 1.068971 -0.48422167 0.37044382 -0.802024
0.036053427 -2.1270006 0.95391583 -0.026113326 0.7913515 -0.011289468 1.2001019 -0.08934926
-0.36233795 0.7955901 -0.39960855 -1.2959632 0.32364658 -1.5892475 1.0406525 1.998788
-1.3039745 -0.74903166 -0.5424928 -1.8905617 -0.94981736 0.39731732 -0.45106664 -0.09368994
0.13954061 -0.24650067 0.11047651 -1.191327 -0.55046785 -0.32577068 0.826753 -2.0143342
1.2999203 -0.98090065 0.28264353 0.090498194 0.79593736 -1.8328238 0.20497987 -1.1327931
0.46757314 -0.3200879 0.23484667 -0.27879992 -0.84360325 -0.17518495 1.0267055 -0.03597316
00000000: 7b3d 03bd 2951 44be a368 21be 09df 7a3f
00000010: 1721 80be b0a7 2ebd 0830 86be ceed 12bf
00000020: 9901 56bc d456 64be 927b 8d3e f751 49bd
00000030: b4da a33f c7a4 a63e 1fed 51bd 51f9 77be
00000040: aa37 ffbd 5daf 833e 242d dabd 3264 7bbe
00000050: ae6d 04be 6d05 be3d 30db 84be 20a0 393f
00000060: 8384 aabf c1a2 0fbe 8c15 79bf 91a9 38bf
00000070: 3430 29bf 7a7e 6a3d efd4 41bd 4d0f 2bbf
00000080: cef9 c33e b96a 903e b6e7 a4be 57b8 223f
00000090: dc45 78be c755 6e3d e0ff d33d cd91 58bd
000000a0: 138f 513f b7b0 bcbf a79e 88bd eace 8ebd
000000b0: 6c1a 413d 49ae 8f3e 4747 3d3b 60f2 6a3d
000000c0: c2f6 c13e 19c8 e03e 053f 3b3e 202f bf3e
000000d0: 6565 3bbe 66e4 48be 526a e03c a474 75bb
000000e0: ef29 243f 7bd7 f4be 1b11 0fbf deb2 2dbf
000000f0: 9ed2 80be b970 ef3e 4e30 ad3d e586 f93e
00000100: 85b5 82bd 72c6 e3bd 8ed5 343f 0159 743d
00000110: f0ee db3d 2e6a b4be cf12 bf3d 0d3a 9b3e
00000120: a64c fe3a c87d b33e dc20 bebd dd3f 6a3e
00000130: 738c 79be fe91 99bf 1bf1 913c e67f bcbd
00000140: 3a93 043f 39e5 2f3e a187 ccbe 1a08 32bf
00000150: 0b35 5c3f b79b d33e 1772 003f 49d9 fa3e
00000160: ed65 b5bd 64c6 a1bd 32df 34be 6639 453f
00000170: deb1 2fbd ce75 d9bd 3cf3 82bf 126c 58be
00000180: bbe3 f23b 00a1 2d3e 895f 42be 76e9 06be
00000190: b213 363e 729c f13c c730 d0be 2678 64bf
000001a0: 6222 9dbf 17a5 e83e cb8d 42be 9655 5dbd
000001b0: 7fba a73e 6a41 963e b0ba 33be 001e 8bbc
000001c0: 9e28 d0be f2de cdbe 2461 ba3e cd54 66bc
000001d0: 0903 273e c3df ddbe a180 2fbf c262 32be
000001e0: 05e6 a33d 2da7 493e 94f3 98be d4f8 b3be
000001f0: 773b 5ebf e9e4 503d 4bc0 0ebf 5460 a8be
00000200: 86a0 e4be 9782 a13e 8541 d63d 0c4c d8be
00000210: 2171 88be 40c8 38bf a78a 33bc 60b2 1fbe
00000220: b4e2 d03e cc11 153e 8ede a8bd 8a30 773e
00000230: 473d 68bd 8b10 99bf 98f3 9cbd a90a 7abe
00000240: 88df 17be 8633 71be bf42 813e cf53 1c3f
00000250: 78c3 163d a665 b4bf d6c1 673e e739 c4bd
00000260: 1731 fc3d a537 9e3e bd63 683e f5ab ba3e
00000270: df18 b3be 7133 5e3e 27d2 74bf 75a4 2bbe
00000280: f6ed 9d3e fa99 0bbe 9b47 f43b bf07 443e
00000290: a292 9a3e 2235 5cbe c5d1 e0be beee aa3d
000002a0: 3ff7 553e b8c6 9fbf b5ad 0d3e 8937 803d
000002b0: 9f27 26bf 81d6 4b3e 1d3f 013e 57b4 db3e
000002c0: 9e17 2cbd 920d 4cbf 6f3f f1bd 7a3f fe3c
000002d0: de3b cfbe c836 01bf 6b22 acbf 7891 84be
000002e0: 05f5 8ebe 103b a43c fc68 f4be 12c7 a5bf
000002f0: 24c4 4e3d d1ba b1be dbeb 1f3e c8fa 7ebf
00000300: ad18 ad3e 61f4 61bf de61 8ebe 0c72 153e
00000310: 59b9 423c f377 b9be 2685 a1be cbe1 f3bb
00000320: 67c9 81be d513 a3be 0669 a3bf 05b8 fdbe
00000330: 0bd4 883f e7eb f7be d0aa bd3e 7251 4dbf
00000340: c2ac 133d c720 08c0 d433 743f 9deb d5bc
00000350: 0396 4a3f 76f7 38bc f09c 993f bffc b6bd
00000360: 5c84 b9be cbab 4b3f 7e99 ccbe 1fe2 a5bf
00000370: 01b5 a53e 766c cbbf 1a34 853f 49d8 ff3f
00000380: a3e8 a6bf 8ac0 3fbf cfe0 0abf edfd f1bf
00000390: 3b27 73bf 2d6d cb3e 35f2 e6be 83e0 bfbd
000003a0: bce3 0e3e ac6a 7cbe 8241 e23d 677d 98bf
000003b0: 76eb 0cbf 6acb a6be 16a6 533f daea 00c0
000003c0: ca63 a63f 4e1c 7bbf a7b6 903e 1e57 b93d
000003d0: 8dc2 4b3f f899 eabf 3ee6 513e 5dff 90bf
000003e0: bf65 ef3e 90e2 a3be a57b 703e ddbe 8ebe
000003f0: 62f6 57bf af63 33be 166b 833f 9858 13bd

onnx::MatMul_19 f4 [100, 100]
-0.06944064 -0.08652296 0.030603912 -0.1512263 -0.19359894 -0.116657995 -0.14394578 -0.023448056
0.024991954 -0.055292893 0.06946434 -0.09534113 0.084738955 -0.017886516 -0.10318065 0.08305874
-0.047681842 0.008026483 0.045023993 0.05561181 -0.037706677 -0.105064236 0.014318596 -0.08228998
-0.04639459 -0.033350244 -0.043411274 -0.08337664 -0.11538093 -0.12326149 -0.016150603 0.02719924
-0.055320818 0.007752126 0.013513904 -0.113093615 -0.090896904 0.08874784 -0.12684704 -0.07320297
-0.1424579 -0.052040674 -0.09532107 0.065044135 -0.08780962 -0.009793568 -0.09960162 -0.041345157
-0.057879098 -0.11768336 -0.285243 0.041970335 0.0052540274 -0.071054354 -0.13064842 -0.06811781
0.014275284 -0.14977989 0.014499909 -0.04352139 -0.02848625 -0.064148754 -0.18546936 -0.09079861
0.009357559 0.04591205 -0.06939972 -0.042340297 -0.05476609 -0.043406904 0.16563988 0.020102898
-0.12669098 -0.038671747 -0.011543683 0.027211718 -0.075721264 -0.12030176 -0.025799911 -0.0747432
-0.008676183 0.068953395 -0.007241645 -0.118930124 -0.14699674 -0.051706377 -0.019169107 0.04665695
-0.027557112 0.025802463 -0.024147712 -0.09263345 -0.1719624 -0.08970224 0.06494922 -0.029134376
0.007399791 -0.21452036 -0.052903943 0.040195037 0.05871644 0.051188648 -0.10837565 -0.04562883
0.035004355 -0.08255481 -0.088217735 0.12491926 -0.09338183 -0.016339047 0.12801185 -0.025316693
-0.13496868 -0.27491248 -0.014915658 0.13066256 0.012282415 -0.044929318 0.005996755 0.015635021
-0.11081219 0.10075231 0.050649323 -0.21202008 -0.03406604 -0.0012651592 -0.014698906 -0.011049588
0.010819049 -0.12649998 -0.028025793 -0.018240558 0.06400806 -0.053638425 -0.1399147 -0.059209954
0.07964397 -0.27117273 -0.21657218 -0.29648674 0.04999133 0.16899754 0.02381393 -1.3320026e-05
0.004749185 -0.15995973 -0.13858484 -0.033581242 -0.019840393 -0.056789186 0.10345911 -0.06351382
-6.1920684e-05 -0.20870772 0.23239519 -0.099339746 0.031105155 -0.25391978 -0.13437939 -0.064755104
-0.057381902 -0.47067487 0.0036824245 -0.02711528 0.04476295 -0.07768084 -0.016331179 -0.16193634
0.070441596 -0.11251856 -0.18676336 -0.049319815 0.15604198 -0.10238442 -0.11852672 0.03772204
-0.20262712 -0.16617972 -0.081572905 -0.10251624 -0.20573243 0.13361719 -0.11558222 -0.018580562
0.045749757 0.090489574 0.0046186456 0.19687715 -0.14898144 0.01489423 0.010819777 -0.25480533
-0.054885022 -0.09598163 0.021471892 -0.1245786 -0.19733235 -0.31112352 -0.014538856 -0.004369484
-0.028815687 -0.03240893 -0.014289451 -0.19645473 0.0442029 -0.0709587 -0.07975565 -0.06951175
0.018067531 -0.019312065 0.06864642 -0.096391864 -0.09414202 -0.04810797 0.080161646 -0.35855797
0.07062507 -0.011903645 0.012653486 -0.06403028 -0.101050116 0.27153146 0.04474909 0.1629868
-0.1970342 0.2397124 0.03651844 0.017249553 -0.032775328 -0.01505076 -0.034898955 -0.0141286
-0.07526743 0.10175997 -0.099034876 0.04438104 -0.007286009 -0.31643942 0.19126832 -0.43352768
-0.024465725 0.04443431 0.084897585 -0.079800956 -0.02062634 -0.23508234 0.15949638 0.016780347
-0.098678 -0.07172794 0.24383016 -0.059790716 0.18287656 -0.29976386 -0.01973974 0.042128343
00000000: e536 8ebd f332 b1bd 0eb5 fa3c 11db 1abe
00000010: cd3e 46be 63ea eebd 8666 13be 2316 c0bc
00000020: edbb cc3c cd7a 62bd 5243 8e3d 3642 c3bd
00000030: 9e8b ad3d be86 92bc 6050 d3bd b31a aa3d
00000040: 094e 43bd 8281 033c 146b 383d 36c9 633d
00000050: 5172 1abd eb2b d7bd 8b98 6a3c a687 a8bd
00000060: 4108 3ebd 449a 08bd 05d0 31bd 5fc1 aabd
00000070: d64c ecbd 8570 fcbd 454e 84bc f1d0 de3c
00000080: 1598 62bd 8c05 fe3b 6c69 5d3c a09d e7bd
00000090: 2828 babd 6dc1 b53d 31e4 01be 70eb 95bd
000000a0: 7ce0 11be 9a28 55bd b137 c3bd dc35 853d
000000b0: 88d5 b3bd 3475 20bc effb cbbd 8a59 29bd
000000c0: a212 6dbd f903 f1bd 5f0b 92be 16e9 2b3d
000000d0: fa29 ac3b f284 91bd b3c8 05be 5a81 8bbd
000000e0: e1e2 693c e65f 19be 0791 6d3c 7c43 32bd
000000f0: ff5b e9bc 6c60 83bd aeeb 3dbe 9ff4 b9bd
00000100: 7250 193c 460e 3c3d 7121 8ebd 056d 2dbd
00000110: 6852 60bd 70cb 31bd 809d 293e d5ae a43c
00000120: 48bb 01be 4466 1ebd b721 3dbc 1ceb de3c
00000130: c013 9bbd c560 f6bd 565a d3bc f612 99bd
00000140: 8d26 0ebc 7037 8d3d 524b edbb a391 f3bd
00000150: 5086 16be 11ca 53bd 8808 9dbc 5c1b 3f3d
00000160: 74bf e1bc b05f d33c 6cd1 c5bc 9bb6 bdbd
00000170: e916 30be cfb5 b7bd 1904 853d 37ab eebc
00000180: f279 f23b 3aab 5bbe ceb1 58bd 8da3 243d
00000190: a680 703d 30ab 513d 0ef4 ddbd 4ce5 3abd
000001a0: ba60 0f3d 7f12 a9bd 80ab b4bd abd5 ff3d
000001b0: f93e bfbd 77d9 85bc 8a15 033e f464 cfbc
000001c0: 3b35 0abe 54c1 8cbe ce60 74bc 68cc 053e
000001d0: 2f3c 493c ce07 38bd 6d80 c43b 0415 803c
000001e0: 80f1 e2bd 3a57 ce3d aa75 4f3d cb1b 59be
000001f0: d588 0bbd b3d3 a5ba aed3 70bc 5509 35bc
00000200: 6142 313c 3689 01be 5996 e5bc 396d 95bc
00000210: a816 833d f7b3 5bbd cd45 0fbe 2386 72bd
00000220: 611c a33d 27d7 8abe 19c5 5dbe 1ccd 97be
00000230: b5c3 4c3d b10d 2d3e 6e15 c33c 1379 5fb7
00000240: 0d9f 9b3b 7ccc 23be 2fe9 0dbe 7c8c 09bd
00000250: 5288 a2bc c79b 68bd 5fe2 d33d 8913 82bd
00000260: 6adb 81b8 7ab7 55be 01f9 6d3e a372 cbbd
00000270: 3dd0 fe3c c601 82be c09a 09be 539e 84bd
00000280: 4909 6bbd 4cfc f0be d554 713b dd20 debc
00000290: 5b59 373d 2217 9fbd f7c8 85bc a4d2 25be
000002a0: af43 903d 2170 e6bd e53e 3fbe 9303 4abd
000002b0: 78c9 1f3e ecae d1bd 23be f2bd 6d82 1a3d
000002c0: 7c7d 4fbe 042b 2abe b20f a7bd 09f4 d1bd
000002d0: 86ab 52be f2d2 083e 5fb6 ecbd 4336 98bc
000002e0: 1964 3b3d 9952 b93d 0258 973b 2a9a 493e
000002f0: 978e 18be ee06 743c 6f45 313c d875 82be
00000300: 1ecf 60bd 0492 c4bd d2e5 af3c 1123 ffbd
00000310: 7e11 4abe 954b 9fbe 6234 6ebc e32d 8fbb
00000320: e00e ecbc 3abf 04bd 4d1e 6abc 6e2b 49be
00000330: 1a0e 353d cb52 91bd ee56 a3bd 2d5c 8ebd
00000340: 5c02 943c 5634 9ebc 7f96 8c3d 1969 c5bd
00000350: 88cd c0bd dd0c 45bd ca2b a43d e994 b7be
00000360: e0a3 903d 8107 43bc 9150 4f3c 4f22 83bd
00000370: 5df3 cebd 2c06 8b3e d24a 373d 03e6 263e
00000380: 55c3 49be 2b77 753e 5c94 153d ef4e 8d3c
00000390: 6c3f 06bd 7697 76bc 35f2 0ebd a57b 67bc
000003a0: cf25 9abd 8867 d03d ccd2 cabd e5c8 353d
000003b0: 79bf eebb 5904 a2be d8db 433e 57f7 ddbe
000003c0: 586c c8bc c000 363d c9de ad3d af6e a3bd
000003d0: 92f8 a8bc 6db9 70be 0553 233e f076 893c
000003e0: b117 cabd 19e6 92bd 9dae 793e 1ce7 74bd
000003f0: fe43 3b3e a67a 99be 3cb5 a1bc c58e 2c3d

onnx::MatMul_20 f4 [100, 2]
-0.26763242 -0.6567758 0.06580044 -0.26722693 -0.58945054 -0.20284304 -0.6282155 -0.37143925
0.06303915 -0.3800126 -0.08602125 -0.14995739 -0.71772695 -0.29759544 -2.4471478 0.2519917
-0.029517122 -0.16963081 0.045884565 0.69876814 -2.4167008 -0.19754468 -0.053353623 -0.23602791
0.9709357 0.32995966 -1.7949785 -0.4241407 0.043884013 -0.29042 1.314807 -0.24507065
-0.0067888056 -0.04218821 -0.008252531 -0.10406605 0.028046038 -0.14615957 0.05626779 -0.11239529
-0.87257034 -0.7129202 -1.8423843 0.32242098 -0.15936992 -0.5080773 -0.19137613 0.2863788
1.0893315 -0.094395876 -1.451309 0.21564876 -0.042720653 -0.32121518 0.00987666 -0.14593382
0.041753534 0.34479767 0.007451375 -0.16961877 -0.08147966 -0.18024838 -0.08432372 -0.25859827
0.33489805 0.6211139 0.22613783 -0.35222074 -0.0123563325 -0.25780693 0.014987086 -0.35800457
0.044857055 0.023382412 -4.751848 -0.0014622436 0.96081495 -0.28443107 5.292478 0.05980324
0.08912209 -0.18304777 1.2745682 -0.43757308 -0.023435855 -0.17478593 -0.47773606 -0.38029492
0.049821977 -0.25747836 0.1842017 -0.37429792 -2.522058 0.07645538 0.49762186 -0.6043114
-0.006815975 -0.062614895 0.081784144 -0.45073402 -0.7262276 0.34387872 0.09493129 -0.47029683
0.0641799 0.4168043 0.96983093 -0.18334273 2.5922177 0.07422376 0.017347895 -0.14201088
0.019053085 0.30726367 -0.19400069 -0.2286634 -1.5380898 0.10668103 -0.22656286 -0.45806494
0.03474194 -0.20418468 1.2202122 -0.17946663 0.811443 -0.54719627 0.011616056 -0.5096236
0.05678786 -0.24593794 0.046880487 -0.055822115 0.059116397 -0.20412156 -0.17618796 -0.4762284
0.061348174 0.5016721 0.049723893 -0.32264245 3.6502795 -0.1108405 -0.032065343 -0.310664
-0.28054821 0.44937408 -0.0032890877 -0.3299319 0.06874112 -0.19324619 0.02360408 -0.23731063
-0.09435028 0.25747788 -0.048454218 -0.45808947 -0.19688411 0.6359184 -0.1519504 -0.6466119
-0.095554225 -0.35732028 -0.0010891613 0.28021163 0.054050356 -0.16407174 0.868584 -0.15940168
-0.97381824 -0.2493212 1.2394639 0.20583959 -0.16284755 0.48336625 -0.39722595 0.3466768
0.0472348 -0.37284356 -0.99886537 -0.35183796 0.03574591 -0.28772557 -0.17071228 -0.6139895
1.0461997 0.13089126 -0.035425562 -0.17738253 -0.40995932 0.3143377 0.58028364 0.41627043
-0.1320292 -0.3219439 3.3198254 -0.21923739 -0.012444719 -0.2242586 -0.042027652 -0.23003739
00000000: 1e07 89be 7522 28bf 62c2 863d f8d1 88be
00000010: 3be6 16bf 16b6 4fbe bbd2 20bf 492d bebe
00000020: ab1a 813d 0391 c2be e92b b0bd 6e8e 19be
00000030: f4bc 37bf 6e5e 98be 129e 1cc0 0e05 813e
00000040: e4cd f1bc b3b3 2dbe 74f1 3b3d 78e2 323f
00000050: 3aab 1ac0 2749 4abe 5489 5abd 4db1 71be
00000060: 3e8f 783f 79f0 a83e dbc1 e5bf f828 d9be
00000070: b9bf 333d eeb1 94be 994b a83f cdf3 7abe
00000080: a174 debb 8bcd 2cbd a035 07bc 9520 d5bd
00000090: cec0 e53c dbaa 15be 0e79 663d 802f e6bd
000000a0: c560 5fbf f081 36bf 40d3 ebbf 5d14 a53e
000000b0: de31 23be 5b11 02bf 1bf8 43be 3ea0 923e
000000c0: 376f 8b3f a052 c1bd 7ec4 b9bf 07d3 5c3e
000000d0: dafb 2ebd 5176 a4be b7d1 213c ad6f 15be
000000e0: c105 2b3d 5289 b03e aa2a f43b 8bb0 2dbe
000000f0: cfde a6bd 0893 38be eab1 acbd fe66 84be
00000100: c277 ab3e 5201 1f3f ad90 673e 4756 b4be
00000110: 3772 4abc 45ff 83be 658c 753c 604c b7be
00000120: 08bc 373d 798c bf3c 240f 98c0 c1a8 bfba
00000130: f8f7 753f f3a0 91be fb5b a940 3ef4 743d
00000140: a485 b63d e070 3bbe 0d25 a33f 9409 e0be
00000150: 8dfc bfbc 15fb 32be d299 f4be 04b6 c2be
00000160: 2112 4c3d 34d4 83be 5f9f 3c3e faa3 bfbe
00000170: 6669 21c0 a394 9c3d 4bc8 fe3e 27b4 1abf
00000180: 8b58 dfbb 3d3c 80bd 727e a73d 9cc6 e6be
00000190: 0dea 39bf df10 b03e 566b c23d bfca f0be
000001a0: c070 833d 6067 d53e d746 783f 32be 3bbe
000001b0: e5e6 2540 a002 983d 2c1d 8e3c 4d6b 11be
000001c0: 3715 9c3c aa51 9d3e 1ea8 46be bd26 6abe
000001d0: 20e0 c4bf 957b da3d 1800 68be 7d87 eabe
000001e0: 914d 0e3d ca15 51be ea2f 9c3f 1ac6 37be
000001f0: baba 4f3f 0e15 0cbf 4551 3e3c b176 02bf
00000200: 639a 683d 28d7 7bbe c105 403d bba5 64bd
00000210: 0924 723d 3e05 51be 9e6a 34be 35d4 f3be
00000220: 3948 7b3d 956d 003f 48ab 4b3d 6431 a5be
00000230: 2e9e 6940 5800 e3bd f356 03bd 5a0f 9fbe
00000240: 04a4 8fbe 5c14 e63e bc8d 57bb d6ec a8be
00000250: 25c8 8c3d 54e2 45be 585d c13c 8f01 73be
00000260: b83a c1bd 24d4 833e ee77 46bd b48a eabe
00000270: fd9b 49be 8ccb 223f e398 1bbe 5c88 25bf
00000280: efb1 c3bd aff2 b6be 30c2 8eba e677 8f3e
00000290: e863 5d3d 6c02 28be 855b 5e3f 323a 23be
000002a0: 274c 79bf 0f4e 7fbe c1a6 9e3f 9dc7 523e
000002b0: 82c1 26be c87b f73e 3361 cbbe 9f7f b13e
000002c0: 4779 413d 5ae5 bebe a4b5 7fbf 1b24 b4be
000002d0: 4e6a 123d c450 93be 33cf 2ebe 6a2e 1dbf
000002e0: dfe9 853f 5c08 063e 651a 11bd c4a3 35be
000002f0: 30e6 d1be dff0 a03e 788d 143f 6621 d53e
00000300: aa32 07be d5d5 a4be 0578 5440 c47f 60be
00000310: efe4 4bbc 0ca4 65be 3025 2cbd ec8e 6bbe
