examples/vehicle/models/mpcmultobs.pt (torch, 89391 bytes, 6 tensors)

seq.0.weight f8 [100, 5]
000000 28 db 9c 72 01 27 ad bf 00 6c 90 9a b2 64 97 bf
       -0.05693821453171771 -0.022845068630072518
000010 fa 1b 87 a2 44 5e d9 bf c0 4e 7a 08 b5 aa d1 bf
       -0.3963786685166607 -0.2760441382208505
000020 dc c9 5b cb 0b 72 d8 bf 7e 29 a9 81 58 52 c5 3f
       -0.38196081980927743 0.16657549220174056
000030 de 4b 51 b1 0a bc b5 3f ea 66 d8 a8 36 34 cd 3f
       0.08490053967516029 0.22815592998886497
000040 a7 a2 8f 2b f8 29 94 3f 24 e7 b8 81 12 67 ba 3f
       0.01969135061145502 0.10313525836036469
000050 48 f2 5e db 40 d1 bb bf 71 1c dd 6e 3b eb c8 3f
       -0.10866170268759234 0.19467871583239885
000060 0a b3 47 a0 32 4a b2 3f b3 e3 47 f7 1f 59 c1 3f
       0.07144466794097695 0.1355323750902052
000070 dc d4 a9 b9 9e 3e 98 bf 30 4b bf 71 0c f3 d3 bf
       -0.023676376420969855 -0.3117095099270726
000080 4b 83 34 c4 a8 e2 c3 bf dd d0 46 9f fa 92 9b 3f
       -0.15535459118202719 0.026927867862199462
000090 af 07 fb d7 1e 75 d2 bf 99 ef 75 2b b8 48 b3 3f
       -0.28839846698621846 0.07532836018611845
0000a0 aa 5a 3a 61 b9 27 d4 3f 73 6c 38 6f d8 f0 d1 3f
       0.3149245690814647 0.2803250394951597
0000b0 c0 52 88 5c de 0c cd bf 87 38 f3 3d ac 15 d7 bf
       -0.22695521848858924 -0.3606978039723647
0000c0 0d 34 7e 14 bd fa b0 bf 33 d6 01 a4 f5 ce c6 3f
       -0.06632596731488168 0.17819090374148203
0000d0 00 d7 42 df a5 71 db bf 2d 96 11 75 f5 ae ce bf
       -0.42881151964989783 -0.23971431938405044
0000e0 73 f6 af 65 80 c0 c7 bf 18 26 d9 f2 56 83 bd 3f
       -0.1855621811409268 0.11528533390914963
0000f0 3b ba 92 96 5e 5c cb bf e4 32 63 1a e3 d0 d8 3f
       -0.21375639297680657 0.3877494580927261
000100 0a ba 49 92 44 7d c5 3f 80 0e 31 b1 8f 49 c8 3f
       0.1678853716179705 0.18974491264281212
000110 9b 2a 54 30 94 af b4 3f 76 62 15 5b a3 4f c4 3f
       0.08080412082578407 0.1586803622001473
000120 de 1d 64 fb 81 f6 b0 3f 8e bf a6 1e cf bb d9 bf
       0.06626140964009816 -0.4020879554109279
000130 71 f1 29 b5 af 13 d1 bf 4b 0a 53 06 99 c5 d9 bf
       -0.266826559942067 -0.4026854097138865
000140 91 a4 3a 4a 28 f3 d3 bf 26 5b b7 0f 10 2d e1 bf
       -0.311716148843126 -0.5367508227307993
000150 b6 19 1b 2e 03 bb d0 3f fd 70 8f 27 dd 96 b5 bf
       0.26141433241391654 -0.08433325019672462
000160 60 30 35 43 64 be ce 3f f1 96 f8 97 a9 63 d7 bf
       0.2401852920687615 -0.3654579147426907
000170 22 49 5c 3c c9 e7 c3 bf 63 fa 26 26 a7 eb ca bf
       -0.1555110497216186 -0.2103165565767596
000180 99 d6 60 b9 cd ce c5 bf 00 45 cb d3 73 67 d3 bf
       -0.17037364532159385 -0.30318923647890017
000190 c0 88 8c 03 41 e9 cf bf 44 f0 3f 67 4b 9e a7 bf
       -0.24930584595955985 -0.046129566529970606
0001a0 e9 16 f1 cd 88 ca d5 3f 56 3c d6 86 fe c4 c3 bf
       0.3404867182874641 -0.15444928726035084
0001b0 ff f6 f9 01 2a 00 dd bf 4f 33 4b 63 4e 7c d3 3f
       -0.4531350154210116 0.30446204849868236
0001c0 b9 b0 a3 b6 8e 15 de bf db d2 f0 d6 b2 2b df bf
       -0.4700657638156929 -0.4870421504049724
0001d0 a5 ae 05 16 2e eb d3 bf 8b b2 88 f3 bf 98 d1 3f
       -0.31122924948315706 0.2749481085072964
0001e0 cd 83 ce fa 95 19 b4 3f c6 38 25 58 50 63 c9 bf
       0.0785154092141191 -0.19834331802343835
0001f0 d4 c4 fe 92 2b b8 c9 3f 7c 10 69 5b 01 a1 c6 3f
       0.2009329288244205 0.1767884918537027
000200 87 a1 a7 38 e2 1b c6 3f 6f 99 d4 bf 4c 64 c4 3f
       0.17272594229076452 0.1593109070465277
000210 5c 5c 94 07 21 e5 d4 3f b5 04 fb ea 50 fe a2 bf
       0.32648492565335174 -0.03709652775206377
000220 aa 86 de d9 69 15 c1 3f 4a 2b a5 f9 a4 92 d3 bf
       0.13346598756929967 -0.3058254659596754
000230 d8 3f 1e ee 83 db ca bf 23 ff 80 c1 91 40 dd bf
       -0.20982407690871585 -0.4570660009085136
000240 c4 a2 53 70 6d e3 d5 bf ae 9f 93 fa 9f a7 d6 3f
       -0.3420060727062657 0.35398101301552287
000250 a8 c9 e7 16 72 ed c3 3f 7d a0 c1 31 a3 41 de 3f
       0.15568376654080152 0.4727561937238603
000260 38 a1 02 2b 69 a1 c1 bf 2d 68 d8 bc d7 bc d4 bf
       -0.1377383670817467 -0.3240260452454347
000270 99 3c 36 74 c4 f0 c7 3f c8 5b ee 03 5d 7b c1 bf
       0.18703513788611728 -0.1365772504038587
000280 7e f7 80 8e 9d 6c c9 3f f1 6f 3b 50 48 3f cc 3f
       0.19862718065445145 0.2206812278517414
000290 22 21 2c 75 a8 98 d1 3f 08 c8 fa ee 3e 8e c6 3f
       0.2749425071965722 0.17621599835325719
0002a0 63 43 b9 00 ff 4a ce 3f d9 2d 4b 0c 1b aa da bf
       0.2366636994870773 -0.4166324253135066
0002b0 74 50 77 29 ff 8f c8 3f 16 3f f1 31 58 27 97 3f
       0.19189443134985462 0.022611024902572906
0002c0 be 33 a3 0a 7e 80 d0 3f 04 87 12 42 ce 29 dc 3f
       0.2578425506479184 0.44005161716823715
0002d0 31 e9 98 b9 2c ce c8 3f 51 40 5f f1 18 69 a9 bf
       0.1937919527279717 -0.04962995478092636
0002e0 9e 61 1c 31 8c cc d5 bf 7c a9 6a bc 74 33 ca 3f
       -0.340609596214131 0.20469531250030204
0002f0 f9 d5 ec 0b 89 f2 da 3f 94 33 66 6c c4 56 cd bf
       0.42105318226398897 -0.2292104272168244
000300 d8 62 d4 6b 42 1e 9e bf d9 e1 f9 13 ae 1a d4 bf
       -0.029412305671118272 -0.3141284174994588
000310 5d e9 52 02 fd dc bc 3f da a0 11 aa e5 a2 b7 bf
       0.1127470141099471 -0.09232936288902086
000320 6a be c0 23 79 e8 da bf 63 65 ba 77 99 5b d2 3f
       -0.4204390381955593 0.28684078876684377
000330 9d 25 d2 52 49 8e c9 3f 60 d4 9e 27 99 8b d6 3f
       0.1996547369383678 0.35227040166075163
000340 59 3f af 87 2d ab af bf 61 28 60 b9 4b 95 c9 bf
       -0.06185285836511296 -0.19986864615958935
000350 68 89 59 f1 48 23 db 3f ee d9 d3 63 b1 91 a7 3f
       0.42402862138091857 0.046033423839549545
000360 52 c2 47 2b 24 22 d6 bf 1c 5e 0d 38 28 7e a8 bf
       -0.3458338186892763 -0.04783750232916992
000370 9f 3d 51 cb 1f 24 be bf f5 98 c1 b3 25 5c cf 3f
       -0.11773871148874669 0.2449996116367356
000380 b5 7d ee 9c a7 32 c9 3f fa 8a f4 cf 19 72 c1 3f
       0.19685835993457848 0.13629458097519614
000390 77 39 25 96 46 17 b3 bf a1 58 a4 46 f1 3d d9 bf
       -0.07457390943202379 -0.3944056691992817
0003a0 b3 6f 58 45 48 41 c6 3f cb d8 80 27 1d b5 d8 bf
       0.17386725793846622 -0.38605431421036646
0003b0 11 82 b0 10 fd 96 88 3f 67 fb 76 ad e2 02 da bf
       0.012006737777540829 -0.4064261144630365
0003c0 b0 57 a3 74 32 06 d2 bf 71 d4 5a cb 01 f2 be bf
       -0.2816282404941104 -0.1208802339049997
0003d0 24 9a ad 8f d0 d4 d8 bf f6 1b 3a 1c ec 6d e0 bf
       -0.3879891780001421 -0.5134182502087004
0003e0 9c b8 20 35 b8 32 d7 3f 30 05 0d 62 ba 3f d0 3f
       0.3624706763101899 0.25388965201644265
0003f0 84 7e ea f1 20 6e c3 bf 67 f1 19 1c c2 37 c2 bf
       -0.15179836094192833 -0.1423266064847539
000400 07 aa 34 e0 0f 63 de bf b2 a7 d6 25 6b ec cb bf
       -0.47479626555528437 -0.21815242145140484
000410 8a 06 05 e0 c6 f1 c6 bf 1b da cf f1 ee 25 d8 3f
       -0.17925344408472582 0.37731526960797773
000420 d5 d3 1f ef 9a 2c de 3f 23 15 e5 62 0b ed d5 bf
       0.47147248603806463 -0.34259304673862995
000430 e2 e9 79 ab a0 fb e1 3f 36 9c 6f fd f7 1c da bf
       0.5619662617821712 -0.408018109794685
000440 14 35 06 f0 1f 69 a4 bf 8f 27 f8 0d 29 1f ca 3f
       -0.03986453824027528 0.20407593900773377
000450 f6 a2 3c e3 a1 34 c1 3f d7 b0 72 cc f5 41 d5 3f
       0.13441871257352717 0.33215088811517773
000460 c3 fd b7 c6 30 20 e0 bf 9e 05 b0 d2 0f 17 cf bf
       -0.5039295083260459 -0.24289129054527064
000470 a2 53 0a 5e 85 a7 68 3f bc 8b 53 ea 21 0a e1 bf
       0.0030095677214582875 -0.5324868752180616
000480 42 15 b1 78 80 85 8d 3f 07 ce a1 eb 92 3e da 3f
       0.014414790805072134 0.4100692082494963
000490 7f ba 6d db ff 50 d8 3f e5 e0 43 cc 71 86 e1 3f
       0.3799438135965047 0.5476616849473684
0004a0 e4 40 21 25 9e ac aa 3f 42 a9 0a cd 5e 4d b1 3f
       0.052098218948801095 0.06758682733439961
0004b0 d2 c5 71 d8 e7 69 d5 bf 03 27 1b 93 4b 13 c3 3f
       -0.3345889676776014 0.14902634318269045
0004c0 07 b3 64 67 89 5b cd bf 73 d4 a7 ce aa f4 97 bf
       -0.22935597942832706 -0.0233942688591537
0004d0 a8 08 f6 b4 96 b1 bf bf b9 09 d7 02 88 12 ca 3f
       -0.12380353849406112 0.2036905301921033
0004e0 97 a6 89 f7 f2 4f da bf 8d 0f f2 df ae 78 df 3f
       -0.411129705177339 0.4917409121483097
0004f0 09 27 39 0b 85 9e dd 3f 9c 1e 31 25 81 28 b9 bf
       0.46280027481098834 -0.09827429922108383
000500 11 a0 1a d6 3f c0 d4 3f 48 46 a6 93 1e 93 93 3f
       0.3242339697703765 0.019115903627215297
000510 a2 27 a8 e1 6b 42 d0 bf 8e b8 2e 72 99 4f ca bf
       -0.2540540412597868 -0.20555418086354788
000520 06 78 a7 79 5e dc d2 3f 13 3c 61 c2 c4 5e d6 bf
       0.29470025902071517 -0.34953421575932103
000530 94 90 94 8b 87 73 c0 3f c2 6c d2 83 0b b3 c9 bf
       0.128525679735621 -0.20077651917094924
000540 21 00 3d 99 66 9a d2 3f a2 4a 09 dd 20 c8 c6 bf
       0.2906738754718408 -0.17798243325031132
000550 80 6e 2d 52 78 90 c2 3f d8 c1 91 64 ab 60 d6 bf
       0.14503387463161133 -0.34965023823954544
000560 22 ef 14 91 79 92 d9 bf 65 74 6b 35 85 9e d2 3f
       -0.39956511657850247 0.29092531410953476
000570 9d e0 7f d1 5f 02 d7 bf 77 17 42 bb 26 45 df 3f
       -0.359519915189148 0.48859566008501737
000580 1e 96 5f 63 31 7a d0 bf ac 1c 23 6a b6 fd d4 bf
       -0.25745806412155214 -0.3279853855605761
000590 c1 9a de ac d8 88 d0 3f a6 05 72 93 b1 e9 d2 bf
       0.25835244066039925 -0.2955135288139793
0005a0 cb 37 ec e4 61 29 ca bf 93 39 a9 80 db 10 d8 bf
       -0.20438789060466286 -0.3760288959937494
0005b0 87 d4 6e b9 3d be d1 bf 8d 71 8b cf 3a cf d7 3f
       -0.27723639591869936 0.37202329891240354
0005c0 04 98 de 8e 2f 6c dc 3f 11 43 fc c4 44 46 cb bf
       0.44410313560581494 -0.21308192842891363
0005d0 88 eb 18 f2 f0 5c c3 3f 88 0c 20 af 93 6e cc bf
       0.151273840152353 -0.22212453890833594
0005e0 42 94 3e 01 21 33 d4 3f df a1 2c a7 bd ca c8 bf
       0.3156206619408445 -0.19368715918359578
0005f0 77 e7 fc 74 3a 8d c2 bf 7d c5 25 ec bb 99 d8 bf
       -0.14493494713115826 -0.3843831831100813
000600 65 a1 9e 16 85 0d d8 bf 8a 0f 3d 58 ae 89 d9 bf
       -0.37582518776846136 -0.39902838341753777
000610 20 62 f1 fe 34 cc c2 bf 01 9b 71 c5 07 dc d0 3f
       -0.14685690353759728 0.26342958718889525
000620 fc 3b fc 1c 0b e0 d2 3f 8b 5a f9 53 10 b8 a4 3f
       0.2949245245990253 0.04046679520677284
000630 f2 41 c0 68 6f 45 c6 bf ae 00 89 f0 26 93 c8 bf
       -0.17399399390025355 -0.19199072594529326
000640 26 19 de 30 45 63 ab bf e3 ff 04 1c e3 b1 c5 3f
       -0.05349174710777253 0.16949118488446321
000650 7e a1 0d 23 8b 08 e1 bf 3d 56 6f 48 8e 6b d6 3f
       -0.5322929081567478 0.35031468461724896
000660 c0 e4 ae 9f 19 2c a6 bf 26 5f c6 d9 e6 ed d7 bf
       -0.043305207007003244 -0.373895371123114
000670 b4 b9 8d c8 9e 71 c4 bf bd 83 40 f4 b2 f4 d9 3f
       -0.1597174147859285 0.40556024410949104
000680 c4 5e b2 a2 ff 24 cf 3f 11 bd 21 d0 fa f8 bc bf
       0.24331660694291746 -0.11317412930815275
000690 d5 4f 31 44 5f 37 b8 3f 9f e6 48 b5 0b a9 ad bf
       0.09459491171702379 -0.05793034160565224
0006a0 00 29 60 73 6b 6e ba bf 2c d7 57 92 70 ff d4 3f
       -0.10324737135684714 0.3280908040172672
0006b0 73 3a 26 28 f3 9e d1 3f 7a c4 3e 8b 6d cf dd 3f
       0.2753265277941985 0.46578539465105673
0006c0 73 65 26 9e cc 67 b3 3f 30 c2 bf cf 2b 82 d2 bf
       0.0758026014431346 -0.28919501579278784
0006d0 84 89 98 fc 32 09 c6 3f e6 84 d4 99 a7 db cc 3f
       0.17215573629171044 0.225453329193477
0006e0 4d a1 d1 73 bb 52 db 3f f9 8a cb ab 4d 75 b4 bf
       0.42692457495151787 -0.07991490787712142
0006f0 92 3c ad 60 2f da e0 bf a3 05 38 e0 3f d5 dc 3f
       -0.526633919545832 0.45051571747179703
000700 b6 c1 e6 06 52 c2 8a bf 5e 95 51 b3 9d 9d ca 3f
       -0.013065949283231553 0.20793505912585436
000710 0e e4 4f 27 64 25 c9 bf fc a1 8e 36 a8 e7 b7 3f
       -0.19645358962569087 0.09337855655633825
000720 2b 7c b9 40 73 ac b3 bf 29 ff 90 4f 9a 4b d2 bf
       -0.07685013132275802 -0.28586442728191
000730 a7 3f 5a b4 e6 ee c2 3f 89 84 d0 39 20 1a dc 3f
       0.14791568571353972 0.43909459730100103
000740 c5 c3 5f f2 9b b7 d7 bf 00 4e 7d 46 08 24 d3 3f
       -0.37058161420196384 0.29907423862206883
000750 5a 45 64 52 79 09 a4 3f f7 ca 86 a2 48 89 be bf
       0.03913478022344448 -0.11928228347714397
000760 67 07 67 51 2c ed d0 bf df 92 e4 e1 16 97 9e 3f
       -0.264475898260676 0.02987323526135099
000770 fb 1f 40 76 cd 9f db 3f 7f 00 06 d2 e1 51 c6 bf
       0.43162857578181474 -0.17437384371806172
000780 a1 cb 45 34 3b 17 d2 3f 4a 9d 06 ba eb b7 68 bf
       0.28266792397260515 -0.0030173877750773502
000790 bb 4f ae 1c 9c 21 d6 3f 53 ca 14 e6 ad 25 c2 3f
       0.3458013801657633 0.14177488073763075
0007a0 58 60 b0 26 ca 70 bb bf d3 48 61 3d 8c b5 d8 3f
       -0.10718978352122244 0.3860807990469201
0007b0 d3 e9 66 8a 31 23 ba 3f 0d 1d 16 0f 16 b6 db bf
       0.10209951046900949 -0.4329886576965272
0007c0 1f cf c5 58 b3 cf d7 bf 4d db 03 56 77 ae ca bf
       -0.37205203694542094 -0.20844928455309245
0007d0 db ab 2a e6 f9 65 b9 bf 37 01 be 5a 07 92 c5 bf
       -0.09921228284171894 -0.16851894312640933
0007e0 1a df 77 f4 90 ab 79 bf 47 c8 09 ac 42 62 d9 3f
       -0.006267133932389668 0.39662234116179146
0007f0 82 3d 92 a4 11 a4 ce 3f 13 d2 c8 f1 b2 23 a1 3f
       0.23938198600488297 0.03347548676939396

seq.0.bias f8 [100]
000000 f5 5f a6 0c e5 76 d2 bf fc 61 d2 7c 67 02 d0 3f
       -0.28850675807325327 0.2501467436755147
000010 69 78 3f 0b bf 6a cc bf 3f 2f 26 65 09 54 d4 bf
       -0.22200763749328026 -0.31762919309470655
000020 eb c6 de fd a9 71 c2 bf 9d 1c 78 d2 72 ac dd bf
       -0.14409375091559382 -0.4636504226077223
000030 78 e5 f5 cc 6b 5f b3 bf 4a 3c 4e ed dc 49 96 3f
       -0.07567476037902121 0.021766139968857602
000040 cd fe 84 d1 0f 24 c3 3f fa 70 31 5a 03 f9 de bf
       0.14953801851696938 -0.4839485531608855
000050 9f a2 34 b2 f9 5f c0 3f c0 9d a8 e2 35 46 c9 bf
       0.12792893601842523 -0.19745515410725822
000060 0a e1 78 e3 af 7d c1 3f b2 6d 94 7f 12 f4 ba 3f
       0.13664816481628633 0.10528674711934263
000070 d1 09 62 0c 4f d8 d9 bf 00 54 ce 8c 5c 72 d5 bf
       -0.40382744035028134 -0.33510507345755514
000080 9c 56 6f 21 2a 52 c8 3f 6c ef 69 4a aa 74 ad 3f
       0.19000746376575683 0.057530709823338494
000090 d0 f5 b7 71 f1 b6 d8 bf 23 0f a3 6c ca 57 da 3f
       -0.38616596322375774 0.4116083203227722
0000a0 6a 3a 21 4e 20 f9 bd bf c3 94 5d f9 c1 82 95 3f
       -0.11708261401620637 0.02100661358362711
0000b0 ae 24 75 67 98 9a d6 bf 26 a3 44 88 30 c9 ca bf
       -0.3531857500389134 -0.20926481870380903
0000c0 57 91 f9 d8 ad 1e d1 bf 2c dc 3b 85 d2 8c d3 bf
       -0.2674975031752828 -0.30547011386028333
0000d0 0b c1 9d e5 c2 3b cb bf 99 89 cb 81 a3 0d e1 3f
       -0.21276127063493563 0.5329148802814415
0000e0 16 74 22 1a 8b e5 9a 3f 01 ab 0a 65 d1 da da 3f
       0.026266263456467064 0.41960558764792216
0000f0 1f a4 cf b5 e1 a5 d6 bf cd 1f 2b 09 1e d4 c8 3f
       -0.35387461428632777 0.1939733071105806
000100 05 24 b3 14 bb 80 d4 3f fa 8f 33 a0 15 f8 d8 3f
       0.32035710355245356 0.390141874739356
000110 02 22 4d 3a d8 64 c6 3f d3 92 b4 d8 33 07 db 3f
       0.17495253416770146 0.422314607263883
000120 8a 26 c4 14 ec ab c1 bf 6d a9 ed d6 ff 1d da bf
       -0.1380591489217305 -0.40808101643656053
000130 d0 07 94 06 a5 78 c9 bf d8 3d 95 c7 e2 46 ba bf
       -0.19899428197100955 -0.10264413235312675
000140 2e 7f c2 84 56 51 cc 3f 19 b3 5a b9 6f bd ba bf
       0.2212322376481039 -0.10445307040454245
000150 ed 23 f8 7b 6c 26 df 3f e4 63 e6 e1 73 a3 cd 3f
       0.4867202005994489 0.2315506794955403
000160 df 1e b1 ad 16 d1 c9 3f fb d3 19 6b 92 ba da bf
       0.2016933773140783 -0.4176374479205262
000170 47 53 18 3a e0 06 c4 bf 43 43 98 94 f6 fa 96 3f
       -0.1564598354022115 0.02244172365141429
000180 7f 78 3c b1 f4 73 d4 3f c6 fc e7 f8 7b 53 cc 3f
       0.31957738216613757 0.22129773763297161
000190 94 20 eb 11 ae e1 a1 bf 12 cb 62 29 6f 3e a8 3f
       -0.03492492645961068 0.047351335336676695
0001a0 40 34 54 d4 f8 e2 ce 3f f3 15 b7 be 27 8a a3 bf
       0.24130163543341787 -0.03816341593805452
0001b0 08 1e 09 48 9a 92 d5 3f 5b f5 99 b6 8f 79 c0 3f
       0.3370729163620756 0.12870975891193379
0001c0 81 24 13 34 1d b8 be 3f f5 1b 6c 8c c2 a9 c7 bf
       0.11999685784680204 -0.18486816269452758
0001d0 f5 ec bf 55 9e fa cc bf 34 10 34 ed 9e 5a 97 bf
       -0.2263982695293191 -0.022806628444428337
0001e0 7a 15 eb e4 ae 9f d6 bf 35 f4 27 3a 52 92 b7 3f
       -0.3534962878732909 0.0920764343245118
0001f0 4b d1 51 cb ee 8f ca bf d8 65 dd 30 f4 fb 92 bf
       -0.20751748016085467 -0.018539252741310935
000200 24 3b 39 ee 22 c7 cc bf 8d 83 ba 0d 3d a0 dc 3f
       -0.22482716209420872 0.4472801813190522
000210 83 56 a9 9b 38 d2 a2 bf da e2 e3 9e 8b 70 b7 bf
       -0.03676010990299707 -0.09156105641512671
000220 8b 73 8e db bb 4f d7 3f 9a b4 4d e5 92 cc d3 3f
       0.3642415660959208 0.3093611945431093
000230 3a e8 a2 46 a9 b6 cc 3f 75 d3 9f 64 d9 37 ce 3f
       0.22432437848130055 0.23607938206955806
000240 7c 16 0a 16 eb 7d d6 3f 8a 56 3d 49 d7 85 c6 3f
       0.3514354434231348 0.17595950199272564
000250 90 02 74 85 20 a6 db 3f 75 1f 5e 10 f8 93 d6 3f
       0.43201458961997563 0.3527813110199454
000260 50 7f e3 a0 63 39 aa 3f 11 ec df 41 59 18 b8 bf
       0.051219094648102925 -0.09412153108853284
000270 68 ce 22 b6 96 76 da 3f 58 c2 9f a2 45 26 de 3f
       0.4134880808516983 0.4710859382749155
000280 69 c0 c9 70 7f 54 a2 3f ae 07 41 b0 c9 4b cc 3f
       0.03580091716583029 0.22106286150125015
000290 8f 99 e8 43 e1 2d dc 3f e9 a5 21 10 60 c0 de 3f
       0.44030028945635363 0.48049165320716597
0002a0 41 f1 23 fe 97 6d b0 bf 0c 55 6f 69 21 0d db bf
       -0.06417226748084649 -0.4226764230382549
0002b0 b5 1c 65 94 16 3c d0 3f b2 08 e4 5c a1 03 cc 3f
       0.2536674927873251 0.21886078868562248
0002c0 32 da 7f 61 1a 4a cc 3f 96 0b 45 a2 52 87 d5 3f
       0.22101144562448521 0.3363844475426786
0002d0 fd 19 57 79 2c ce c2 bf 31 68 d3 44 49 ee dc 3f
       -0.14691692280594273 0.45204383584280367
0002e0 12 4b 2b dd b7 b7 91 bf 69 1c b5 20 7d b8 da 3f
       -0.017302391885844655 0.417510301533588
0002f0 4a 2d 8e f9 1a 77 d6 3f 7d af 39 01 89 e5 a8 bf
       0.3510196148933643 -0.048626214408471015
000300 8b 61 8b 34 c3 68 b6 3f d4 8b e4 89 1a a1 7d bf
       0.08753604920219098 -0.0072337185540929
000310 fd 6c 6b 2f 5e 39 bd 3f 0e c7 a6 9b 6a 3d 65 bf
       0.11415661485391478 -0.0025927622020497426

seq.2.weight f8 [100, 100]
000000 9a 30 c5 78 6e 3b 9c bf 9d 2c 3d 2c ae f7 b2 bf
       -0.02757046329615829 -0.07409180240681441
000010 42 89 c3 d3 f9 69 b7 bf dd 3b 28 58 d9 40 b2 3f
       -0.09146081371321649 0.07130201723360537
000020 ed 2b f6 1a 6c 02 86 bf 09 08 a9 57 c7 90 b5 bf
       -0.010746807644656154 -0.08424039735930945
000030 8e 52 c4 8c 00 40 6e bf ba 3e c9 e6 a9 57 b6 bf
       -0.0036926279773388864 -0.08727514156748387
000040 d9 6c ff 0e 65 41 b9 bf 63 43 3e 33 5c b5 b7 3f
       -0.09865409485012168 0.09261108637862274
000050 5b 63 5e 0a 11 2d 99 bf 48 05 2a 09 b2 08 b8 bf
       -0.0245859778002314 -0.09388268207296335
000060 c7 87 82 92 40 f6 a8 3f 51 f5 f4 1f d5 df 84 3f
       0.048753755459315644 0.010192551648851607
000070 e1 93 18 9a ae 50 b7 3f 22 e8 cd ff 74 55 af bf
       0.09107486021146328 -0.061198860384095846
000080 59 eb 82 4c cf a5 9c 3f 60 fc 6e 63 8f 73 ac bf
       0.02797626404274509 -0.05556915367878257
000090 3c d4 82 a7 9a 66 a8 3f a0 40 2e 49 d3 23 b3 3f
       0.04765780730068811 0.07476540123593844
0000a0 39 1e ba 59 17 2f 92 bf 87 ae 22 7c 94 2e b8 bf
       -0.017757763720992 -0.09446075468684444
0000b0 4f 8d d2 9c 0d da b8 bf 4d 9e 54 7b 34 57 ab 3f
       -0.0970772273890834 0.05339969640254747
0000c0 2c 0e fe a4 31 8d a1 3f 34 08 08 bb 7d cd 9f bf
       0.03428034915034703 -0.031057323971261222
0000d0 b1 0a 52 4e 07 8b a0 3f 53 90 68 4f 7c ad 96 bf
       0.03231070357380384 -0.022146169993121422
0000e0 a3 25 28 78 ab 51 ad 3f 14 91 11 bc 3b 09 ab 3f
       0.057263716142254915 0.05280481978187104
0000f0 56 7e d3 ae bc 61 76 bf 11 aa 78 2b 88 ce 90 3f
       -0.00546430305732278 0.016412856725006423
000100 d4 c6 e7 45 9d 16 a5 bf a9 66 c4 38 47 cd af bf
       -0.0411881587823594 -0.06211302345236664
000110 4a 07 20 a7 b0 59 b9 bf 1d bd 5d 4a 0a 48 a1 3f
       -0.09902481155589019 0.03375274808683513
000120 bf 03 f5 16 82 49 a4 bf a4 40 6c 61 7a e8 9d bf
       -0.039623322775248486 -0.029207145878047527
000130 4c 79 a7 37 2b 42 ab bf 68 7d 9d 49 81 5b b9 bf
       -0.053239203017926146 -0.09905250594373671
000140 02 b8 4c b0 1d 23 95 3f c2 b8 6f d8 1b e7 b6 bf
       0.02064176929996365 -0.08946393999187577
000150 c8 5d 94 72 dc f1 89 bf 6f ba c9 5b e8 97 b6 bf
       -0.012668344732943107 -0.08825542679708474
000160 fd a3 ff fd 85 17 b1 bf f2 5b 31 1a f8 f8 9b 3f
       -0.06676518870484922 0.027316929434473232
000170 b2 67 76 8a c5 4e b9 bf dd 92 20 da 14 f6 b0 3f
       -0.09885820990021335 0.06625490498897642
000180 56 c2 c5 23 62 ea b4 3f e9 46 28 63 51 46 b2 3f
       0.08170140622474639 0.07138546629746724
000190 d1 be 5e f1 18 8f b4 bf ab fb cb 5c 6d 0a 92 bf
       -0.08030849354576765 -0.017617901600711566
0001a0 e1 9d 5a b7 1a c9 b5 3f 50 ec 0d f2 9a 50 b9 bf
       0.08509985901274987 -0.09888618859797416
0001b0 57 fd 5b e6 6b 4b b0 bf 8b ea 20 20 98 f4 b4 3f
       -0.06365084051139057 0.08185721191777355
0001c0 a9 9b 3f 17 97 47 b1 3f 35 18 25 05 ef 97 85 bf
       0.06749862973775457 -0.010543696732053668
0001d0 53 d7 c4 62 9a a3 a8 bf 99 a4 08 36 02 ec a7 bf
       -0.04812319236445597 -0.04672247800437752
0001e0 d3 c0 da dc de b8 b5 3f 5b 77 7e 25 e2 c6 a2 3f
       0.08485215084033663 0.03667360980692421
0001f0 4c a7 3e ff 1a da b1 bf ef 91 2f a1 81 c9 99 bf
       -0.06973427516518632 -0.025182748282434216
000200 06 97 d5 d1 3e d5 b1 3f 12 99 6d 91 be b6 b0 bf
       0.06966011641415201 -0.06528845835200439
000210 f2 4e 16 92 ca ad 8b 3f 0f 93 38 52 70 c0 b1 bf
       0.013515074332452557 -0.06934263236378178
000220 a1 2a 52 2c 52 2d 8b 3f aa 10 62 c5 bb 25 b6 bf
       0.013270036675995302 -0.08651326722071198
000230 0e e8 fc 60 d2 e2 b6 3f 7f c3 9d d8 17 7a 3e bf
       0.08939852588528671 -0.0004650409906537464
000240 11 12 fa 97 81 f2 85 3f e9 13 cd 3b ea 24 84 3f
       0.01071645016714576 0.00983603472708157
000250 4c c3 dc 14 86 c1 b6 3f cf 1a 62 d7 bd c2 86 bf
       0.08889043816885794 -0.011113627562975207
000260 84 64 2e c2 85 e8 89 bf e9 e4 cf 19 a7 91 b5 bf
       -0.012650532711449232 -0.08425373439958474
000270 62 fe 20 f9 c7 0e b4 bf 25 c1 8c 83 20 e2 af bf
       -0.07835054237602315 -0.06227208715279379
000280 41 a7 a0 27 7b aa bb bf 7b 82 4a 70 83 ef 7e bf
       -0.10807008473844083 -0.007552636558700083
000290 13 1e 59 4c 4b 17 96 3f 83 71 ef 98 42 d6 b3 bf
       0.02157323506824411 -0.07748810037396052
0002a0 f6 08 f5 9a 87 c0 ab bf 83 32 94 ad 91 0f b6 bf
       -0.05420326010291092 -0.08617506492391595
0002b0 83 f3 56 8c aa df b0 3f 99 c6 99 90 1a 12 a9 3f
       0.0659128754259211 0.04896624579568005
0002c0 3f 65 52 c6 49 83 b7 bf 89 74 cf 9e 61 17 a9 bf
       -0.09184704868166181 -0.049006510387450915
0002d0 b8 53 a4 f1 05 7c b8 bf 93 fc 5a 1c e8 e7 b6 bf
       -0.09564244412861356 -0.08947611515303526
0002e0 08 2a 75 e7 34 37 9a 3f 14 1f 56 20 8d c2 a4 bf
       0.025601221682601177 -0.04054680843097294
0002f0 04 88 24 da 1a e1 b4 3f 4c 77 64 95 16 bf 8e 3f
       0.08155982805013201 0.01501290934953272
000300 4a f8 7e 08 dd c8 a0 3f d0 61 1a b0 9d b2 af 3f
       0.03278246620855947 0.06190960669227119
000310 c3 48 68 fe 7e 51 b7 bf af fb 60 69 ee c8 85 3f
       -0.09108728133313364 0.010637152281672472
000320 3d e8 3f c4 f5 24 8f bf 1d 9e cd ae bd f6 ab bf
       -0.015207214404643671 -0.054616859043388845
000330 25 ef e1 54 fb c8 b5 bf 8f fa aa 80 1d 2e a2 3f
       -0.08509798834159861 0.03550808139470007
000340 e3 ca c4 6c d4 13 90 3f 38 5b 01 3f 67 7d 8c bf
       0.01570064462539279 -0.01391106282259856
000350 c1 c1 c8 9b 38 de 73 bf d4 ff 8d 2b a9 c4 b0 3f
       -0.0048505984564574675 0.06550080598208236
000360 cf c7 ad c2 41 df b0 bf eb c9 db da af d1 68 bf
       -0.06590662959004522 -0.0030296740213711
000370 ec 2e 92 e5 a0 4a 62 bf d9 5f c6 2d 72 f5 9b 3f
       -0.002232851268279981 0.027303489726904082
000380 65 2d ec af bb c0 b5 3f a2 72 2b 7d 64 1a ae 3f
       0.08497212452873766 0.05879510906172426
000390 74 ca 7b 7c c6 68 6e bf 21 63 2a 4d 8f 63 b9 bf
       -0.003712070148929764 -0.0991754115479009
0003a0 48 d6 6a c6 b5 29 99 bf 74 08 7c 62 07 f2 b3 bf
       -0.024573173747475502 -0.07791181711584888
0003b0 85 67 a9 21 86 ae 93 bf b6 24 2b 88 46 c3 ab bf
       -0.01922044353918963 -0.054224208948264005
0003c0 31 3f ba 15 09 d0 b1 3f 77 ba 8c 2c 32 48 68 3f
       0.06958061962563701 0.0029641132317899626
0003d0 c9 e8 6b 32 a9 14 b0 bf 51 1a ab 16 27 83 a7 3f
       -0.06281526070589218 0.045922490613112495
0003e0 68 09 fe 05 53 da 81 3f 5f cf cb 16 61 a1 b4 bf
       0.008717201824542456 -0.08058745199724403
0003f0 c8 de 46 c5 63 5a bb bf cd 45 ea a1 c9 11 b6 bf
       -0.10684798780755067 -0.08620891764646572
000400 5b 32 72 4d 38 d6 88 bf 9d 74 df 5b af 2c bb bf
       -0.01212734209391291 -0.10615058892240588
000410 bc 94 df 67 1b 10 b5 bf 3e e1 6b a3 e9 c0 a8 bf
       -0.08227702413531096 -0.04834680671587187
000420 5f 9c c6 8b a9 96 af bf 58 f4 24 82 b6 4b b9 3f
       -0.0616963370442185 0.09881153752663019
000430 10 42 22 3c 2d 84 9e bf 9a cb f5 81 ce 66 93 3f
       -0.029801089091565258 0.018946863824975325
000440 9d f5 2d fe 3d 79 87 3f fe 40 31 ba 77 96 ab 3f
       0.011461719817584643 0.053882352331699565
000450 80 aa 9e 78 af 03 af 3f a7 b4 89 f7 d7 f0 a4 3f
       0.060574992632003166 0.040899991004019136
000460 65 c7 d5 49 7f 05 ba 3f b8 7b 32 1d 87 3e b5 bf
       0.10164638092626672 -0.08298534834692262
000470 96 8d 36 9d 87 ec a0 3f 6a 55 61 aa f0 00 9b 3f
       0.03305457872491073 0.026370773696119988
000480 b9 c7 af 25 52 4d 85 bf 34 5b 9f ee 2e c6 87 bf
       -0.010401384139161128 -0.011608473450832692
000490 31 4d a3 ab c4 82 9d 3f 7c 44 10 07 34 38 8c 3f
       0.02881915376276573 0.013779074159204756
0004a0 bf b5 34 2d d7 70 b3 bf 8b 64 db 49 77 ae 4e bf
       -0.07594055989894509 -0.0009363253081701312
0004b0 06 6f ad 04 45 d7 8d bf ca 82 ae 10 e6 94 76 3f
       -0.014570750432248324 0.005513094608347211
0004c0 be ba 24 7e 4e 2f bb bf 0f 7c 4d 3b 3c 1d a5 bf
       -0.10619059161829633 -0.04123867248448942
0004d0 f7 35 4a b0 a3 5e a8 3f 1f 0d c7 6b 7a d4 99 3f
       0.0475970413873305 0.025224602535456882
0004e0 68 5c 67 69 01 f1 b7 3f 0e a1 af 6d 39 43 b4 bf
       0.0935212023099311 -0.07915076187021361
0004f0 c6 bb 36 7f f4 13 a9 bf 2e ad f8 5d 39 d5 a1 bf
       -0.04898037007239213 -0.03482989570724225
000500 90 77 d7 a1 f9 a7 a7 bf 74 ff b3 1f 2e d0 b4 bf
       -0.046203423505843166 -0.08130157732011672
000510 47 b9 a1 25 c2 17 b5 3f 8b 98 e3 de ce 54 a5 3f
       0.08239377421134463 0.04166265936673693
000520 d5 56 53 9c 8e b1 b0 bf e9 6f 9d 7b c6 20 ac 3f
       -0.06520930592099757 0.054937555875511475
000530 93 44 0c d9 64 73 b5 bf 18 a1 e1 ef 0c 79 b6 bf
       -0.08379202174207227 -0.08778458458403227
000540 a6 95 a0 11 49 cf a5 3f bb e7 bb f6 f5 0d b4 bf
       0.04259708728958893 -0.07833802484301959
000550 24 b4 a6 7d 35 ac b2 3f 1c 5e cc 6a a9 a5 bb 3f
       0.07294020002036966 0.10799654824619903
000560 bb 2e 66 3c db 4e b9 3f ff 62 4d dd 1b 8f a1 3f
       0.09885950302685391 0.03429495884365074
000570 09 81 4b 38 93 20 be 3f 4f 3c bd 8e ae c6 a1 3f
       0.11768455623996855 0.03471894733831304
000580 1d d9 1b 23 79 b7 b4 3f 37 ba 7b e4 78 d1 a9 bf
       0.08092457873485555 -0.05042627133467586
000590 b0 15 db dc 21 85 aa bf 19 34 a7 d7 cc 48 ae 3f
       -0.05179696866029404 0.059149171185346634
0005a0 69 64 92 24 d0 14 b8 3f 92 14 d2 e1 22 f0 8f 3f
       0.09406758206240941 0.01559474231386052
0005b0 fe 06 d2 e0 f8 58 b9 bf ea e9 42 12 83 9c ba 3f
       -0.0990138577344872 0.10395068355402484
0005c0 33 2b 75 1e 84 df b2 3f 76 41 80 a7 11 67 92 bf
       0.07372308486553152 -0.017971301887941014
0005d0 c3 54 a0 9b d4 c9 a9 bf 94 02 f3 40 b0 30 b5 3f
       -0.05036796951041247 0.08277417741465803
0005e0 64 df 5d 1c ee b9 a6 3f 50 64 ee 76 6c 89 80 bf
       0.04438728424332686 -0.00807461488675379
0005f0 d7 95 65 bf 74 5c b3 bf 94 bd a6 c0 83 26 95 bf
       -0.07562951729558819 -0.02065473426199345
000600 59 cd c7 a2 d2 1d 8a bf e5 2f 57 68 fc f4 a3 3f
       -0.012752194969812324 0.038978469597708267
000610 11 7c 3e 0f 7b 65 a0 bf a5 16 d1 43 b3 41 b7 3f
       -0.032024236307954486 0.09084625631029526
000620 4d cb fa 54 38 51 b8 3f 83 d5 7d 6c 0c 22 62 3f
       0.09498931956003993 0.0022135012295005376
000630 ee 55 e4 10 38 05 b3 bf f5 20 81 85 0f e9 85 3f
       -0.0742983857383803 0.010698434125643955
000640 00 89 15 54 32 06 ba bf 33 b8 f9 9a 7b 9b 8f bf
       -0.10165705254397395 -0.015433278719879073
000650 4d ed 74 b3 dd ce b1 bf 37 0c e6 c9 5a 6f b3 bf
       -0.06956277495640002 -0.07591788701215384
000660 ac c1 41 61 8a 5f a3 bf fd 31 b3 82 0a 0a b2 3f
       -0.03783829152314708 0.07046571436803357
000670 74 b6 c8 d2 82 5d ae bf bc 92 0c 16 6c 0b a9 bf
       -0.059307182531807806 -0.04891526955751632
000680 19 f9 83 6a 43 46 9f 3f 20 8a 17 c2 82 e9 b6 bf
       0.03054147088641299 -0.08950059164593727
000690 45 96 3d bc 77 b3 b4 3f 0e d1 8f af a3 32 7b bf
       0.08086346002308982 -0.006640090367899155
0006a0 60 6d 33 49 d1 30 ac 3f 58 27 1b 77 8b 74 94 bf
       0.055059948144583926 -0.019975833077104127
0006b0 c8 b3 64 6e 5a 73 b5 bf 11 0a fd e1 11 ed b0 3f
       -0.08379140086317627 0.06611739890380643
0006c0 ac 03 e4 c1 49 9b a8 3f 45 8e c0 b4 1a 23 b1 3f
       0.04805975429372408 0.06694189942259594
0006d0 33 0e 83 3e f4 27 b6 bf 41 b7 43 13 ee 6a b9 bf
       -0.08654715086145685 -0.09928787203145097
0006e0 33 c1 c4 85 d6 00 99 bf 0f 5a b0 ce 48 bb b2 3f
       -0.02441725913485122 0.07317023321261494
0006f0 35 bd 5e 35 84 29 99 3f cd 06 9b 7b fb 0d ad 3f
       0.024572435147715416 0.056747301901408066
000700 da 7f fb 4e 0e a8 b0 3f 3d de e8 b4 00 62 7f bf
       0.06506432941705445 -0.007661822090589574
000710 d0 81 8f 9e 63 8f b2 3f 73 4d d1 ae 4a d0 8a 3f
       0.07250044461353089 0.013092597446450615
000720 e3 f3 8c 74 2e fc 9e 3f 90 ce 81 ba 93 ef a4 3f
       0.030258870948490012 0.04089032794663894
000730 b9 80 ff 49 49 75 b8 bf 25 4c a6 f8 50 74 a2 bf
       -0.09553964668839655 -0.03604367289803915
000740 d1 3c fc 52 15 1b 9d 3f 5a 27 8f c6 02 74 89 3f
       0.028423627080937323 0.012428304371400568
000750 97 99 b1 3d b9 53 bb bf d6 a1 7a 48 f6 6c b8 bf
       -0.10674627071566643 -0.0954126288367044
000760 f4 3a 93 42 ed b0 99 bf 5a 11 90 af f1 a3 52 bf
       -0.025088984669134853 -0.0011377201283276545
000770 7a 38 52 09 d8 e3 ac 3f 97 7f 41 01 13 45 ae 3f
       0.056425810945356994 0.05912074461298216
000780 85 4a a6 36 d1 11 b2 bf 04 92 6f bf ef d5 ba 3f
       -0.07058436950891618 0.10482691215253942
000790 a3 2e f8 37 63 7c ae bf 64 40 58 14 ef ca a2 3f
       -0.05954275186749427 0.03670451281880174
0007a0 98 cb f9 02 5e 8f b7 bf 02 ca ff ba 01 e3 9e bf
       -0.09203136036539517 -0.030162837065242705
0007b0 8b 47 6a 56 33 65 c1 bf 94 9c d9 42 2a f5 9f 3f
       -0.13590089530458402 0.031208668070033044
0007c0 d3 ad 4a d9 1e 01 a5 bf 0a f8 7f e7 0f 08 a4 bf
       -0.041024173760287795 -0.03912400914121868
0007d0 21 a8 95 23 de 5d b7 3f 4e 5f 21 63 f5 40 a5 bf
       0.09127605789913719 -0.041511219359277804
0007e0 3a 90 41 77 8c d4 a5 3f a5 0d 94 88 65 a3 90 bf
       0.04263724284899735 -0.01624830862148276
0007f0 01 7f 23 fa 5f 72 ab bf f3 39 73 15 0a 4f b8 bf
       -0.05360698631716155 -0.09495604537662654

seq.2.bias f8 [100]
000000 f2 83 34 4e c8 ca 9c bf 38 49 9a ba ff 31 92 3f
       -0.028117303632033193 0.017768855823825563
000010 d8 c5 9b 73 b8 72 bc bf 4a f7 87 da 34 2d af bf
       -0.11112549612496225 -0.060891772915040734
000020 3b a2 95 28 82 6e b9 bf ca e9 4d 0d 89 e5 a8 3f
       -0.09934247485001262 0.04862621581465339
000030 09 52 bb 16 6c 70 96 bf 32 70 59 28 da 42 77 bf
       -0.021913231742319215 -0.005678989580328463
000040 6f 33 70 8c bd 0e b0 3f 37 33 0c 70 cf 17 97 3f
       0.0627249210230738 0.022551766599508496
000050 2b cf 83 95 53 ce b4 3f 25 d9 10 05 37 5d 96 3f
       0.08127329254403708 0.021839961704437933
000060 18 73 62 0b 4b ab b6 3f 9b 30 39 93 5c f9 8a 3f
       0.08855122592872211 0.013170932047750042
000070 9f 98 dc 05 20 43 81 bf 3b 3e 51 b2 ac 8d b8 bf
       -0.008428812197575573 -0.0959117827744586
000080 12 9b 0d ab e6 29 9c bf 56 54 97 06 2b 4d c1 bf
       -0.027503589811568814 -0.13516748258431005
000090 c9 df 02 f4 83 4a b6 3f 97 7b 6b 95 94 99 b2 bf
       0.08707451541238166 -0.07265595100351017
0000a0 d2 12 61 b9 73 06 af 3f 93 e8 5f 09 3a f3 b6 bf
       0.06059610021524055 -0.08964884499428853
0000b0 11 a1 e0 6a df b5 b3 3f 78 f6 cd a6 ab aa b1 bf
       0.07699390754044468 -0.06901047537209049
0000c0 ff 0b 3c 41 63 8a 87 bf c6 85 01 33 aa 7a 4d bf
       -0.011494422367382738 -0.0008996325541483156
0000d0 83 70 f5 a7 05 31 8c bf fe de 44 f6 78 49 6e 3f
       -0.013765377224153724 0.0036971437968097423
0000e0 d2 6e 22 c6 b8 3f b6 bf f4 1f 36 34 96 d9 aa 3f
       -0.08690981709736015 0.052441305039849256
0000f0 a8 b5 3e 05 f6 91 a3 3f c1 d5 1f 69 b2 4d aa bf
       0.038222969188932254 -0.05137403043037692
000100 a0 35 f2 90 2b 63 ac 3f b1 9a 2a 13 1a 3b ad bf
       0.05544410843240688 -0.05709153636899112
000110 93 9a bc 25 07 a1 aa 3f e0 74 62 c1 b4 5d 8e 3f
       0.05200979552892195 0.0148271676555915
000120 ef 0a 23 5a 84 9b af 3f 43 c2 d3 d9 0f d1 a2 3f
       0.06173337555221347 0.03675126585028867
000130 46 86 0a 12 4d 6d b6 3f 5b 40 22 06 41 40 be 3f
       0.08760530176598377 0.11816793823004572
000140 0d f2 fb fc 7b cd b1 bf 50 a4 78 5f e7 e7 b7 3f
       -0.06954169203158518 0.09338232117501488
000150 3a f1 4e 28 50 9c 96 3f d3 54 54 d3 e6 4b 8f bf
       0.022080662212588843 -0.01528148968149382
000160 7e cf d6 6c 15 1d ba bf 29 f4 49 b3 f3 85 c3 3f
       -0.10200628192143132 0.15252538923587736
000170 b0 ed 90 b8 52 9e b0 bf e5 39 1d bd 26 b6 a5 3f
       -0.06491581922539669 0.04240532930872457
000180 52 4c 95 15 08 83 9f 3f 52 bb ca 92 a6 79 9d bf
       0.03077328330739377 -0.028784373006313153
000190 c3 d9 79 bf 8d c3 96 bf 5c a1 c1 57 87 37 ab 3f
       -0.022230353175894068 0.05315802522892696
0001a0 89 c9 32 9e da 3a a5 bf 49 42 10 e0 77 aa b0 bf
       -0.04146464520580923 -0.06510113926220486
0001b0 70 e5 e0 2d 9f 26 b9 3f b9 95 84 0c 83 d0 bb bf
       0.09824557180481519 -0.10865038924801852
0001c0 40 21 07 f5 e9 b1 a4 bf 7e 24 ed 35 c8 ab ad 3f
       -0.040419875298143726 0.05795121820717329
0001d0 5c 77 27 07 98 c8 b5 bf 5d 4b d7 2d ad 7a a5 bf
       -0.08509206938421471 -0.041951572271179606
0001e0 48 de 2f e8 54 81 ba 3f ca c5 1d 07 f2 5c b2 bf
       0.10353594463946891 -0.07173073457467818
0001f0 54 2b 3b 0e 5a c5 c5 3f ae 03 e9 f5 c2 5c b1 bf
       0.17008519835357083 -0.06782167915026946
000200 ee 45 5d c6 49 af 98 bf c9 7d 56 15 5c 21 a9 3f
       -0.02410617135257625 0.04908263931724439
000210 48 fe e2 40 d0 82 a4 bf e0 a9 fa 9a b1 ee af 3f
       -0.04006052772592433 0.06236796395144828
000220 9e cf dc 8f 7e 9a b3 3f 5b 95 a3 6d 12 85 a2 bf
       0.07657614719647518 -0.036171508678118434
000230 28 85 c2 06 91 3f c3 bf 21 9b c0 91 ff 8d a9 bf
       -0.15037739591665766 -0.04991148618892383
000240 67 f3 a7 40 a2 46 b8 bf 8d d9 e9 7b 38 aa b2 3f
       -0.09482778624074016 0.07290986085158675
000250 35 39 bd 81 26 2d 86 bf 5b 55 e4 8a e5 03 ad 3f
       -0.010828305086445592 0.05667035408456896
000260 e5 fa 51 02 8f 9a a5 bf 7f c0 3e 24 bf 48 b2 3f
       -0.0421948137600248 0.07142252573862783
000270 20 18 26 88 6d fe a6 3f ec 82 51 54 67 72 ad bf
       0.04490988051388478 -0.057513455431722565
000280 f9 49 9e 51 cd 5a 86 bf 44 07 2e 1e b0 87 b7 bf
       -0.010915378621381132 -0.09191418396769985
000290 f0 c5 60 96 94 c3 a4 bf 59 6a 58 38 36 a4 65 3f
       -0.040554660183612756 0.0026417788492499148
0002a0 7b 83 dd f1 3e 38 a3 3f a6 24 ff 69 15 8d a2 bf
       0.03753849699456332 -0.03623263281731086
0002b0 b4 8b 94 a8 b8 34 9a 3f d1 36 fc a7 ef f5 6b 3f
       0.025591740884134587 0.00341316993570371
0002c0 fa 23 ee 2e df 4c c0 3f b5 11 00 f9 78 52 82 bf
       0.12734594146266415 -0.008946366404423903
0002d0 0d 15 54 00 46 87 b9 3f dc ed 51 8b 68 ea 6a bf
       0.09972035892504412 -0.003285602748801726
0002e0 aa 40 2b f4 0b 90 92 3f 74 3f 7d 1c f2 76 a2 bf
       0.018127619531526896 -0.03606373403329047
0002f0 28 59 b8 65 37 59 be bf e3 6d 2d e4 25 41 97 bf
       -0.11854883416558393 -0.0227094574469059
000300 a1 36 c8 70 67 fb b8 3f a9 5a 6f 28 69 46 b3 bf
       0.09758612159222448 -0.07529313313657816
000310 0a 10 67 62 c2 41 91 bf b6 d1 47 2c 5b bf 9b bf
       -0.016852414375321735 -0.027097153260869887

seq.4.weight f8 [2, 100]
000000 dc 97 25 51 0a ec af bf 44 22 06 9f 60 ec c5 3f
       -0.06234771957933535 0.17127616658059897
000010 d7 92 eb f5 0e ab c4 3f a7 b3 1f 99 dc 80 c3 3f
       0.16147028930494997 0.1523700473475433
000020 ba 80 f6 dd a0 f8 d6 3f f8 36 e3 50 44 1b b1 3f
       0.35892507244171734 0.0668223092536343
000030 bb 2e 28 ca 2c 10 9c bf 60 7e 6f 5d f8 2b b5 3f
       -0.027405452574426486 0.08270218163624454
000040 9a 32 49 e1 82 2c b7 3f b0 e3 f0 13 f7 5a bc bf
       0.09052293777603851 -0.11076301800575439
000050 ef df ad 0b 5e e8 ab 3f c1 34 28 5a 2c 38 dc bf
       0.05450719730919206 -0.440928543132781
000060 80 35 b2 dd 01 6f 97 3f e7 cd 88 61 dd 14 aa 3f
       0.022884396702058662 0.050940435558370294
000070 b3 a2 d6 c2 1b 12 da 3f df 6d 4f 99 68 c4 cb 3f
       0.4073552515715548 0.21693141446927108
000080 bd a2 f5 a1 b3 97 a1 bf f9 8e 97 04 bd b0 c8 bf
       -0.034360517044495144 -0.19289362644405353
000090 ce f6 dd 85 68 ce df 3f 73 ed c3 20 77 d5 cf 3f
       0.4969731623931296 0.24870194530363285
0000a0 e2 2e c1 39 98 17 e0 3f 25 f1 95 a3 f5 f0 d1 3f
       0.5028802040119127 0.28033200240294526
0000b0 f9 6b 97 7b 74 7d cd 3f 80 61 18 02 13 f3 92 bf
       0.23039108309498582 -0.018505379679568446
0000c0 70 a2 08 52 a5 cf b8 3f ce 9e fe 0c ca 08 d9 bf
       0.09691842320229127 -0.3911614539051528
0000d0 e2 05 54 9a 26 0b c2 bf 85 e1 cd 93 e5 06 ae 3f
       -0.14096529517705308 0.0586463683056904
0000e0 bb 76 f4 9a cc c6 a5 bf ae ea 13 0b 86 85 d3 bf
       -0.04253234283008341 -0.3050246341878545
0000f0 7b 6a 93 13 09 05 a1 bf ef 2a 7f 56 bc bd c0 3f
       -0.03324154247248586 0.13079027389024797
000100 57 b6 87 57 fa 58 b1 3f 73 cd b9 ca 1f 41 b9 3f
       0.06776394497838943 0.09864996623382698
000110 bd fb a0 4c 71 3a c4 bf 1c 8e 39 b5 ba e0 c1 3f
       -0.1580335258640541 0.1396706948172416
000120 b9 e0 0b ff 70 34 d4 bf 90 d1 fc 85 14 65 d4 bf
       -0.31570076853632717 -0.3186694439384832
000130 ac 17 e4 15 fe 12 dc bf de 38 0b 16 cd ee e3 bf
       -0.43865921151916143 -0.6229005270522767
000140 ec e3 8f 8a 67 72 bd 3f d6 68 83 8e c2 35 c9 3f
       0.11502692349303317 0.19695312460573317
000150 e6 f5 ae d1 dd 86 a2 3f 28 1f c1 3c 87 69 d4 bf
       0.036185199590800285 -0.31894093449635585
000160 05 99 7d 19 be 50 e2 3f 8b bd 41 06 25 68 c5 3f
       0.5723562715400311 0.1672407417822622
000170 ec 84 0f 10 3a dd be 3f 17 12 3c 25 c3 e4 bd 3f
       0.12056315319161443 0.11677188548134897
000180 2a 19 8a fe 73 de df bf b0 34 3e 02 55 91 b8 bf
       -0.4979524598824293 -0.09596759133110555
000190 97 c8 01 4c fe bc ba bf e7 86 61 3f 08 ff c8 3f
       -0.104446309620274 0.19528296561025302
0001a0 88 f9 42 6c 35 b1 d3 3f 1f 79 57 91 5c 69 c9 3f
       0.3076909596674331 0.19852788063776303
0001b0 7f e7 ea 1d b5 25 ca 3f 83 9a eb 4e 38 d4 dd 3f
       0.20427574120349942 0.46607787806571127
0001c0 d8 b2 1e dc bf f8 b0 3f aa 9d f1 d6 07 b1 c1 bf
       0.06629561542531393 -0.13821504588416406
0001d0 d4 2b cc 59 01 d7 9c bf 5b 79 f5 52 af 0b b1 bf
       -0.028163930040175547 -0.06658454680789332
0001e0 2c fc ce 93 8c d8 b3 bf ac 02 c1 50 d6 21 b6 3f
       -0.07752302750212497 0.0864538142350379
0001f0 84 f1 c3 bc bf a0 e1 bf 34 13 92 9a bd bb bb 3f
       -0.5508726775001809 0.10833344482132362
000200 25 90 d2 20 79 87 d0 3f 99 1e 40 e9 39 28 d7 3f
       0.25826862531016764 0.36183021334043414
000210 fe bd 9f 83 80 f1 c8 3f 27 6f 0e b4 9b ee dc bf
       0.19487005640938543 -0.45206348975783545
000220 9a c4 aa 6a d1 37 ca 3f b8 e7 53 50 a9 9e d1 3f
       0.2048284312091127 0.2753089222384193
000230 2f d9 85 a1 a7 1e c6 bf 08 5d cc 17 8b 74 d5 3f
       -0.172810510510041 0.33523824047138406
000240 9b 2f 1a 8f af 98 c2 bf 74 25 f8 b7 7c b0 de 3f
       -0.14528460013786745 0.47952192273859073
000250 ce 7b 42 ff 42 06 a8 bf e6 d9 ed 42 c7 ad a4 3f
       -0.0469227730366054 0.04038832370763483
000260 24 12 ea 40 28 8d d3 bf fa 52 ea 2c 4c b6 a6 3f
       -0.3054905542306037 0.0443595700100214
000270 60 c7 7f f8 84 2f a2 3f 66 46 36 98 66 b0 db 3f
       0.035518794378630814 0.432641647953551
000280 cb 89 5a 93 9d 46 ba bf 7c 8e ab 5f f0 41 d4 3f
       -0.10264000747205342 0.31652459471499816
000290 96 ad aa 2b 7d dc ac 3f 72 86 5c d3 b3 39 90 bf
       0.0563696971706477 -0.015845117354848566
0002a0 90 76 d8 ab 26 3b 90 3f d5 d6 5f d4 18 18 c6 3f
       0.015850643385525276 0.1726103817924726
0002b0 93 f1 4e e4 c5 ff bd 3f d6 e5 1d 34 f6 7b ba 3f
       0.11718403648314384 0.1034540059316876
0002c0 55 ff 98 52 4e 04 c3 bf e8 31 98 ec c2 f0 d5 3f
       -0.14856890709961115 0.3428199110501553
0002d0 90 9a 17 b4 c8 b3 d7 bf c3 6c 44 a7 bc 62 a2 3f
       -0.3703481444085037 0.03590955297314615
0002e0 1a c3 38 f4 24 f1 d1 bf 73 28 45 89 98 d3 c0 bf
       -0.28034328317430524 -0.13145739271778076
0002f0 69 f1 8b dd 77 83 d1 3f 4b d6 4c 6d d7 e8 c2 3f
       0.2736491836110618 0.14773075901909957
000300 5a b8 3f df 59 7e c1 bf 1b 1d 95 7d 6a 0b bb 3f
       -0.13666842842889332 0.10564294401148226
000310 64 39 91 3d d8 2a be 3f a1 c9 d8 5c 21 1d ab 3f
       0.11784125807864637 0.052956621726838245
000320 93 80 94 22 11 e8 af 3f 9b c7 a7 31 e7 26 b2 bf
       0.062317405196382535 -0.07090611421861441
000330 de 2a bd d6 e5 8c cf bf 98 31 9c f8 3e 7c cc 3f
       -0.2464873598604162 0.22254168643156613
000340 99 ca 38 d1 f0 9e a5 3f 7d d2 dc 6e 3a 98 98 bf
       0.042228246249938546 -0.024018204704776103
000350 b5 cd 7a b3 19 55 b8 3f 09 d2 e5 9d 93 27 bf bf
       0.09504852897480627 -0.12169764141965102
000360 66 8e 25 b0 4f 72 b0 bf 67 3c 04 96 32 b0 bd 3f
       -0.06424425173241274 0.11596981203568789
000370 53 ca c8 92 e5 10 d1 3f 3f 70 b5 6d d0 9f aa 3f
       0.2666562970581811 0.05200053538530413
000380 e1 0d 02 38 c8 91 b4 3f 0c 59 d1 b5 b2 a1 d4 3f
       0.08034945838340192 0.3223692679943191
000390 1f 52 fd 89 c7 25 a2 3f 65 3c 1d 6f c1 cc aa 3f
       0.03544448432390745 0.0523434112679915
0003a0 a0 b9 b4 b6 e7 6c cd 3f b9 ce b9 44 9a 0f d2 3f
       0.22988602086247756 0.2822023078108305
0003b0 4c 83 29 8e f1 c9 c6 3f d7 06 bd c7 ff 1e c4 3f
       0.17803782884132102 0.15719601872301922
0003c0 00 4f 9b f7 60 37 ac bf 8f 8a 67 ae 01 0b ac bf
       -0.05511000654737863 -0.05477147344551724
0003d0 1e d9 cd 22 f0 cb c7 bf e4 8b ae ec 92 4f c5 bf
       -0.1859111947957865 -0.16649090344171136
0003e0 f4 d9 77 c4 3e db ca bf dd 11 e5 40 b5 e6 99 bf
       -0.20981583207294785 -0.025294143758644572
0003f0 db d1 f5 9d c4 83 c1 bf 24 9f 7f 56 54 f1 c5 3f
       -0.13683374131109258 0.1714272901874604
000400 56 13 d4 a4 fd ae b3 3f 28 c3 b2 39 40 59 82 bf
       0.0768888976491103 -0.008959295044719776
000410 90 8b 9a e0 f2 11 d2 3f 01 68 d1 b3 c4 7a c7 bf
       0.28234550413088133 -0.18343409328628016
000420 86 20 1e b7 ce c3 c3 3f 36 a5 91 f6 1c 7e c5 bf
       0.1544130701188388 -0.16791116752146146
000430 fb 9e a1 26 28 12 bb 3f 2f 5a 02 61 c7 9f c2 bf
       0.10574580138347393 -0.14550106274391925
000440 d9 56 21 b1 1e aa a1 bf 39 9e 7c fe 71 6c b1 bf
       -0.03450103676065703 -0.06806099379593257
000450 6e f6 55 70 1f b0 9b bf a6 d4 4b 5c 61 0c b8 bf
       -0.027039042693550668 -0.09393890860868001
000460 7f 21 bf 83 97 c3 82 3f 34 5d 12 16 34 4c a2 3f
       0.009162124355399424 0.035737636274627255
000470 c9 b1 1e f8 f9 4f 9c bf 38 ee 56 a5 eb 46 c5 3f
       -0.027648835915600665 0.16622682164403257
000480 5d fc 93 bc f6 4d 91 3f 93 d1 c6 31 e7 75 d6 bf
       0.016898970851795137 -0.35094623433112665
000490 c2 82 14 1d 2e ac d3 bf b1 84 eb 0b 3a a4 ca bf
       -0.3073840412126111 -0.20813680250197344
0004a0 91 51 db 1e aa 82 c6 bf f7 93 4d 2f 17 a3 b2 bf
       -0.1758625651042505 -0.07280106453761435
0004b0 e4 4a 34 31 9f 85 a0 3f 31 58 0d c7 a0 27 c0 bf
       0.03226945377004656 -0.1262093517240728
0004c0 ac a4 24 59 e3 7e c4 bf 25 17 62 92 2f f5 be 3f
       -0.16012231686298628 0.12092873882110362
0004d0 8c 04 85 84 d5 b1 cb bf bb df 7f 53 be 64 be 3f
       -0.21636456461604714 0.11872472323000142
0004e0 a6 9e 17 ce 66 92 c3 bf 4a 00 9c 23 d9 f2 c1 3f
       -0.1529053217229734 0.14022363890399198
0004f0 fd 01 16 26 a8 fc bb 3f 3e 0d 31 d6 3c 64 c8 bf
       0.10932398729165267 -0.1905590101106131
000500 3e 75 16 91 8c 2d c3 bf 5d 2f d6 1e 0c 1f d8 3f
       -0.1498275478778996 0.376894979585577
000510 63 1a fe 12 d0 b7 b3 3f f4 e6 3d 6a 06 65 ce 3f
       0.07702351058660777 0.23745804011905813
000520 e9 aa a7 ae 27 f9 ce bf b4 f1 56 6c 21 64 c1 bf
       -0.2419786074454671 -0.1358682421686247
000530 bb fd cd d9 42 5a ca 3f f9 62 76 3a 7e b3 a7 bf
       0.2058795512675554 -0.046291298519639264
000540 23 8b ca fa 8d 61 c5 bf 13 4a 75 38 bc de bd 3f
       -0.16703963037169797 0.11667991999028286
000550 78 e6 29 00 11 ab d9 bf ce 52 69 da d8 ed ae bf
       -0.401066064987027 -0.06040837923197771
000560 17 bc e2 56 c1 a8 bf 3f 88 3f 47 0c 1f cd b5 bf
       0.12366875048859104 -0.0851611523605681
000570 68 72 af 81 c8 d0 c0 3f 0d 7e de bd e0 32 cb 3f
       0.13137155849735227 0.21249017020180397
000580 6a ab 6c 18 52 9e c3 3f 19 3c 7a 3c 32 11 d1 3f
       0.15326906387903289 0.266674574909247
000590 6c d6 dd 7e b0 00 a4 bf 32 6b e2 b3 71 f2 ce bf
       -0.03906775997795084 -0.24177380832119294
0005a0 1b be b2 15 8e 29 c4 3f 03 4a 29 b8 fd bf a1 3f
       0.15751815852625914 0.034667900782228166
0005b0 1f f3 4d 93 e8 8d b3 bf 89 e3 ff 5b fa 3c ca bf
       -0.07638410183239984 -0.20498589985052387
0005c0 c8 a1 49 fe 0c c9 b2 bf 78 48 a2 2a cf f5 d0 3f
       -0.07338029106325117 0.26500300563305457
0005d0 51 35 ff c2 a0 03 c8 bf 5d 16 3e 42 60 1e b6 3f
       -0.187610717023214 0.08640100114106404
0005e0 e9 3c 81 42 0c cf c4 3f 1c da bb d9 0f 18 cb 3f
       0.162568600152077 0.2116718114045434
0005f0 8c 96 2b 89 5c b1 c6 bf 62 a5 71 a3 c9 0f cc bf
       -0.17728764245764628 -0.21923180084858546
000600 4a 65 3d f3 e5 29 ae 3f 01 ef 86 80 55 44 b1 bf
       0.05891340822445075 -0.0674489439760997
000610 a9 0e 8f 34 8c 45 c1 bf 2b c2 dc 53 50 6d d1 3f
       -0.1349349266657687 0.27229698362046645
000620 89 a6 15 43 9f a4 cb 3f 48 82 6a bf d2 1c b8 3f
       0.2159613683282269 0.09418980763667506
000630 85 1d 25 3b a4 75 b9 bf 14 3a ee 71 62 cc c8 bf
       -0.09945131725281982 -0.1937373215009336

seq.4.bias f8 [2]
000000 0c 43 b9 21 19 c9 c4 bf 62 64 13 64 d0 dd a3 bf
       -0.1623870291391757 -0.03880168172481359
