examples/vehicle/models/mpcnewobs.pt (torch, 89383 bytes, 6 tensors)

seq.0.weight f8 [100, 5]
00000000: a3c6 5731 a551 c43f d032 736f e410 c23f
00000010: 2392 ab5a 8b85 d23f ee4d bc5c 409f d2bf
00000020: 5433 9327 e057 dd3f 2d26 f676 e7aa cd3f
00000030: cc29 4f83 b3d6 d4bf 4fa5 cb16 8e71 d7bf
00000040: 57e9 bb2f bbe9 d9bf 4cc6 f9c5 440c d2bf
00000050: 7ef5 c96a 9e25 d63f bc09 65b5 1b58 9dbf
00000060: a8b9 d2a4 3c55 bfbf 7366 9305 03b2 ddbf
00000070: d88e a07a 94bc d8bf cab9 f504 c99b d0bf
00000080: a2f6 2d6b 9b25 9c3f 2263 b767 04b3 d1bf
00000090: 3577 ffe1 01b1 9f3f 986d bc40 aa5e 9f3f
000000a0: a142 30c8 0439 d0bf 067d 717d a341 c23f
000000b0: 8995 fd9c b996 a53f 84e9 beed 05c7 603f
000000c0: fd4a 640c fadd c4bf 5d74 26d5 e27b cdbf
000000d0: 77b2 041d 3fd0 dabf b132 d1cc ac33 bc3f
000000e0: b9a7 ff57 3ea8 d8bf 2c27 110c 8ee8 dabf
000000f0: bbb4 943c 2eb9 d93f db88 6941 1ea1 d53f
00000100: bbdb c176 3cfa b4bf a0cc 8893 4139 67bf
00000110: cc89 e616 464b d0bf 2695 0d1c fbc0 b0bf
00000120: 3767 6bff e6be c4bf ee0a 62e5 3fac b33f
00000130: ff8b 38ed 90f5 d13f 9146 ccb1 984d d73f
00000140: 1b22 3d2b 81d8 c23f 6806 f02c 7f22 c03f
00000150: 7239 e297 e7b1 cc3f 9a41 29d1 99cd d23f
00000160: 03da 3ffa 09c1 d63f bd95 ec97 bedc d4bf
00000170: a017 47a2 c3ee da3f ece8 6ca4 3dd1 aa3f
00000180: a583 551d 1d8a da3f ae0c 9b7e 38cd c4bf
00000190: 29cf 8807 effc a5bf 9d71 4769 d70e d3bf
000001a0: 83fe 8458 3aa7 c03f 4446 a0bd 89a8 ce3f
000001b0: 42fe e725 dbce c33f e15a 858b 8443 c73f
000001c0: 1c3d 4be8 2277 acbf 45f1 b7ca 9a69 d43f
000001d0: 5ef5 f6cc 54b6 d4bf 8569 3683 081d d2bf
000001e0: 8724 2efb ef74 bfbf 4659 c8f5 1f43 c83f
000001f0: 02bf f1ae 3f8c d0bf bd9a 72fa d072 c73f
00000200: 807f 68d0 c3aa d93f 5ad7 cbe3 fed8 cb3f
00000210: 3bbd b496 e12e 82bf b305 f2f9 d6b6 c93f
00000220: d3e6 6429 c7ef d03f 93a2 2769 e1fe bcbf
00000230: 0449 99f2 c148 d33f 2435 d44e 6131 df3f
00000240: da8e 8c67 f1a2 ccbf 1daf 1e14 812e b03f
00000250: d52b d1d6 e204 d5bf 4d39 01b5 6093 dc3f
00000260: f1ab 3047 2665 cdbf 4bc6 c27a 948c dfbf
00000270: 691d 73ee 1f1d d6bf ea52 fa14 d4a2 ba3f
00000280: 33f7 cf96 1557 d2bf 0469 de66 a650 d83f
00000290: 4113 463c 6169 c33f 2e36 459d de1e d83f
000002a0: db49 c1ab f20e b23f b90a 87a4 bcdd d63f
000002b0: bb71 cdb9 1203 dbbf 8e8f 2b06 0b4b 9cbf
000002c0: ea01 0329 926f d2bf db22 27e5 9233 dc3f
000002d0: d426 124d 92e4 c9bf 95de 9ca9 4d49 d9bf
000002e0: 762a 58b4 0f9e 873f 72dd e0a1 8a27 cebf
000002f0: f19c 8885 1a58 b53f 27df 2466 064e afbf
00000300: 2515 bba1 f61e c7bf 223b 7fe2 c81e d03f
00000310: 98fa 45b6 4211 d4bf 5c8f 85a7 0ee8 d43f
00000320: d26a f533 d693 a93f 5d27 d1c1 ff8e c5bf
00000330: 4ca0 c977 46ca c3bf dd06 4b6f a44e c9bf
00000340: 1177 149b 333e d0bf 57d2 8a38 056a c43f
00000350: 0b8b 0081 ba63 d73f 1d30 657b b853 a33f
00000360: 3ff6 f6d3 0a9f dcbf 2a88 d7c5 4eae de3f
00000370: 6193 1961 6cc2 de3f b664 aa51 57a9 b8bf
00000380: 871c b2dd 010c db3f 4df5 b9b0 322e c93f
00000390: 13af ab88 e849 b93f 1e42 dc6f 3d30 d73f
000003a0: 2684 738b 9947 d93f 37f1 cb20 b0d3 8cbf
000003b0: 54a0 b7f1 d97f d4bf 6d8f 3ce5 68a0 d2bf
000003c0: 3808 227b 4e92 a53f c99d c0fe bd01 d63f
000003d0: ab19 c6e2 4cc6 d83f ed09 7be0 4122 dc3f
000003e0: dc08 a12f 7649 df3f d56c 8136 692e dabf
000003f0: 6212 2da0 cb4f c9bf 46bf 771a 74e4 a2bf
00000400: 6310 3bc9 c3dd bcbf c302 b8d0 8a17 cbbf
00000410: 0d9f bb15 0d66 a5bf b4fd 7d2b 217a b33f
00000420: 56c2 29fa fa27 c6bf b1b1 d950 b898 db3f
00000430: 8516 6dfe 9be3 3dbf b3f7 acab ef2a dbbf
00000440: 38ec 22af 8b06 c0bf beeb de1c 3f38 ca3f
00000450: df85 f945 c6e5 b4bf 0523 a3e6 0dd0 d83f
00000460: c237 2bab 1065 d43f e356 b0b4 766b c53f
00000470: a9bf 7392 e72a a9bf af79 d15b 6c56 c63f
00000480: d9c8 c09f f4d8 db3f 285b f4c4 eda0 b8bf
00000490: b75d 881d cb21 c9bf 3bb5 9fe3 05b7 b03f
000004a0: a19c ef24 6f8e d33f 8d22 70b9 cf48 b33f
000004b0: 65cf 7fb4 19fb d43f e199 48cf ffe0 913f
000004c0: 2fc2 b8f6 cdf3 a0bf f34f 552f 6e4f dbbf
000004d0: 4e9c 7fad dd0e d63f 3b90 ee3d a977 d8bf
000004e0: 767c ceaf 7b40 dcbf fd22 5d4a 9ada c4bf
000004f0: 3710 6eea 95ca d33f 950b d945 28dd b93f
00000500: 3f5a 045e 545b ad3f d197 a68a 4ae4 d93f
00000510: 5903 ae89 f217 cfbf e993 f0c4 16fd 903f
00000520: 88d2 c5bf 709d ba3f b6b5 f060 652b d63f
00000530: 2036 a653 aa77 cfbf c2e9 d3e1 8c00 c0bf
00000540: ee08 cf6a 457a d7bf ab34 780e 160f c93f
00000550: 72a6 c774 e9ba 9dbf 45ad 03fe 0453 cebf
00000560: 709f 419c e13a d53f 0124 ffa0 0b6e a33f
00000570: b7a3 9fa3 d2a5 d53f 747d 83ec 6e63 c7bf
00000580: d26d 4930 d238 d83f 795c 0020 82e3 d63f
00000590: 10b1 c963 4efc d33f 5ab1 008f 2ab8 cbbf
000005a0: bcf5 4124 8afc 6d3f f337 6433 9ced ac3f
000005b0: 3a98 036c 13d6 b23f 7d0e 08cf 382e cebf
000005c0: 1532 fb95 0eab b2bf 23f9 fd41 c1e3 d33f
000005d0: 2ef5 9759 313b c5bf 721f d80c 208d cd3f
000005e0: 370f 1041 c21e d5bf b633 09ec 6861 adbf
000005f0: 5b9d a1c4 b1b3 ac3f ba51 0245 2453 d03f
00000600: 84b9 2b6f 3ceb d73f 2b47 b3c1 25f2 d23f
00000610: 1d53 a32e bd1a bdbf 5f8e 9633 3964 d9bf
00000620: 780a 7503 4056 bfbf e0a0 7f7d ac97 d6bf
00000630: 1132 47cf cbd0 d83f 4201 052c c872 dbbf
00000640: 5bc1 77c1 28cd b23f f266 7ce4 18c3 c7bf
00000650: 4199 310b 2a01 98bf a8bb e1aa 47e9 d63f
00000660: 0501 ecf3 f5e9 a9bf bb65 b359 04d4 c23f
00000670: 0ec8 07d1 0cd3 d53f fb71 f601 bc5c b3bf
00000680: c43e 136b 1ec8 d33f 40df 13ee 7e09 b03f
00000690: 2ea0 bce3 8304 debf edc2 5bac e2c3 b13f
000006a0: c4f9 1a57 dba5 d5bf 2dff 00b7 d51c da3f
000006b0: e902 f251 c358 c83f 8ce2 1589 0a0d b5bf
000006c0: ca38 5471 89d5 d43f e5b4 94e3 03d9 cb3f
000006d0: 667d 92e2 88a9 993f 505e 9bee f520 993f
000006e0: 3958 b69c 73e3 98bf 9403 337c 5c7a d03f
000006f0: 0796 a4c1 3b16 c83f a41d edba adb5 a93f
00000700: 1c9a f3b4 9d63 bd3f 920c 71b8 216e c2bf
00000710: d193 4387 551d c2bf 5b7d e73d 3267 b9bf
00000720: 78cd df12 d78f cd3f 45f8 5e83 78d5 c9bf
00000730: 8a85 ca9b 40a6 d2bf bbd9 ab3b 4396 7b3f
00000740: c0ce 8536 d3f2 d13f b8ca c458 179b d1bf
00000750: 2e26 fc1a c8d0 db3f c2dc 5fcb 031d d5bf
00000760: bcf7 fd68 669a ab3f db31 6c36 bb73 d7bf
00000770: 8813 bca0 686c d73f f1d1 1420 0f60 d7bf
00000780: 4c33 aac4 fdb8 d03f 6c01 0804 f252 af3f
00000790: d2cb a88e adc7 c7bf 5784 531b b5e7 dcbf
000007a0: d1ce c9aa f0b4 d8bf f2f0 fb20 5414 a63f
000007b0: 300a eb1e bbe8 863f 736d 919d 9a3d a4bf
000007c0: 96ef cdaf 3fa1 9d3f 8cb7 96fb 0ddc d8bf
000007d0: b759 c1b3 5bce ab3f 7b6b 3136 21b2 c5bf
000007e0: 0701 6585 18c6 d53f 4abf 0a9a 0656 c8bf
000007f0: 4fa6 9f27 6575 a2bf 6cd6 7f04 08e7 c3bf
0.15874161633796743 0.1411405128659653 0.28940090040694794 -0.29096993499953683 0.45848850121256146 0.23177808102291078 -0.32560432265441075 -0.36630584932443794
-0.404890820136321 -0.2819988187176008 0.34604607037166335 -0.028656418749287246 -0.12239436172487805 -0.46398997826108895 -0.3865100095301677 -0.25950837597238474
0.02748720971748376 -0.2765513432364505 0.03094866697198669 0.030634556008505592 -0.25348014402065117 0.14262813210641684 0.042165565885436136 0.002048026637536173
-0.1630241928583799 -0.23034320266461608 -0.4189603598959261 0.11016349792880466 -0.38526877015703637 -0.4204440229265056 0.40192752758123235 0.337958873633523
-0.08194330119464059 -0.002834919050906118 -0.2545943473470771 -0.06544465479744996 -0.1620758769193402 0.07684707021875756 0.2806131664858071 0.36411111224251963
0.1472321950079881 0.12605275816172257 0.2241792194003654 0.29379887987036 0.35553216398639637 -0.32597317539542897 0.4208230099433141 0.052377630540336145
0.4146797930207476 -0.1625128381911955 -0.04294535605404654 -0.2977808502307882 0.13010339090577724 0.23951837309918933 0.15475024557962241 0.18174797833008596
-0.0555964382707492 0.3189455966637705 -0.3236286164863794 -0.28302204908109047 -0.1228780735238094 0.18954848767379867 -0.25856010517507866 0.18319141606226266
0.401047662280682 0.21755968211044313 -0.008878481303865917 0.20089232639661034 0.26463488619229486 -0.11326416795021492 0.30131577197347803 0.48738892267359035
-0.22372262531381787 0.06320959798057087 -0.3284232232878684 0.446495224726182 -0.22964933849411254 -0.49295532215464694 -0.3455276325807604 0.1040470648970985
-0.28656520583887185 0.3799224857881571 0.15165343707135473 0.37688413008149524 0.07054058736074557 0.35728374545230285 -0.422062570045252 -0.027630016566845543
-0.2880597496514655 0.4406478154965449 -0.20228794825771124 -0.3950990826010437 0.01153194684140611 -0.23558171180932735 0.08337560424898861 -0.061142158478501955
-0.180632428140748 0.2518789493450858 -0.31355350303776097 0.3266636501268658 0.04995602974186898 -0.16842648471566238 -0.1546104512119676 -0.1977124732421122
-0.25379648346448486 0.15948548565724494 0.36546194646705094 0.03774811273851262 -0.4472071714370464 0.4793888980913176 0.48061665995037656 -0.09633393996991199
0.4226078667638337 0.1967223513528701 0.09878400170026351 0.3623193352114259 0.3949951040104359 -0.01407563781821662 -0.32030342679218404 -0.2910406340254131
0.042131855517269334 0.34385633352436834 0.38710329194909815 0.43959090158401076 0.4888587441565855 -0.40908270190057056 -0.19774766274544492 -0.036899212103775045
-0.11275886214122148 -0.21165595237109444 -0.041794213202420584 0.07608229934520844 -0.17309510436054393 0.4311962880663272 -0.0004560714573254926 -0.4244956184883179
-0.1251997571142469 0.20484150800424844 -0.08163108070723223 0.3876986267392087 0.31866852489190134 0.1673420316953332 -0.04915546095605745 0.17451242907823203
0.4351169166649363 -0.09620557840785848 -0.19634379331612958 0.065292709419471 0.3055684910490957 0.07532976414962374 0.32782595278626153 0.017459866549097817
-0.03311008106937085 -0.4267230474699765 0.3446573442765314 -0.3823035340121838 -0.4414357392178724 -0.1629212248901907 0.3092398442606767 0.10103084283131943
0.05733741424244387 0.40455878772843074 -0.2429183170570706 0.01659045769715198 0.1039648502535987 0.3463986822779036 -0.2458393963283223 -0.12501679445979447
-0.36683783941783943 0.1957728930141561 -0.029033324959448277 -0.2369085541061883 0.33171882876785386 0.03794895496645979 0.33824602106920615 -0.1827219633914684
0.378468081622228 0.3576360046876697 0.31227454895885476 -0.21655780775598538 0.0036604593352069486 0.056500321648954265 0.07357903849660455 -0.23578558072050618
-0.07292262231494136 0.31077605671443304 -0.16586892008482707 0.23086929919395122 -0.33000236848623693 -0.057383803189260105 0.05605845952305329 0.25507456530729267
0.3737326703693713 0.2960295096973932 -0.11368925465224007 -0.39674215352918013 -0.12240982136158063 -0.3530074334689868 0.38774390451433854 -0.42888073252472136
0.07344298098883455 -0.18564139515438388 -0.023441941197597464 0.3579882782714159 -0.050613103891011625 0.14709524516983472 0.3410064736664261 -0.07563376472393905
0.3090892835289021 0.06264489471857093 -0.46902558555530305 0.06939522464723398 -0.33824809557327407 0.40800993796800605 0.1902088308452428 -0.08223024222196268
0.3255332571724351 0.21756027805660164 0.025060786084052288 0.024539797485742476 -0.024305159034689636 0.25746833924136436 0.18817851023884222 0.050214222973006956
0.11480127017748781 -0.14398595338761716 -0.1415202055424332 -0.09923089991888416 0.23095215245812617 -0.2018271104297488 -0.291397239818331 0.006735098485242503
0.28044586491089873 -0.27509101551838055 0.4346180213475205 -0.3298959241942151 0.05391235381738066 -0.3664386779280712 0.3659917421030561 -0.36523798115675193
0.2612909718089227 0.061179697982882114 -0.18578118768490853 -0.4516423003061098 -0.38604370764299484 0.043123845125565455 0.01118608654121997 -0.03953250096739227
0.028935427766085896 -0.38843106812679973 0.05430876321104299 -0.16949858804840887 0.3402158072167513 -0.19012529870587463 -0.03605190380751521 -0.15548801631637177

seq.0.bias f8 [100]
00000000: dfeb 97a8 1733 d23f 0e23 f5e9 a577 c23f
00000010: 60ca a03b 6ea0 d23f 0cdf fd88 08a8 bf3f
00000020: 0177 8f32 6f69 d6bf 1190 1065 0e8b c03f
00000030: d066 6d00 4674 c93f 61e7 1f34 65fd cabf
00000040: 9cb1 c3bd 96ab cd3f c164 c07f f352 c7bf
00000050: 0b66 ba7a 172d d83f a187 510e bac9 b73f
00000060: 5e8e 8892 515a d3bf 1dea 3e3e dc78 bfbf
00000070: 8a1d 7c39 ecc3 d83f 8720 831f ee3d d7bf
00000080: 2678 b93d 4d8c d5bf 6a41 726f 0fc8 d43f
00000090: 80b8 2791 facb d53f cf17 befe 2396 ba3f
000000a0: 6005 54e5 8d29 9a3f b970 a6b5 5f51 dabf
000000b0: e003 52f9 9327 a4bf 0729 6876 69a4 c8bf
000000c0: 130a 24db 8a41 d93f 2f63 0844 0438 d8bf
000000d0: 473d 55ee 459e a13f 2621 7c25 652b 903f
000000e0: 88ac acf0 1a4c d8bf a68d f4a1 17ce cb3f
000000f0: 800d d10b 9940 c0bf 62b9 c1c6 253c b5bf
00000100: 2f34 c406 6b7b c43f c1bd 8d85 e19f bdbf
00000110: fbcb 6971 da06 d6bf 9e47 3371 284d b4bf
00000120: 00ea 5f80 e728 d93f db13 ea43 d007 dabf
00000130: 60c6 5bd3 c1b1 d13f 796a 45f9 b8c2 bbbf
00000140: 7c22 54b8 3520 b1bf 434f 0088 da8f d93f
00000150: dec2 fcd2 2768 d9bf 2720 d45c a7b2 cb3f
00000160: 6800 0b9a 00b0 babf 4063 219b f6c5 db3f
00000170: 86bc 8275 803c d7bf 9164 df82 e5e4 d4bf
00000180: d206 8bd4 6315 ccbf 1400 f46b 3f5c c6bf
00000190: b3ca 2aab 3a86 c93f 8022 3572 6daa b73f
000001a0: 4d51 3ee5 1d40 c93f b069 238a 29a4 cbbf
000001b0: 54a4 9475 851d da3f 9ee1 ca2d be18 c63f
000001c0: b1ae 963d 4770 bb3f bd3a 4bcc b019 cebf
000001d0: 0c37 58c6 cf80 b2bf 59ea 8349 0237 d6bf
000001e0: 9f48 e2ab 9594 c9bf 313e 2817 90a6 c63f
000001f0: b352 c103 ae0a babf f4f2 9d4f fbaf 9cbf
00000200: 1377 03e5 ce26 d53f 5034 afca 2224 d53f
00000210: 974e 7cb5 1932 d3bf 018e b901 8579 babf
00000220: b8d6 755b 85b8 d03f fa84 6910 8abb d0bf
00000230: fda8 b554 0c88 c4bf aefc c75b 96ca d1bf
00000240: e19d 4668 47d1 d9bf 50a9 9df8 0072 d23f
00000250: 3cc6 482c 7ce3 aebf 9ea0 4d94 1dda d2bf
00000260: f781 a3a8 7642 cd3f 996e b742 b5e7 da3f
00000270: fd2e 7d65 dc36 d9bf a86a 5210 a41e d6bf
00000280: fb68 1d0e 265a cc3f a8c3 1a94 d099 95bf
00000290: 669b 4ab0 451d d0bf f35f 812b b217 d03f
000002a0: b29c 9321 9686 c9bf 5b25 8282 21d1 ab3f
000002b0: 80b4 8067 25a4 dcbf 657a bd09 1bbb 75bf
000002c0: 6526 d1ea 42a3 d23f 6b45 5569 fe35 d33f
000002d0: 4997 e427 97ef c1bf 9502 4a50 5145 dd3f
000002e0: dc11 6674 efc8 d13f ccf9 c20d c329 a53f
000002f0: b227 6c50 4cef d0bf 6b42 b663 7b30 ca3f
00000300: f7d2 c7c7 36de c53f afe1 d7f1 7409 c13f
00000310: be61 2926 c846 c4bf 0753 8f50 cd71 d7bf
0.2843684336109486 0.1442763702746323 0.2910419065766856 0.12365773529552032 -0.3501852029565811 0.1292436593513462 0.19886088391176893 -0.2108580116762893
0.23179897561875584 -0.1822189687525562 0.3777521799580376 0.09292185639927066 -0.3023876124372914 -0.1229379322020709 0.38695817579033387 -0.36315491750111345
-0.33668833759100136 0.3247107113211515 0.3405748765498018 0.1038534638338142 0.02554914200027747 -0.411216666596157 -0.03936445635282104 -0.19251745492540115
0.39462539101092026 -0.3784189857847648 0.03441065344179122 0.015790539181609685 -0.3796450949036587 0.2172269383237168 -0.12697136952384014 -0.08294902899226522
0.16001642065421737 -0.11572083960140046 -0.3441682918120816 -0.07930233730010491 0.39312160049999534 -0.40672690040838483 0.276474434284955 -0.10843998037072734
-0.0668977332135316 0.39940512925499067 -0.3969821510718655 0.21638958008429762 -0.10424808274092501 0.4339577212281718 -0.36306773639348255 -0.32647073536424737
-0.21940276983337142 -0.1746901776423334 0.1994088493134619 0.09244426763792468 0.19726918881918679 -0.21594733471904481 0.40805183870776784 0.17263009296381154
0.10718198064449315 -0.23515901541983011 -0.07227800934216705 -0.34710747889736165 -0.1998469437863308 0.1769580948898564 -0.10172545997313413 -0.028015066847262696
0.3304936634502706 0.3303305606212392 -0.29993288729858975 -0.10341674129590929 0.26126226360006966 -0.2614464912677047 -0.16040186058246056 -0.2779899498272681
-0.4033983724898161 0.28820823935406725 -0.06032932320193793 -0.29456271631944186 0.228590805380932 0.4203923369911791 -0.3939734450438975 -0.3456201705354638
0.22150111855700758 -0.021094569243988254 -0.2517866345973999 0.2514462876183636 -0.19941975249750993 0.054329917126845394 -0.4475186835068783 -0.0053053909467438475
0.29121468478533635 0.3001705196994268 -0.1401242203511919 0.4573558124612103 0.27788912169515156 0.04133424323071075 -0.2646055970550335 0.2046045529246102
0.1708439326754598 0.13310109909776943 -0.15841009009706214 -0.36632092349218265

seq.2.weight f8 [100, 100]
00000000: ff1d 305a 944a bd3f 8686 2912 70eb 773f
00000010: 60e7 0471 8160 8f3f bced c79b 746d b63f
00000020: e4c2 a54a db0f a5bf fd5e 1185 0ce2 aabf
00000030: 8f1b e4ce 0c7a a7bf e1da 49d9 fa2a c0bf
00000040: f253 4031 42ad 7bbf c03b f982 7b2d a63f
00000050: 6530 9d7f 140c 9cbf 1d5e f1ee fcae b4bf
00000060: abb7 54c6 b6f0 92bf 7d6b 1317 ad7c ae3f
00000070: 2d28 e328 9db6 b0bf e90e 51df b8de b9bf
00000080: 007f 812b 2bb2 ad3f 3cea a24e 86f1 b1bf
00000090: 2293 1d74 bdc3 813f 2120 e63e badb acbf
000000a0: 0575 a961 c94d b3bf 188d 840b 00ce b83f
000000b0: be47 18fa 82ac 803f 9d9a 8658 4851 b73f
000000c0: 6cc9 6b80 f474 afbf a0a8 1604 cab7 b4bf
000000d0: 9a02 9c69 3bc2 9dbf 4665 a362 da2f a1bf
000000e0: f223 3763 3668 b2bf 591c 4e4f 8c8c 823f
000000f0: b9c6 c07a fed5 bc3f d1b7 f8c2 f45d a93f
00000100: 1e76 ff06 185d b23f b4f1 4688 b56b b7bf
00000110: 9fec 94f4 d973 a23f a40e 29cb 2a9d b4bf
00000120: b132 0d48 9836 a4bf 80f2 844a 59fe a93f
00000130: e228 5a34 2b97 bfbf 6b58 07e3 2242 a93f
00000140: dcb1 2e90 136b 943f afbd 6c1e 1900 b23f
00000150: 22cd 8a36 dbf5 a03f 43b7 1097 3f5d b93f
00000160: 91b3 f8a3 b922 aebf d3e9 0af4 04e7 b2bf
00000170: 24ad cc9e 7101 b53f 91f7 8c13 2395 ac3f
00000180: 85e9 7830 3f20 5a3f d01b f181 683e b9bf
00000190: c17a da34 2d9b 973f 9ed6 9ffa 8967 b0bf
000001a0: 0a58 feed 4fa9 b43f c410 6b3f 7e3a 963f
000001b0: 69bc 5150 9276 bcbf 9591 118b a47d b7bf
000001c0: 036f 1d77 32de ab3f a9c7 ffe9 ede1 94bf
000001d0: 6f15 318b 39cf b93f e17c f055 0ee4 903f
000001e0: 3164 a1bf a7de b13f a0cc 22d1 20f1 a0bf
000001f0: c984 efbe 5750 b1bf ad91 6e7d 743f 78bf
00000200: c541 c678 d52e b03f 9d03 6578 3221 a6bf
00000210: 2bbb 0c54 9579 b6bf f03d e6e3 d46f b83f
00000220: 283d ea69 d4a6 9dbf d458 070b bbe4 a5bf
00000230: 770e 4bb7 ecb3 a73f 4ac0 45dc 3374 98bf
00000240: fc62 aee0 d11d 993f e559 73b9 8ccf bc3f
00000250: 7ab1 e1a4 fe02 85bf e70d 3616 b449 a1bf
00000260: 560d 9e28 3eb4 b63f d356 f617 b1b8 a9bf
00000270: f13e 5606 47ad 72bf f95e c93a c9ed b63f
00000280: 4065 b5a2 1f72 a13f 99c3 7852 e802 9abf
00000290: c394 b29a 26ea a8bf 790a ffa9 8d4e 763f
000002a0: 97c1 a757 429c 853f 9685 db95 67e6 acbf
000002b0: cbb5 25b7 aff5 ba3f 033a b76c 26b6 be3f
000002c0: dce6 cb40 8d44 a2bf e25e 28c0 1166 b1bf
000002d0: 8322 e2bc 2b2d a5bf 06b5 20a7 80e3 b4bf
000002e0: ca54 ff9f ed6a b03f dd24 4f8d cb83 b9bf
000002f0: beb5 a8ed dfe5 a5bf 1737 bdf1 c68d b93f
00000300: 4dfc a48e 2a27 a8bf 8b00 9aa5 c70c abbf
00000310: b15e 9c35 b075 b93f 04d6 2100 2e77 a23f
00000320: 8eba bf16 074b ac3f ad05 9fc1 7a72 a53f
00000330: 2cbe 7e2f 5437 afbf 21c7 2e45 c444 b3bf
00000340: a5a9 011a 3d02 a53f 26ae d67e 451d a7bf
00000350: 4ee8 032c 8025 a2bf f1a5 071d 3a46 aabf
00000360: e75b a85e de9c b83f 62ef eaa1 cfaa a9bf
00000370: 4fae 24e8 8aa3 bb3f 8bad b399 1e0f a4bf
00000380: 0685 76fe 5971 b4bf e90f 7b60 5b90 93bf
00000390: 7131 dc38 8323 9bbf 2207 acc8 72a8 b23f
000003a0: 961b 81b0 171d a1bf 901a 94ed 0d36 a0bf
000003b0: 21d5 6647 8917 b7bf 1570 d74f 6275 b2bf
000003c0: 42e0 5fa6 670d b5bf 9ed7 5231 e136 a8bf
000003d0: 6afd c988 11bb 9abf 2d89 f112 019b b4bf
000003e0: 44f7 deef db52 b0bf 5451 ff5a bc42 a13f
000003f0: 4ece 1782 05f3 9b3f 46e2 967b 9233 b6bf
00000400: 4c84 cd28 a49e 96bf 4cc4 4cfc 391e 563f
00000410: 6f73 6122 6baa b8bf dfa6 9f28 40b1 96bf
00000420: 0750 e382 fa69 81bf 601f 77f2 e987 b13f
00000430: e89e 9731 dee8 b43f ab12 6c0b a522 b63f
00000440: 9041 acb5 7dd2 b13f 28a5 441a 91ed 96bf
00000450: 72e7 c423 f3c8 a2bf a222 63c1 99b0 aabf
00000460: 0422 3f01 9699 a5bf 16db dace 31d4 b93f
00000470: 9c40 6a62 4693 a0bf 37ea 898e 1a72 93bf
00000480: dbc7 864c f1dd b0bf f5d5 0fc3 66ec a63f
00000490: a197 b60c 7fb4 b13f 8551 7db4 173a b0bf
000004a0: afc9 eb12 b8eb 86bf a6b7 2eab 9539 b53f
000004b0: 68d4 5f7f 5e34 b03f 5389 b598 0928 953f
000004c0: c4a4 998a df9f aabf 4e7b 2e56 0c8f acbf
000004d0: 9bb8 5c32 1674 acbf 35a3 89b3 8bca a23f
000004e0: 2de9 2378 1fed bebf a8ef 3d03 e0f7 833f
000004f0: 500c 3712 1ecb b13f e079 2376 7a9d b43f
00000500: 36c3 8261 96d7 b6bf d2ec 2500 3207 a9bf
00000510: 2669 f107 741f b13f 1e97 b4fe 5cea a0bf
00000520: c660 1439 3e0f 9f3f 8fbe e86c 41e3 a4bf
00000530: a668 816b 5d6e 963f d369 b55b 9585 a2bf
00000540: 0b06 3d11 1831 91bf fd50 9d5b b466 b33f
00000550: 0562 ed0e 5d3a a13f c8b7 9706 df97 a8bf
00000560: e478 0df6 0ddc ab3f 7db7 b2a0 42eb a33f
00000570: ba92 8a02 4cb8 b53f ab0d 519a da03 a83f
00000580: a16b 4725 e21c b3bf a852 7888 c853 b03f
00000590: ce6a 2d26 6863 b33f 0e69 99c4 525e bb3f
000005a0: 16e7 2585 0264 b93f ef08 1cc2 56cf a33f
000005b0: 8285 f570 a166 843f 10a4 e70b a201 8f3f
000005c0: 583c 9314 21ca a7bf 9d4d a45f 4b09 b5bf
000005d0: ac58 de4d 6dcb 703f c7e1 cc3a abe4 bdbf
000005e0: 0cd8 b04c 0a96 b53f dc90 783d c9e2 903f
000005f0: 9a99 f40e 94bf aabf 5b26 7b3d 07d5 b83f
00000600: f589 c92e 07dd ab3f eb6b b50e d00d b13f
00000610: feab 303b 3718 b3bf 89de 0811 6389 ab3f
00000620: a288 2dbd fc9f b4bf dd0e f910 24f0 ab3f
00000630: 1ad3 786f 3701 b1bf 82e9 4145 eb1f 48bf
00000640: 2452 da0b 9d69 afbf dbcb a32c c96a b6bf
00000650: 3f58 c92f 94f1 8a3f a43c e608 057a aa3f
00000660: f520 dc2a cffa b03f 6625 18f0 cb2a aa3f
00000670: 9b62 f7a8 3903 a73f 4de6 fefc 0d31 7fbf
00000680: c6ac 0b1c 254f b7bf 6cd6 ce6f b295 ad3f
00000690: 0f91 69ab c9f1 b63f b9eb 8702 9d94 b3bf
000006a0: 68e4 ce5d 9133 a3bf 075b 691a 8202 a5bf
000006b0: 05ae 9d14 3fe9 b53f b23e 9096 054a a4bf
000006c0: 29dc d678 4578 8dbf 3471 0d0a 2259 813f
000006d0: fed4 646a 7ab4 91bf 0064 7173 07b0 b43f
000006e0: 7a98 3cdc 244c b3bf f5f5 e399 0dbe 983f
000006f0: d4ef 9eea a269 b93f 3bc0 b46e d3e9 a3bf
00000700: 084a e994 ffa3 b1bf 7d88 4f4e a450 af3f
00000710: e6db e271 593d b1bf a83f 3885 3c39 a7bf
00000720: 29e3 fd03 8b16 b7bf 5cd3 1798 11f9 96bf
00000730: ddb8 156f bc35 abbf 1326 c23d 4d9d a53f
00000740: bcd9 0093 4118 a3bf f069 8e6e 39d5 b3bf
00000750: ee68 ba94 29a1 b4bf 9e80 5abd c366 b13f
00000760: 4abc 16cb 9821 b3bf d6fe 00e5 cc31 b23f
00000770: 3d57 ff1d dd9d babf b296 bfdb c762 ab3f
00000780: 8c4d 0433 5472 a1bf cadf ae52 5b2a 7fbf
00000790: 08fe ab6d 86f9 3abf c898 be38 3bb7 a2bf
000007a0: 33c1 9e1d e3a6 a13f e9ae ffa7 306b acbf
000007b0: 28b1 4d77 f867 a03f f1b3 1b36 b1ee 5b3f
000007c0: e2a2 1b08 d1c3 b23f de6a d8b0 6695 b5bf
000007d0: 4d74 a7e5 c6ea b03f 8f7d 2bdf 633f 57bf
000007e0: d637 0ad7 1e0e a13f 58fb f39a 49e7 adbf
000007f0: 6d9f 2b3d f390 a0bf 3923 0630 c840 a93f
0.114419242876572 0.005839765336163821 0.015320788632937343 0.08760765841719026 -0.04113660131668498 -0.05250586628306839 -0.0458530428459688 -0.1263116417864785
-0.006757029117598444 0.04331575368689 -0.027389831818524963 -0.08079510530057417 -0.01849637589946666 0.05954495341003161 -0.06528646705842851 -0.10105472042146925
0.057999943791172015 -0.07009162349542292 0.008674125772537847 -0.05636388795670678 -0.07540568003010513 0.09689331322856665 0.008141539819039308 0.09108402406000456
-0.061439171482464555 -0.08092939948861266 -0.029061249085318687 -0.03356821493225452 -0.0719026558137015 0.009057136697960088 0.11264029023075296 0.04954495315574515
0.07173299952361176 -0.09148726059988271 0.03604012594811334 -0.08052318057985502 -0.03947902564559536 0.05076865229282124 -0.12340040233735608 0.04933270474764203
0.01993971412200489 0.07031399719993801 0.03312573471830606 0.09907910764806353 -0.058858681932498 -0.07383757551261931 0.08205328108731585 0.05582532514243533
0.001594602306694699 -0.0986085240593717 0.023052889204900454 -0.06407987946280477 0.08070849953068673 0.021707508679143186 -0.11118425808830214 -0.09176090617399375
0.05442960456886505 -0.02039310208051118 0.10081824920879055 0.01649496459515099 0.06980369976499003 -0.033089662102974815 -0.06763218318475873 -0.0059198904408827415
0.06321462820620301 -0.043222024151425155 -0.08779271413798699 0.09545641483258982 -0.028956717457331 -0.04276070127132106 0.046294591307312886 -0.023880777663578358
0.02452781614155962 0.11254195716478639 -0.010259618193423792 -0.03376543780452917 0.08868778697619936 -0.0502372113943871 -0.004559781494563473 0.08956582722873553
0.03407381879032778 -0.025401716264414984 -0.048661428817732076 0.005446008086382841 0.01055194692614307 -0.05644534782710335 0.10531137677545314 0.11996688989822961
-0.03567925849888606 -0.06796370450353664 -0.04136025124268363 -0.0815964134241832 0.06413159519373149 -0.0996672840111787 -0.04276942993270037 0.09981959726175337
-0.047173814690261474 -0.05283187767509031 0.09945203122003467 0.036065518871435415 0.055259915854425676 0.04188903440036582 -0.06096900062345542 -0.07526804627448459
0.041032704758282613 -0.045145198567606834 -0.03544235741897293 -0.05131703953140832 0.09614362536409225 -0.050131310000749676 0.10796421210823691 -0.03917785288089267
-0.07985460722422397 -0.01910536552783518 -0.0265026572661084 0.07288281821459155 -0.03342508344262922 -0.031662402392659605 -0.09020288460927307 -0.0721036381650609
-0.08223579227330993 -0.0472936985692478 -0.02610423467058124 -0.08049017631995943 -0.06376432996964093 0.03371227846915539 0.027294241013761593 -0.08672442929572197
-0.022089543333440084 0.001349979998121381 -0.09635037984248894 -0.022160532454939093 -0.008502919310934954 0.06848013085902727 0.08167828284023992 0.08646613625394177
0.06961808858273444 -0.022390620449333515 -0.036689375034668084 -0.05212860570606394 -0.04218739285676423 0.10089408207100478 -0.032373618615680416 -0.018989958715318358
-0.0658865749199146 0.044772349654447575 0.06916040478117093 -0.06338642269594714 -0.011191785886215692 0.0829099219251633 0.06329908952450725 0.020660543389916807
-0.052000985783544645 -0.05577887107869249 -0.0555731712796483 0.0367015511190573 -0.1208057087241385 0.009750127886711216 0.0695055765600483 0.08052792915575635
-0.08922710304865408 -0.048883020895084464 0.06688618844910774 -0.03303804978558687 0.03033158515344849 -0.04079632238824359 0.021905383764853646 -0.036175410694983555
-0.016788841297289674 0.07578589665110154 0.0336484032365583 -0.04803368525959645 0.05441325787136167 0.0389042683758438 0.08484339773219576 0.046904403054692644
-0.07465947542315955 0.06377843219554313 0.07573557788911531 0.10690800952707866 0.09918227911648744 0.03869124526501532 0.009961377391564556 0.015139833439166167
-0.04646399856721278 -0.08217307171826467 0.004100253076009402 -0.11677045999102297 0.08432068226179029 0.01649012029351203 -0.05224287684022784 0.0970005536174993
0.054420685254417046 0.06661701544855674 -0.0745882529742374 0.053782554463791384 -0.08056621187782523 0.0545665045470096 -0.06642481299861594 -0.0007362269193571943
-0.06135264177024549 -0.08756692256774505 0.013156087597206432 0.05171218618044662 0.06632704540618646 0.05110776239241481 0.04494648158624167 -0.007615141526849789
-0.09105140623767047 0.05778272261470083 0.08962688860771471 -0.07648640929976026 -0.03750280637854858 -0.04103476116568144 0.08559030774420513 -0.0396272417348177
-0.014389555692885097 0.008470788890627114 -0.01729003214241675 0.08081099098616562 -0.0753806150138149 0.024162495153168668 0.09926813343093893 -0.03889332510368645
-0.06890866647271576 0.06116212325993418 -0.06734236746238728 -0.04535855413644124 -0.0901877293343999 -0.0224344967918627 -0.05314434867874394 0.04221574190985335
-0.03729443473314428 -0.07747229527596011 -0.08058414345797235 0.06797431347740931 -0.07473139723036684 0.07107239333071944 -0.10397130949362761 0.053488011908297564
-0.03407538531078122 -0.007608753900903717 -0.0004116013712262838 -0.03655419414217104 0.03447637306760711 -0.05550529528394838 0.032043232501424435 0.0017048578815164162
0.07330042312572574 -0.0843109304191034 0.06608241183080672 -0.001418921977055596 0.03331085562704998 -0.058405208745162696 -0.032355881898012175 0.04932237230520404

seq.2.bias f8 [100]
00000000: f977 7727 1dea b2bf 594a 41ca ee23 a83f
00000010: c607 05f1 2082 b1bf ff0a 6fda 3802 ba3f
00000020: f5f8 a78c e6f5 b83f 2290 5d26 c28e ac3f
00000030: 7037 a3e7 2ebd aabf e07f f448 8274 b03f
00000040: b992 033b f1f2 953f 6bc0 faff 785b b3bf
00000050: 135f b044 a8c6 7f3f a848 f76b d850 bf3f
00000060: 1d4e cb47 7a09 68bf d829 5229 f968 953f
00000070: f1f0 2cba f3e0 96bf 7a5c f9a5 5ce3 aabf
00000080: d2b5 113d a04d bebf 18c3 56fd e2e7 aabf
00000090: 979f 8ba8 4407 b2bf 5ca1 d233 3ef7 b9bf
000000a0: 5275 1213 8cf7 a43f 25ce 1d90 916c 873f
000000b0: 1a98 2d40 ab01 b73f 889c 6fd2 5a51 aa3f
000000c0: aa95 f411 44c6 953f 0cb2 f991 5182 b53f
000000d0: f284 910f 6580 a5bf 0ee2 c82f 97c7 a9bf
000000e0: c40b a1fa db3a 94bf 9975 9913 aba1 b7bf
000000f0: ec9c ec77 939d b63f 8d82 0021 77ca b1bf
00000100: 9cd4 cd42 425f 95bf 36d1 5883 07dc b5bf
00000110: 5f5a 6427 2cb1 773f 8ffd 9743 e9f2 9cbf
00000120: a3a5 9db9 cc40 843f f24a 9e56 21ec a63f
00000130: d5af 9b56 767b b7bf 0fbb 6477 0f1e b1bf
00000140: 698f 944f adb0 adbf 34c0 5058 3faf a1bf
00000150: 17dd 51e6 2c59 703f 1ddd ddbb 6af4 a0bf
00000160: aaef 5e58 d37c a8bf 7103 4edf 379b a6bf
00000170: 277a d0b9 0af2 bc3f 8c8a 91d6 ac03 803f
00000180: 0b85 8088 85ca 9e3f f0ac e593 8e39 aebf
00000190: 2daa 12b6 aa6c 70bf 3fb0 e503 fc3c 90bf
000001a0: 9680 1d58 f976 b03f 38e3 70eb 2d76 79bf
000001b0: 9ab4 2b37 090b abbf f568 a804 be58 873f
000001c0: 3896 f9db 1de3 b5bf 769f ac09 9aa7 99bf
000001d0: ff85 8c2f bc10 ab3f d807 b102 caf3 77bf
000001e0: a83d 6eef f270 9f3f 4727 7219 a7d4 8d3f
000001f0: 6aca 08d6 0102 a23f 951d 134d 5bf2 943f
00000200: 8a3f d62a 0433 b0bf d5c1 8c33 d868 b43f
00000210: f01e 24cd 2eb5 a3bf 72ac e2fd d746 a6bf
00000220: 84a8 2331 5da0 b63f 3dc5 7dc3 685e 7ebf
00000230: 8b27 f4b3 e826 a3bf 318e e6ee 6ef7 a9bf
00000240: eb37 8f12 847d a23f b2b3 a0bf 6d09 a8bf
00000250: f0f5 f717 2acb 70bf 6fbe 43a7 f29e 6fbf
00000260: 2019 356a e96f 8cbf e89f 1e49 3030 b13f
00000270: c860 3dde f6ff b7bf fc52 173e 22ff b3bf
00000280: 0e70 1484 e615 abbf d231 4a17 2d48 b9bf
00000290: 1657 f7d9 b484 ae3f 306e 912c 178d 8abf
000002a0: 9fa8 0939 723f bb3f 936a 219c 6101 a8bf
000002b0: b394 5053 ca46 a73f 14c8 575e 819b bc3f
000002c0: a973 f5ea 0a8a 95bf 2702 cd8f 4130 963f
000002d0: 36ad de1a 3f0e 96bf 8c6d b3b8 31df b93f
000002e0: 5201 e5b4 3ab5 a53f 182d ef2b b67d b13f
000002f0: a00d 85a5 36fe 95bf d628 871c 47b1 b93f
00000300: 3f34 d524 46b6 a93f c67d 752b a4e6 a63f
00000310: 6cab ac42 8261 b53f af5c 2942 a02d 823f
-0.07388479436437469 0.047149145306907676 -0.06839185604351802 0.10159640629630572 0.09750214513767104 0.05577666014031048 -0.05222460343939772 0.06427778512124815
0.021434563853193398 -0.07561451196193196 0.007757813737974367 0.12232735286605367 -0.0029342067995033042 0.02090825380995817 -0.022342499006513476 -0.05251588369417788
-0.11837197771975319 -0.05255040495410962 -0.0704234038818171 -0.10142887845234355 0.040951134994638 0.011437546930870355 0.08986921612594792 0.05140193766401874
0.021264136882697272 0.08401975454189187 -0.04199519934696551 -0.05035088022527044 -0.019755780384240543 -0.0923106119966718 0.08834191968763933 -0.06949562602722832
-0.020871196105379228 -0.08538863140785655 0.005784199215006141 -0.028270382643311328 0.009889220633072798 0.04477028066971468 -0.09172763456780271 -0.06686493554000726
-0.05798856350364085 -0.034540156870548705 0.0039912942785272 -0.03311475318235522 -0.047827343499619104 -0.04415297127616825 0.1130682662628507 0.007819509790526945
0.030069433647558912 -0.05903287463555695 -0.004009882775032153 -0.015857637155406442 0.06431539918185289 -0.0062162202585163626 -0.05281857298346289 0.011399731175562236
-0.08549677486879481 -0.025053412285302078 0.05286205368453167 -0.005847729781693865 0.030704303611455736 0.01456575914768944 0.0351715635082613 0.020455767230286154
-0.06327844663451124 0.0797248006681522 -0.03849169019855292 -0.0435092446726565 0.08838446092309665 -0.00741425441070592 -0.03740622708035265 -0.050715891516372465
0.03611386038356542 -0.04694693531232676 -0.004100002697211988 -0.003859971935632526 -0.01388532977456386 0.06714154992243915 -0.09374945569777815 -0.07811178222557297
-0.0529014621954219 -0.0987575704440993 0.05960621987075691 -0.012964421317682356 0.1064368619205731 -0.04688553839578904 0.04546196238542546 0.11174782326978089
-0.02103440341067012 0.021668457414536626 -0.021538721098903944 0.10106192359255867 0.042398295003752154 0.06832445690740874 -0.02147755990269007 0.10036129423602644
0.05021876525516022 0.04472840338234678 0.08351911666674788 0.0088760872069272

seq.4.weight f8 [2, 100]
00000000: 1321 bc84 af84 be3f ac26 9acf 9773 71bf
00000010: 4144 4f37 9b8a b4bf fa7e e7b4 071f 9bbf
00000020: d743 8115 f0dd c9bf cf4c ed02 5032 d3bf
00000030: 62b6 f1bd 822f d03f d71d b51a 7ae9 c13f
00000040: 20f3 528a 523e c5bf 32cd 98f0 e066 a83f
00000050: 9a3b dfda 36c4 a2bf 1b92 de8c 9cc9 c2bf
00000060: aa81 a3d7 695e c93f 78c6 d2f9 e35c b23f
00000070: 24f3 5e6d 313e ae3f eeed 05f1 4a3c b93f
00000080: e368 f0d1 3889 82bf 71a9 f478 9c5f 90bf
00000090: a26c 598a 177e b33f 98d0 ac4b b8fc ac3f
000000a0: d3fd 1557 a8bd b43f d68d 53dd 3228 9e3f
000000b0: 8464 ddad bd24 b93f 9b2d 4076 d143 8a3f
000000c0: 059a 590c fa63 ae3f 4099 279a b69e b03f
000000d0: 6d7c 1c77 1384 a1bf f8c0 7aa0 6608 a13f
000000e0: 2003 cff0 2105 b4bf 92e5 2abe 4eaa adbf
000000f0: a3bf b787 9974 38bf 7d07 9b80 ab0f c23f
00000100: bfb8 eecc ada0 b1bf 49fb cc3b 8d72 8c3f
00000110: 90fd bf44 3b61 9b3f 3ce5 b46c a61c a73f
00000120: 6709 a281 1aa2 c03f 3bf7 eddb aede b93f
00000130: 3a78 412d bea7 833f 37c6 33d6 fec6 99bf
00000140: 03b8 275d db99 b7bf e604 51a1 fecf be3f
00000150: c414 7856 1daf b53f bcae c1b5 031c b73f
00000160: fd43 1cac 75a0 9ebf e1a6 22bd 0499 cf3f
00000170: e494 7e2c 996f c5bf 8558 9e37 2b75 afbf
00000180: e314 0978 0ac1 c03f d7df 21d5 becb c83f
00000190: f9ce ff09 0309 91bf f049 307c 7943 ac3f
000001a0: a87b 67ea 0cc4 b13f 6c66 fd0c 0cd3 b3bf
000001b0: 5aae 5d4b 844b 983f db0b 57d1 16df ae3f
000001c0: bf3f 16b7 c8b7 b83f b5ba b52d dd29 c33f
000001d0: 113e 3ec2 64ed 4abf aa77 cb99 defc a2bf
000001e0: 1b73 4f40 dfdf cabf 5313 77d3 0982 9ebf
000001f0: 9ec5 049f beeb bb3f ce34 b30c 0bee b93f
00000200: 2392 4249 8fa7 b5bf b31c 3928 d89e a73f
00000210: 7a9c 9e6b a6b6 a73f 2609 98c7 c609 cabf
00000220: d924 b6af 85ad c03f 70b4 739a a640 c33f
00000230: 535f 1f44 e459 a9bf 9d53 b983 f9eb afbf
00000240: 6052 bc1a 2319 b8bf dccc 04f1 0f1c c1bf
00000250: b5e3 83d1 c135 b83f 4636 04d8 cfe6 b5bf
00000260: 2568 0876 2629 c83f f138 eb72 9099 ba3f
00000270: 328c 52ab 3436 bb3f b8e8 f950 cde7 b3bf
00000280: e95a ca05 5824 b53f 917b d67f aa35 a7bf
00000290: cfef 2f86 98d8 a33f 0e35 28aa ead7 a73f
000002a0: a446 0f45 f85e b1bf c0dd 457f dc41 c93f
000002b0: 2f6e 9b8a df0d c1bf b559 82fc 4b0d d6bf
000002c0: 9166 6e23 c6a3 5cbf a5ff 6d47 c88c 973f
000002d0: d8ed d25c d3ac d0bf 1bef 27ec 81b2 c4bf
000002e0: 7692 5c91 d5f2 cf3f 7495 3ab8 736f 9ebf
000002f0: 20d5 3a2a 007a 99bf 2cde d95c c336 be3f
00000300: b7b9 420c dd35 d23f fe4f 7370 1956 abbf
00000310: 2aaf 7019 1404 d2bf 837e d252 9b9e c23f
00000320: b03c dc1c 6432 d03f 6b76 7bf8 a65f c73f
00000330: 7f40 fafd 92d7 a1bf 791b 8956 2fc6 d2bf
00000340: af79 9128 276d c73f 0d7f bdbd 3684 c0bf
00000350: 48e0 cea0 7791 b43f 513e 55e4 9c45 b4bf
00000360: 2eee b985 bb09 86bf da5e 4d5c 2153 b0bf
00000370: 49c7 7e6b 4c49 b7bf 1a3e 2721 8e25 b23f
00000380: 2726 cd41 1f50 b3bf 7496 94a6 81d1 c2bf
00000390: dce1 9db2 2e31 b83f 20f4 fed3 01ee ba3f
000003a0: e5fb 6f3f a1c1 c83f 55cf a8c4 5a86 59bf
000003b0: 1d9f f803 37bd a23f e000 a318 40db 9a3f
000003c0: 0a8c cddb f91d 98bf e168 963e 5648 acbf
000003d0: 7129 fd12 e10f bfbf 6635 2c6a ce9f cfbf
000003e0: 0d34 c6a4 8276 b33f f95f f535 7ef7 99bf
000003f0: 3a96 8de3 cee3 bf3f a9d0 a5d1 6378 c1bf
00000400: ff70 3871 aaf2 b53f e6b3 e550 4bb0 a1bf
00000410: b84e e20e 6f7e b6bf 9277 4974 e024 ae3f
00000420: ee58 b00f 8213 d2bf 2bc5 ee4f ae08 88bf
00000430: 6356 8120 44b5 c13f 84f5 ed98 e572 a4bf
00000440: 16ff f39a d2e4 8fbf afd6 f20f 3670 b03f
00000450: 189e 97a9 e6b3 c2bf 05f0 60a4 e7b8 b13f
00000460: 0b1f d988 c1fa 9abf db42 6ec9 d765 b73f
00000470: 2d30 3d15 45bd c33f 0620 84b9 0fd6 c4bf
00000480: 2f32 f1cd 3ca9 b03f 1f8d 3156 af23 bb3f
00000490: ef3b 9cd0 b416 a7bf 8105 9aff 0cb1 91bf
000004a0: 174b f511 90c1 c5bf a0b9 5d6c b613 c33f
000004b0: c539 8da2 052a b03f 1dcf d196 2d00 87bf
000004c0: 101a 89c7 1c65 b6bf af9b 0881 6404 873f
000004d0: f601 fe7c 36c1 b83f 28a9 0a4e f46e bb3f
000004e0: d6fb e978 255f b9bf a23f 6999 2db5 9cbf
000004f0: 1093 f4f5 fd88 c23f 9af8 6634 d6ac c8bf
00000500: b049 e560 87bd 77bf 9f96 bd61 c77a cb3f
00000510: b848 19fd d8b8 cf3f 6e54 e87a 35f5 a3bf
00000520: b388 64c6 1b29 b63f 9f42 da53 7848 d1bf
00000530: 627b 4669 c907 823f 8805 5109 c76e d03f
00000540: 74ed dadb e39e 9bbf ecf3 f517 bb1c babf
00000550: 9468 addd e50b 923f bb9f f91e c958 d03f
00000560: eb9e ef27 1aef c2bf 0dbc 5037 4406 c53f
00000570: 3279 710a 1b70 c4bf a299 9289 1bb9 afbf
00000580: 55cb 5e63 83b0 c9bf 6d75 44ef 5147 9ebf
00000590: 0897 03ce 1023 c03f 389c 3207 3fba a1bf
000005a0: fb0a 99c4 8652 91bf de10 1f0e 3feb 983f
000005b0: b010 72c3 fba1 be3f 65c3 1dfe 067a b93f
000005c0: 4857 e4e7 2650 bcbf b334 c023 7a1c c3bf
000005d0: d78a 9c5e 82e2 abbf 0f52 da3c 15b3 c0bf
000005e0: 14aa 06cf 8016 bf3f 5d3d 8b8e 0000 d43f
000005f0: ccf2 ca8c b4d9 b73f 210b b638 bcee a33f
00000600: cc11 a9fe 960d c23f 9c1d ab72 990e c2bf
00000610: 071a 5494 004f a7bf fdf6 f2b8 f976 c23f
00000620: dbe0 697e 30d5 a8bf 0fee 4245 0e38 a83f
00000630: f7c4 25d2 ec34 cbbf 8db9 3add 59cf a53f
0.11921212187383316 -0.004260628711230712 -0.08023996448834315 -0.026485557953377793 -0.20208550500913589 -0.29994583402476577 0.2528998236583445 0.13993765167309277
-0.16596442941763545 0.04765990197156568 -0.03665324613358863 -0.14677769544972893 0.1981937697337462 0.07172989701464327 0.05906824550718273 0.09857624420504127
-0.009050792605240726 -0.015989727861929596 0.07614276054066463 0.056615599858930554 0.08101894498940192 0.029450220831575745 0.09821687216516933 0.012824665471291399
0.059356512076920644 0.06492177260915799 -0.034210785188627614 0.033267218675406995 -0.07820331696622107 -0.057939968789877075 -0.0003731608228170152 0.14110320834702952
-0.06885801556811354 0.013890365016434496 0.026738096305050585 0.04514045788750784 0.12994700746282747 0.10105412358640546 0.00959728789910851 -0.02517316992174853
-0.0921914198331422 0.12036124647513055 0.08470328675328448 0.09027121722618409 -0.029908980016504206 0.2468572543632979 -0.1674682109125235 -0.061440802134868945
0.1308911405668943 0.19371781737186097 -0.01663594006090727 0.05520228997206178 0.06939774248847519 -0.07743907277235856 0.02372557363507464 0.06029578500194762
0.09655432195563572 0.14971508724143737 -0.0008217565523284694 -0.037085491441515586 -0.20995703354028525 -0.029792932063873078 0.10906592733660722 0.1012885004049224
-0.0845880082948232 0.046133761320157694 0.04631538451877133 -0.20342335458560362 0.13029547767317842 0.15041048566436954 -0.049513943973294026 -0.06234721882780223
-0.09413356211400403 -0.13366889255994507 0.09457026829831146 -0.08555315994109333 0.18875580561945174 0.10390570455203708 0.10629586394002002 -0.07775576807935891
0.08258581296318436 -0.04533131418724346 0.038761869793205166 0.04656918837654632 -0.0678553742029871 0.19732242788789556 -0.13323587673117873 -0.3445615735921835
-0.0017480311341614744 0.022997979507180983 -0.2605484396442228 -0.1616976168733054 0.24959821317419867 -0.02972203075355169 -0.024879458024504975 0.11802311913367508
0.2845375652058481 -0.05339126107870128 -0.28149893268958925 0.14546529335074262 0.25307562654866 0.1826065743725168 -0.03484782553016518 -0.2933462472032527
0.18301858406898705 -0.1290348459688108 0.08034465480784647 -0.07918720793281266 -0.010760750788214226 -0.06376846793625238 -0.09096219658274864 0.07088554677397277
-0.07544131618956183 -0.1470186293965302 0.09450046406516982 0.10519420076066455 0.19340911481410142 -0.0015579115303241038 0.036599845156443524 0.02622699880953483
-0.023551849404054116 -0.0552393866921237 -0.12133604730221294 -0.24706440147603387 0.07602707407768623 -0.02535817341171762 0.1245698266553398 -0.13648650871949045
0.0857340361039327 -0.03454814302936153 -0.08786672700289955 0.05887509746092613 -0.28244067699541986 -0.011735307516433998 0.1383443030087391 -0.039939093511729445
-0.015573163369935677 0.06421220673913795 -0.14611514359351996 0.06922767413283289 -0.026347183206126206 0.09139774959318052 0.1542135575967917 -0.16278263624576556
0.06508235957989748 0.10601325849852515 -0.045095110383151275 -0.01727695760792392 -0.16996956707824815 0.14903908053697723 0.06314120501085714 -0.011230808415553956
-0.08748035308335766 0.011238846957963703 0.0966981940418988 0.10716177850068631 -0.0991080684852784 -0.02803488968703472 0.1448056651071501 -0.19277455862715415
-0.00579598314500844 0.2146844126938747 0.2478286014398401 -0.03898017049156342 0.086564765868874 -0.270048219573292 0.008803914571044739 0.25676132116139927
-0.026973305028815855 -0.10200089774112059 0.017623511939156858 0.2554190447322033 -0.14792181921006117 0.1642537374586656 -0.1596711922638377 -0.06195913366655083
-0.20069925643982836 -0.02956893942711274 0.1260701185157631 -0.034624070767045045 -0.01691637587488069 0.024334893452547905 0.11965917131061832 0.09951823905954667
-0.11059802209305503 -0.14930655236859067 -0.05446250348020037 -0.13046517821625556 0.1214371209559107 0.3125001327543567 0.0931656688434927 0.038930780337088196
0.14103972849456026 -0.1410705385116956 -0.04552461443568139 0.1442558434554754 -0.048501506263109305 0.047302671389356836 -0.21255264531240645 0.04259758782915233

seq.4.bias f8 [2]
00000000: 0efa 8b2e 3612 bcbf 7800 3ad3 fbe6 c53f
-0.10965288769146062 0.17111156286046358
