examples/vehicle/models/sqobs.pt (torch, 89223 bytes, 6 tensors)

seq.0.weight f8 [100, 5]
00000000: 116d 5b03 69c6 8a3f 76f5 60dd e442 89bf
00000010: 92d2 4940 c898 d1bf cc94 7e01 fcf4 db3f
00000020: a462 898c a48b d9bf af32 618c fc4f b4bf
00000030: 8bbd 276c 472c dabf cc33 b808 5cfc d33f
00000040: 4271 5acd ef00 bc3f 71c7 c8d3 f8ac 9abf
00000050: bf4d 39ed 8336 d33f 85d0 1c74 a7a7 d0bf
00000060: 4430 efe9 3dde 8fbf 0e96 417f a248 d03f
00000070: 79d2 f23d b23a d33f 5c08 33e9 7900 d33f
00000080: debe e8af 6330 b6bf 7dd4 d78b 8299 d03f
00000090: dde6 a466 6d47 dcbf 64d3 2430 14fb b6bf
000000a0: b398 b8cd fabc d33f fb4f 8673 2279 b0bf
000000b0: 2843 2d3a fb0c cfbf 2a7f cb0a 46d7 d9bf
000000c0: d4ef dce1 22fb d8bf d42d 6a19 0c94 de3f
000000d0: 5c7b a218 421c d7bf 6c3b bbed b0ad ca3f
000000e0: 0d8e 8611 35a1 d83f 38c2 8393 c03d c43f
000000f0: d8d7 7c38 930a d43f ee8e 9641 08fe d1bf
00000100: f5c0 593a c396 d93f f513 d545 2832 c03f
00000110: 5051 d501 3565 c3bf dcfd 7568 586d cebf
00000120: 615d 2eac 4ef9 c53f c60d 2492 cdf6 c93f
00000130: a462 2242 9783 c83f f79a c9c7 ad66 bf3f
00000140: f30e 630a 0671 c23f 0ab0 aefe aa1f 813f
00000150: 8639 d529 8868 b73f 77e5 ac14 5bfb 963f
00000160: 51b3 7909 683e d33f 87df 2482 8ab1 cfbf
00000170: 48ba 3645 96cb cc3f 5448 acdf 37ef da3f
00000180: b5bd 3b9e 7ff1 dd3f d792 1b2d e2ad d63f
00000190: d356 132a a15f 89bf f9bd 00d7 a16b c53f
000001a0: e3aa ab8e 10eb ee3f 902a 5b49 6add c1bf
000001b0: 65d3 0e18 d4d2 cdbf 0399 d577 60c3 d9bf
000001c0: 2f0c 4562 cdfb cc3f 9927 1207 73ca a3bf
000001d0: 9c4e 1464 0001 c43f 4209 5310 733a afbf
000001e0: 7bd0 e514 cefd a23f 694c 47da 1626 cebf
000001f0: e6c9 beca d370 dabf 1c3b 2c58 726b c3bf
00000200: 1eb6 7ee4 42ed da3f 26c7 b577 2560 b2bf
00000210: 4ba2 014f 396e aa3f 5169 8ae0 2fa1 d93f
00000220: c7c6 add9 2eba b73f ab1d 0b92 0081 d5bf
00000230: 260d fb7e cb46 dd3f 0e02 a87f 9e7a d4bf
00000240: 116d 92e5 61f0 d63f 3caa aaf0 a713 e1bf
00000250: 09f4 f3f6 c106 c0bf 24a3 8f24 209d c13f
00000260: 3131 4aec d658 c03f 069f 31fc 4063 c9bf
00000270: 3093 5f9f 33d3 c9bf 2484 75bf 0a73 d53f
00000280: 8ff1 0070 1fb6 d8bf 0367 414f 0830 d5bf
00000290: fd62 8538 9bf0 803f 4baa ebec 32bb c63f
000002a0: e292 0112 ca9c d93f 5819 7504 fa31 d2bf
000002b0: 0126 b488 c377 c63f 45c5 db41 266f d13f
000002c0: 9c01 a3a0 dbb2 cf3f 8e7e 07b8 7448 91bf
000002d0: 495a a2e4 c955 e03f 5984 5689 748b a23f
000002e0: ffbe e591 44e6 e3bf 30a2 bad5 a2af e23f
000002f0: 1d7f 4a53 d384 d13f 2133 7def 94af e3bf
00000300: b2ab 7a78 e1b5 aabf 95d7 b0b3 4b45 d23f
00000310: 1e6c 25ae 282e d9bf ae31 4364 ad0e 993f
00000320: 9ccb c149 3810 d13f cf45 3c96 85c9 b63f
00000330: f3e7 c10e 8a6c e03f c3fa d226 756e e53f
00000340: 809d 0553 eb10 cdbf 5382 f2ca df4f bf3f
00000350: 9d9f 761a 5331 bf3f 8753 de76 5efe a2bf
00000360: edd8 fdaa cbe1 e13f f809 496e 921e cdbf
00000370: 6762 db96 b517 d2bf cc40 6a34 9a2a b33f
00000380: f7dc 3d7a e5b3 d1bf 1adb c368 94fb d13f
00000390: 3c35 ae92 8f96 b4bf 65e7 f77c 20b7 babf
000003a0: 4bf6 d539 b27d ddbf b9a4 5c2c 6820 d5bf
000003b0: f0b0 dabd 1d82 b03f 2273 c57b 98e9 bdbf
000003c0: f98f 7e3d eb72 d3bf 0e85 cf07 210c c43f
000003d0: 5787 6132 e62d dd3f a02d 54d0 edf4 d23f
000003e0: 2c22 15f6 48e6 9dbf a04a 074e a69b d3bf
000003f0: 29a9 175b 0ac2 c4bf 9d1d 72b8 8c33 c43f
00000400: 0817 cdad 20dc d83f 8437 9b5d 9dd4 d7bf
00000410: df4e a473 accf d3bf efe8 ff17 1777 cdbf
00000420: e9db 9f99 42fc d73f 1563 0051 d09f e13f
00000430: 59ef a8ad 90c2 c3bf 3357 3bb8 80f5 d6bf
00000440: 9adc 8176 1b0e c3bf 7e98 cebc 0443 d7bf
00000450: 57fa 2c9a 583d dabf bf10 70fb fe2b c33f
00000460: 4bbc 9b65 edf3 bdbf 7eb0 3c4d 4c59 c0bf
00000470: 683b e91b 3378 debf dfbe 6dd2 1a11 a03f
00000480: ff49 ccf6 4483 c73f 8472 4dba 470a cb3f
00000490: 57f8 d0fa c9cc c1bf ed1d 87ea 1e7a e2bf
000004a0: 5d9a b2ff 6d91 c0bf 7636 ea88 9d2c 9e3f
000004b0: c0ac 5f91 6eb7 b8bf 2749 8df1 3e48 c83f
000004c0: 77f8 afdd bccb e03f 8cb8 be4e a83f d7bf
000004d0: bf17 a255 0bcf bd3f c763 feb3 27d6 b03f
000004e0: 06de c570 23fb bb3f aa91 4955 c44c e1bf
000004f0: e1f5 c808 ba4c df3f 8c42 9b76 301e b53f
00000500: 3d0f b89f a38f c4bf ae7c c72d a5ba bbbf
00000510: 8e08 7f6d 771d a63f f2e9 7d90 ec0f d7bf
00000520: 7189 8c1c 8c3c d3bf aaa5 145d 5b36 c0bf
00000530: 9dff 2e49 2ead cd3f 75e6 eb17 a37f 9a3f
00000540: d9b4 4701 81e3 cd3f 94fb dd24 c241 9abf
00000550: ce9d 0564 1ce2 c0bf 1447 cb70 e677 e0bf
00000560: 48b8 c24e 3409 c4bf e68d bbe4 58cd d03f
00000570: 8a49 79b7 a5d3 cb3f 1e23 3cc9 36fa abbf
00000580: 69eb 8b44 ee53 dabf 73ed 7861 8e6b da3f
00000590: 2d9d eec9 5348 bd3f 16f2 5dff 6739 e8bf
000005a0: c652 be17 7f5c cabf 7715 3262 527c b6bf
000005b0: c41f 5226 3119 c53f 316c 6491 5a42 da3f
000005c0: 2338 23aa 58ff b8bf 0c98 c683 19a2 be3f
000005d0: c8a7 e2ac 8bb0 aebf 2e7e 61f3 5fce c4bf
000005e0: c62b 6b01 c0d2 d33f fbe0 c1fa 52ed c83f
000005f0: 930b e7de c8b5 aabf 8493 5a7b 94b0 d2bf
00000600: d8ba 4c1c 957c d9bf edb8 9f90 afca c6bf
00000610: b575 3f0a 1bde dc3f 7865 b26e 5caf c93f
00000620: ce45 6b17 d055 c2bf 282e d073 b4fe d83f
00000630: 5871 b4d4 e2e8 d93f 3e38 276d 0fc8 d43f
00000640: 1307 4e8b 808e d63f c2d3 de35 239c dcbf
00000650: a777 e0c0 1594 d63f 1b7e 68f6 382d c8bf
00000660: 9d74 b0f4 27f5 dabf db6f 9a5f 9a15 b83f
00000670: 0327 80a4 93af d23f 9ec8 0b31 f248 e63f
00000680: d917 a94d 3c42 cabf 56d8 bfc8 51fc c23f
00000690: 8da9 5d0c 2d37 d8bf de33 3ab0 16b3 c4bf
000006a0: 435f 9856 2bcb c0bf c3cd 208f 7317 e13f
000006b0: 577c d899 c19a d1bf 700a 5e8c 1e46 d13f
000006c0: a138 ccba c3a3 9c3f 1302 0513 59a5 c23f
000006d0: e3e7 8e7c 09be eb3f 3827 7e35 118e d03f
000006e0: db2c 2e5b f620 d83f 59bf ad3c 1b46 d03f
000006f0: d83e bf60 c399 c23f 0519 4547 4bab 923f
00000700: 5b5d e264 164d c2bf 1e40 bad5 72e0 d5bf
00000710: cf96 bcc6 e36f c2bf decd c634 0dd8 d4bf
00000720: 4723 1ebf cfdf d93f 6d45 39b0 af54 d33f
00000730: f788 1831 03c7 76bf 60a9 0789 646a d13f
00000740: 8140 6c0e 35a1 dabf 08d2 c2f6 e126 c43f
00000750: 4055 5d32 10f3 9e3f 0ba4 7676 dbac ddbf
00000760: 18cf 65f7 8cbb dbbf 28a9 2265 08a3 dabf
00000770: 7d5f bee7 f9c7 853f bda3 53dd e23f b83f
00000780: 7423 0115 a099 d1bf f62e 6499 cca1 d03f
00000790: 2790 d2f9 4df2 d0bf d5e1 d33e 8cc7 e1bf
000007a0: c505 def6 7c9c b3bf 87e3 c2ca 9602 cc3f
000007b0: 3b1e 1de5 f673 d0bf 686c f30c df64 d3bf
000007c0: 7228 b59b 5864 c23f d707 4f86 8fae d3bf
000007d0: e6a1 bcc7 3817 d4bf 82e2 08f1 b193 d5bf
000007e0: 8236 0bd1 8c9b d8bf eb3c 389d 1f0b d2bf
000007f0: 7104 7908 300c 92bf 70f1 4a33 de3d d5bf
0.01307374993796498 -0.012334621435111198 -0.2749500873390299 0.43682766099875603 -0.39914811825068797 -0.07934549739111206 -0.408952575321529 0.3122778020049821
0.10938929332264016 -0.0260504607451319 0.3002023522032821 -0.26023279513470526 -0.015560611440285872 0.25443327357638246 0.300457535263639 0.2969040658318869
-0.08667586369187627 0.25936950356055616 -0.44185957931368397 -0.08976865935694672 0.3084094056124613 -0.06434836693216532 -0.2425836595598636 -0.40376425794782966
-0.39032814080178224 0.4777860878172906 -0.3610997429440681 0.20842563255288427 0.384839312662934 0.1581345291410956 0.3131454517018688 -0.28112989811982814
0.39982681940365633 0.1265306797960474 -0.15152609433665498 -0.2377119550765049 0.1716707554557884 0.20284433017523734 0.19151583413328865 0.12266050460457821
0.14407420642066135 0.008361183068551287 0.09143878003417258 0.02244322122280581 0.3006839840443734 -0.24760562281312223 0.22496298198298548 0.4208507236772949
0.46786489918209934 0.35436300663995496 -0.012389430138152779 0.16734717367351928 0.9661944185766881 -0.13956955510942182 -0.23299647497847356 -0.40254985525679404
0.2264343957741359 -0.03865394078555013 0.15628056418119207 -0.06099280905029271 0.03709262852763203 -0.23553739221697192 -0.4131364326414356 -0.1517165117770326
0.4207312804599911 -0.07177957699402934 0.05162219132836706 0.4004630749492622 0.09268467726158312 -0.33599867116978527 0.45744597816902155 -0.31998407808717466
0.35842177790773727 -0.5336494160195069 -0.12520622785805838 0.13760759148797164 0.1277111676939824 -0.19834148706581106 -0.2017578628721366 0.3351466054646741
-0.38611589372501326 -0.3310566686610487 0.008271420156846338 0.17758785789858886 0.40019466169751017 -0.28430033145231937 0.1755299012659606 0.27240902358524394
0.2476458105429743 -0.016877959949737113 0.510472246695664 0.03622020889748318 -0.6218588685569272 0.5839399504084835 0.27373202451598094 -0.6151833226700526
-0.05216888995831627 0.28547947452477135 -0.3934423161169337 0.024470051998649538 0.266614982632001 0.08901247899873187 0.5132494247657163 0.6697335966381036
-0.22707883409314533 0.12231253342407315 0.12184638401106303 -0.037096931467352205 0.5588129367522733 -0.22749548325562308 -0.2826971028530693 0.07486881045975052
-0.27660500466977517 0.2809802077385243 -0.08042237597529306 -0.1043567948435374 -0.46079688690210635 -0.33010296184745475 0.06448541531671359 -0.11684563657531702
-0.3038890934496972 0.1566201484811604 0.45592646522537933 0.2961992773495812 -0.02919878007858949 -0.306375099372568 -0.16217164466736136 0.15782317167416418
0.3884355256344496 -0.372351972019594 -0.3095503930392009 -0.23019684478624167 0.37477173807513836 0.5507585126934794 -0.1543751571606389 -0.35873430243860865
-0.14886801992881687 -0.3634654849833011 -0.40999426895351604 0.14978015210374981 -0.1170032857005349 -0.1277251603254434 -0.47608640409173697 0.03138049906453743
0.18369352389034074 0.2112512263946834 -0.1390621638001359 -0.5774073200818158 -0.12943816170919123 0.02946706913149063 -0.09654894875682185 0.18970476908231967
0.5248703317481745 -0.3632603425020384 0.11644049492505724 0.06576774734857259 0.10930081847424597 -0.5406209626931304 0.4890580259123834 0.08249190231004827
-0.16063351916101878 -0.1083167301908243 0.043193561664808575 -0.3603469286969406 -0.3005705145643765 -0.12665884060815574 0.23184755872170806 0.025877521834422674
0.23350536882882159 -0.025641473293486053 -0.13190035709270237 -0.514636249829183 -0.1565308937619554 0.2625334008900765 0.2173964639537867 -0.054643356385048344
-0.4113727254295357 0.412814707935204 0.11438487701399387 -0.7570075976978525 -0.20594776782367868 -0.08783450028757565 0.16483129855282475 0.41029991339172783
-0.09764627603291891 0.11966094462567883 -0.059940686086818185 -0.16254805930928867 0.30973816050089586 0.19474255794535353 -0.05216815682390243 -0.2920275883318981
-0.3982289100994598 -0.17806047975268005 0.45105625153322687 0.20066409497375637 -0.14324380057818903 0.3905459528911899 0.40483923694570967 0.3247107091855276
0.35244763950332575 -0.44702987919600556 0.3527883895457031 -0.18888008147858745 -0.4212131394904846 0.09407963594497863 0.29196635307799584 0.6964045484476349
-0.20514634887712083 0.1483251791211752 -0.37836767394642196 -0.1617153511510016 -0.13120023468285966 0.5341127200576284 -0.2750705721281909 0.2699047442221518
0.02796846225378913 0.14567101887406916 0.8669478829171989 0.25867109512238384 0.37701186088879773 0.25427895475057977 0.1453174803159445 0.018231559967966344
-0.14297752309787878 -0.3418242537673012 -0.14403960422457948 -0.32568674234354755 0.40428537048187646 0.3020438404974673 -0.00556088682927424 0.2721186960394757
-0.4160893097732768 0.1574366049659519 0.03022408778573049 -0.46367537087149974 -0.433322183226879 -0.416200732007058 0.010635330567126062 0.09472482589229876
-0.2750015454408221 0.25987544040320587 -0.264789098708436 -0.5556088664152933 -0.07660656954796881 0.21882901096776328 -0.25707790731800956 -0.30303169502957994
0.14368732073700446 -0.30752933612904826 -0.31391734605361277 -0.33713959253831416 -0.3844940225070347 -0.2819289241169389 -0.01762461711610225 -0.3319011212259033

seq.0.bias f8 [100]
00000000: 55ba d503 9fac d53f 5095 bafb 1441 b0bf
00000010: 0160 2518 670b c63f 04f4 c217 6429 da3f
00000020: afc2 fcee c7c0 d83f a238 b0d3 62c1 ca3f
00000030: c1b2 3e29 803c af3f d843 0ce5 60cd dc3f
00000040: 4e7e 9954 5899 cbbf 1d10 bff6 6092 debf
00000050: fb3b 6d39 ba03 eabf 69ce c02a afbe d3bf
00000060: f2cd 08ee 8e88 d63f 090d 776f 7337 d8bf
00000070: 321c 4d90 ed86 d93f 6f65 5463 9927 c9bf
00000080: 7128 0c18 010f d8bf a894 fc00 29d7 b6bf
00000090: 1a7a 995d 1fe3 d3bf 3a1e 6814 75f7 d93f
000000a0: 485f 8ac4 ed72 d8bf 4bea 848c 19c9 de3f
000000b0: f465 c641 ad8a b0bf c5a3 950c dd81 d73f
000000c0: cf3a d3db 8c92 bc3f c3cf d49f efae d1bf
000000d0: 9215 5e79 e4c7 d33f bdfc 0931 7f7c cc3f
000000e0: 4cf3 f562 b6ca d8bf be57 c2ab c410 c23f
000000f0: 45d3 809d 0589 cabf 8e68 0e32 ada3 d63f
00000100: e796 3c66 131a 7d3f fffc c962 eac0 d0bf
00000110: 16ee 22b7 f4e1 de3f 3d72 3743 24f0 d0bf
00000120: 827d 40c7 6f00 ccbf 5b5f 9c16 48dd d53f
00000130: 1000 e0f8 c626 d03f ec9d 898a 36b0 d5bf
00000140: 60ca 1357 8f77 b73f a02d e643 15c5 ddbf
00000150: 9fde 3129 8a06 c83f 2f73 bf01 64c1 de3f
00000160: e3a7 1014 845a c1bf f3bb 0675 922c b33f
00000170: 318e a171 69de cbbf 3b8f d180 43c9 d9bf
00000180: c7a0 3bc4 e381 cbbf 717d 8828 17eb b2bf
00000190: cf80 7687 4254 c7bf 4267 2e14 1c56 d9bf
000001a0: 7584 59bb c292 c2bf 0281 a951 b4d7 b2bf
000001b0: edb9 06d9 ab4e ddbf 8a68 90fd b25b d3bf
000001c0: fbae 98b4 b702 e2bf 00e0 a447 2e4a d93f
000001d0: 54bc 4f0e 1b5e c83f 2ed0 822e 469f cc3f
000001e0: 0969 f907 0b4d cbbf 1820 af00 ad9a d0bf
000001f0: 6c88 f426 c372 debf 1e4e c7c6 2061 d13f
00000200: 22de 8b94 fa6d d4bf 5942 5cfb 6507 d73f
00000210: 550b 7387 ecfd ce3f b2e3 3410 9777 d4bf
00000220: e0e7 0766 3930 dc3f 6b90 d5aa 8868 c63f
00000230: 2298 bf98 26cb db3f eb07 b341 84a6 da3f
00000240: e6c4 e856 ccd3 d9bf a877 1163 b14a d23f
00000250: 0a69 fdb9 5e3d d83f f12d 74ed 66d6 c2bf
00000260: 8f78 87f6 e911 d7bf 6a85 3b10 0b4b c7bf
00000270: 8a0b 9de6 8fb6 c53f 915d 3f12 2f00 c73f
00000280: 1ab5 fe9f f315 c13f 820b 8d47 22d7 c13f
00000290: 6c7e 7018 5f58 b23f d3c6 c57d b550 dc3f
000002a0: cbf6 0f95 d666 ddbf 0a0b 40e6 c517 d5bf
000002b0: 706b 0b32 0d7b dcbf 666f c8c9 81fa d93f
000002c0: a2f6 9937 6752 d73f 662f fb05 0fb2 d73f
000002d0: 640b 6904 f0e8 ddbf 956c 58f9 4acb c33f
000002e0: a580 90c7 6ff5 b9bf 2110 dd1f 13c5 d0bf
000002f0: e4f4 7ec5 51e8 d1bf abde cf23 6dcf d1bf
00000300: beea 1d1a 23e2 d73f 7fea 85e8 b7e4 87bf
00000310: 1322 034d 3977 a43f de84 e74a f064 cdbf
0.3386609590005823 -0.06349307199214604 0.17222298316005438 0.40877630539381493 0.38676641787155125 0.20902667366357713 0.061008458170680686 0.4500353085323332
-0.21561721926535643 -0.47768425079653004 -0.8129550096144834 -0.3085134427558161 0.35208485837503567 -0.3783844555402572 0.39886035053172286 -0.19652097082215955
-0.37591578815830134 -0.08922058366859409 -0.3107374586160475 0.4057285975727357 -0.3820146960583668 0.4810241577394307 -0.06461603980860514 0.3673012373824885
0.11161117903541683 -0.2763022480823986 0.3090754685620932 0.22254934210284275 -0.38737258590827106 0.14113672625233947 -0.20730657759272667 0.3537400235014808
0.007104945925481699 -0.2617746319519511 0.4825412548486566 -0.2646570831691724 -0.21876332501504342 0.34163095672692173 0.25236677459906875 -0.3388801911264341
0.09166808963690576 -0.46515399580740713 0.1876995755335331 0.48055362864197354 -0.1355748270009932 0.07489886624419721 -0.21772497223274592 -0.40290916042271235
-0.2149014194649281 -0.07389969577388002 -0.18225890745544013 -0.39588071795298074 -0.1451037802499148 -0.07360388749794214 -0.4579267138859951 -0.302471873875796
-0.5628317382119968 0.3951526355408532 0.1903718776588642 0.2236106612305106 -0.21328866853111375 -0.25944066111378694 -0.47575453571528814 0.2715532246777189
-0.3192125750206022 0.3598265604678424 0.24212414373149707 -0.3197991998927662 0.4404433723826724 0.17506512013926864 0.4342743388828031 0.4164133683772195
-0.4035521362994373 0.2858088939154819 0.3787457290942632 -0.14716803163933848 -0.3604683787833744 -0.181977637220409 0.16963385353491517 0.17969311133377322
0.13348241150144063 0.1393778657312304 0.07166094156900166 0.4424260833976465 -0.4594017463385682 -0.3295759914910127 -0.4450104702679516 0.4059147329842204
0.3644044917090047 0.37024283966160565 -0.4673423808164243 0.1546415059573049 -0.10140131590060493 -0.26202848540947526 -0.27980465208731986 -0.2782852983213881
0.37317731428599277 -0.01166671446184364 0.0399721056469994 -0.22964290292205808

seq.2.weight f8 [100, 100]
00000000: 0672 d9be f057 a9bf 7f9b a575 4277 b2bf
00000010: ac5f 3a3e 4332 bdbf 6c17 4df1 ef35 903f
00000020: fcf0 d5f3 5121 9f3f 0eac 0df6 d9b9 c2bf
00000030: 9872 a29b 93d4 7dbf 1b0d 2f73 4af6 b73f
00000040: d34b d76e 5d90 bd3f b218 4d06 b900 c63f
00000050: 112d ed04 20e0 b4bf 1bd9 5c39 0724 c0bf
00000060: d218 2bd9 8b18 9b3f fd17 0dee b652 9fbf
00000070: 2e7d 6993 f3c2 b1bf 12c8 3589 f1a7 babf
00000080: 884d 0122 4b85 b03f 9cb1 d675 31a2 963f
00000090: 6a68 6240 8cd8 9bbf 6416 759b 6706 c5bf
000000a0: 9836 e87e 4c57 92bf a828 dd86 b8ed b7bf
000000b0: dd98 a5a6 8c47 933f 65d8 20ad b77d 94bf
000000c0: 1062 7f49 020f b03f 6773 4d2b 7bc8 923f
000000d0: fcfe 8051 cae6 b63f 08cb c265 6493 bebf
000000e0: 2627 863b 629e ae3f f0c7 11ab 28f9 7f3f
000000f0: 2de6 a655 e154 a2bf 4ada 2dbf 87dd a5bf
00000100: 0d8b c024 79e8 c1bf a255 c982 6113 713f
00000110: cc9a 6be2 a421 a3bf e503 3812 d796 a13f
00000120: 98ac 16e2 ade1 8a3f be5f 7154 a6fc 20bf
00000130: f87a c8dd 67f5 adbf 1d19 22bd 5b18 8c3f
00000140: 86ed fc4e 1ece ae3f 234b 4c24 b6ba a2bf
00000150: 41ec 94e7 5cf2 be3f 6ce7 1799 ec0f b53f
00000160: b94a a5b3 6328 81bf 6341 65b0 743b b83f
00000170: e1ec 2b22 54c8 75bf 82a5 bd0b e08f aebf
00000180: c151 6e57 9858 c3bf 8638 2aa3 39bd 9ebf
00000190: ad71 de2f 86db c1bf d4c2 bd78 cbc8 49bf
000001a0: 7156 9d0a e594 bebf d6c1 2e3e 6c1f c6bf
000001b0: db3d 47c3 beda b1bf 47e6 9b41 dd16 8abf
000001c0: fd3e d7e7 6150 adbf f9a2 8874 eedc b5bf
000001d0: 246d e34d a0b4 7dbf 252b f947 6ad9 b1bf
000001e0: cbb2 4bf5 410e b9bf 3ece 000b cf50 c0bf
000001f0: baa3 9dac dd64 b9bf fb64 e4da 7e79 a4bf
00000200: 1005 ed8e 0286 a33f 59b8 e9ed 3beb b2bf
00000210: b62d 21b2 bd50 983f f1f8 3dca a269 ad3f
00000220: 29a2 45b0 07f9 b63f 6840 9031 8fa1 b2bf
00000230: a108 b681 e5b4 b1bf 485d e773 f43e bc3f
00000240: 4cb2 dbf6 4598 bdbf 435d a3bf 1efd 7a3f
00000250: 9f57 d31d bcc3 bb3f 71d9 1936 43f0 a43f
00000260: 4994 1e43 fd13 b13f 1914 f636 7e15 af3f
00000270: 48cf 067b 1bfa b43f 0086 df93 0ffe b13f
00000280: 3bd6 ba07 7aac b1bf a13b 01f6 8d83 b0bf
00000290: b37c b062 8b5e b0bf 255c d4ca 343b b2bf
000002a0: b835 6d8c 0863 c2bf 8b7a 939a d65e c23f
000002b0: a185 2a4c 6f2d c23f 3278 6e57 772a a5bf
000002c0: ff80 96c3 d848 c03f e3f0 d422 8816 b63f
000002d0: 2b04 e973 00ca bdbf efa9 ccfd 01cc a93f
000002e0: 8904 ff18 1514 b3bf 954d c423 f716 783f
000002f0: f168 e7b1 ac77 a1bf ad37 5ca9 65cb b33f
00000300: 3354 8628 f030 babf 9d9b bb71 5909 82bf
00000310: d608 5da5 2bc8 7fbf c5fb 38c6 2c8c 9c3f
00000320: e150 d03d db9a a03f b87e b4ec 262b b4bf
00000330: 8d22 be85 2b04 b33f e7cf 4829 72d8 a03f
00000340: d9f0 7b19 127e 923f 0c13 1f68 efcc 843f
00000350: d05c db43 1e2b 8abf 2f11 0373 a6b7 b3bf
00000360: f5ff db5e 011b b63f a0e4 479f 91ac 8b3f
00000370: 0c90 4607 7fd3 b7bf 8268 b815 c093 b0bf
00000380: bb2b 39c6 725c b8bf 41c8 b026 3e72 89bf
00000390: 59ea 2626 9283 a93f 8ca0 af69 e73f 96bf
000003a0: c6a4 3f8d f9c1 b33f cce5 4738 b48e b2bf
000003b0: 7707 8279 c581 c5bf 4a9c 6c7f 2240 b4bf
000003c0: a3b7 a944 c1e7 bf3f 076a 0140 b344 b23f
000003d0: f090 9b57 210d b1bf 0990 2307 369f ac3f
000003e0: d0e5 f493 6434 c03f a708 b710 81a0 ad3f
000003f0: dea2 15ca 1929 b03f 6e22 8fba 1f3b acbf
00000400: 0d61 a424 7500 73bf 08bf a591 a816 bfbf
00000410: 1eed 4a37 a0c0 a03f 5bda 3b07 745f b3bf
00000420: 74aa c0a2 ebee 953f 62ef 22eb b33d ae3f
00000430: 0da9 7a47 ad62 95bf edff 3e39 637e bb3f
00000440: d52a cc3f c8ab b23f 2de2 b7a4 aa37 babf
00000450: 7932 3b51 1aee ac3f 996e 1388 9819 9b3f
00000460: 94ea 3bc3 487e c33f 6ed8 ce95 2be6 9cbf
00000470: 2956 3a96 b42f 8a3f 0b54 d637 3f08 bfbf
00000480: 46dc c3a9 fc5a 7e3f 76dc df65 c708 b73f
00000490: f840 8c37 8f81 813f 5f98 e99a c610 a9bf
000004a0: e492 e058 a97a bebf 4657 7fb1 edd8 793f
000004b0: b79f 4986 6be3 91bf 3ace be63 c783 a13f
000004c0: 473a b590 fa38 b33f d238 36cb 0f32 b93f
000004d0: 3870 9140 f9d2 abbf 1fa5 2d85 690f 903f
000004e0: 13ce 9771 d1fa b7bf 8c6b c26f 58cc 963f
000004f0: bd16 a7bb 652f a23f e643 c401 0796 c9bf
00000500: e3d5 85ea 8fea ac3f 4878 9c7d 0041 afbf
00000510: 75d7 c114 214c b0bf 630e 3ccb 67cf b43f
00000520: da74 1346 2586 bf3f 17f6 74a0 2237 9c3f
00000530: e145 e1da 2e7f a0bf f813 087f 4471 b3bf
00000540: a7b0 c3f8 ad00 aebf e0c4 41be 8336 bf3f
00000550: 9837 67bd ab70 bfbf b61c 7199 7e32 b63f
00000560: dd44 635a 08fd 903f 04c2 7df0 e3af 89bf
00000570: 840d 09f4 bda4 acbf 6b91 3a7d 4f88 b1bf
00000580: 0a58 9efb b724 93bf c06e d385 579f bfbf
00000590: c28b 3f48 25bd a8bf 42b7 6dbc 2d8b b53f
000005a0: 570d 859f 9461 af3f a0be 314c 091f c43f
000005b0: b65b 90eb e7e1 a9bf aa15 0f2a 170a b43f
000005c0: 9057 07db 5704 b2bf 8f73 f91d c504 abbf
000005d0: 83e3 6690 eeff c0bf 270d 615d 4b1c c93f
000005e0: 89ae d62f af86 4c3f a874 d506 da38 a8bf
000005f0: caa4 8951 5d4a b2bf 912a a7df 503b ba3f
00000600: 109e 8954 b443 4fbf 0c8e 0966 7523 a13f
00000610: e067 3111 7bd9 bebf 5dfe 793f aa2d c2bf
00000620: d94b 438c 1127 b33f eb21 38c5 eebc b5bf
00000630: 7d17 b1eb a4f6 bdbf 2a51 bbee f3f2 a6bf
00000640: 384b 5407 b6ce 7ebf ea56 b8ae 769d bd3f
00000650: 0c70 dec0 72d9 aa3f 3dd1 1446 3b2d a9bf
00000660: 653a 163f 30ba b5bf a57a 8dc8 b1c9 823f
00000670: 251a 1012 82e5 bdbf 8278 e465 08af a43f
00000680: 4527 a3f7 c214 b1bf 8c32 41f1 6cf2 69bf
00000690: be84 90b8 20d2 b1bf 925c 8cd8 6384 bcbf
000006a0: 3606 b3a1 15d6 bdbf 2dda 7c36 12a1 a03f
000006b0: 812b 539d b28f b2bf bf1d 35ec fc33 acbf
000006c0: 6e6d 89c9 d93a b3bf b2a7 cab5 169e b6bf
000006d0: f92b 764c 5376 953f 3767 53d6 61c3 c03f
000006e0: ee7c e80b e23a ae3f 494f c05b 361e 8dbf
000006f0: 874b 54b9 d95d 84bf 5070 cd17 0e52 7b3f
00000700: 53b4 f85b e4a1 71bf 28fd 882c c49f a9bf
00000710: b66c 894a 36d1 c63f 888c b23b 8949 94bf
00000720: 0d7b 82c3 4a07 9cbf 6a47 798a b0ea babf
00000730: c9e0 5ea6 1a65 b0bf 3945 d297 a4e3 b2bf
00000740: 1d96 f50d f41c 963f 6280 3896 93df a1bf
00000750: 3f59 e946 9109 a43f 31f4 1b47 3642 b33f
00000760: 63b1 f59a 0484 b2bf 57ba 4220 bb69 b13f
00000770: 2b1a b09b 0a58 b8bf c6fe 8574 6681 a0bf
00000780: bc4b ab00 14cd a43f b937 b9fd 5a52 83bf
00000790: 8a02 d714 ca3c 803f 64ac a90c a782 bf3f
000007a0: ddc4 e218 4d76 94bf 35a9 383a 67e8 b53f
000007b0: 3411 7a03 584f bbbf 72a0 42e5 35ba 9ebf
000007c0: fa87 678d 427a af3f 182e e150 0958 b8bf
000007d0: f37e dbb2 05c2 a93f 69f7 55bb 1d53 9abf
000007e0: ef43 07a9 c177 98bf 74b1 4804 4f93 993f
000007f0: 2970 3f40 8bc1 ad3f ce59 f47d d5fa b33f
-0.049499057099385665 -0.07213225719679704 -0.11404819745291545 0.01583075437817831 0.03040054369692856 -0.14629673494650358 -0.007282806962532938 0.09360184967140521
0.11548408466414566 0.17189705665277227 -0.08154487724566574 -0.12609949398910988 0.026460824136642476 -0.03058896854351899 -0.06938097332885171 -0.10412511443954056
0.06453389721109748 0.02210309297304179 -0.027193252019607796 -0.16425795641605412 -0.017911143537324564 -0.09347108166290019 0.01882762686855065 -0.02001082414809509
0.06272901815771825 0.018342899816491533 0.08945908059922297 -0.11943652614972333 0.05980212189304117 0.007805975780785332 -0.03580383463436152 -0.04270576676110645
-0.13990701956307597 0.004168873693364191 -0.037366058959198506 0.03435394379994942 0.013125761472869521 -0.00012959986108529263 -0.05851292211831621 0.013718334874522281
0.06016630853852249 -0.036580745631132915 0.12088566449976758 0.08227423417693353 -0.008377818031168759 0.094657223763766 -0.005318001409928303 -0.059691430504993384
-0.15114120740021345 -0.0300187116468398 -0.13951184594487867 -0.0007868760599035415 -0.11945945271630777 -0.1728339484811971 -0.06974403636490172 -0.012738922657706498
-0.05725389437759352 -0.08540239663183148 -0.007252336681826042 -0.06972374207650185 -0.0978738044611404 -0.1274660876966766 -0.09919534172298841 -0.03998943731330403
0.03813179011059209 -0.073901887497159 0.02374550246922321 0.05744656294608486 0.08973739675060045 -0.07277770004316297 -0.06916651169561529 0.1103356154411489
-0.11560475613414062 0.006589050399461729 0.10845542648470861 0.04089555774128229 0.06671126259478045 0.06071085377610803 0.08194133523539648 0.07028291092094463
-0.06903803528515422 -0.06450736289956051 -0.06394263419541595 -0.07121591522114608 -0.14364725929992317 0.14351923511181428 0.14201155871437002 -0.04133961622504535
0.12722310590925898 0.08628130770097502 -0.1163635523780761 0.05038458083284413 -0.07452518329866299 0.005881276502140227 -0.03411616965941445 0.0773223436810599
-0.10230923642514327 -0.008806895049429825 -0.0077592568321184965 0.027878474806353432 0.032431460662481155 -0.07878344801838011 0.07428237929537769 0.03290135148964151
0.01805904655974264 0.010156507840187533 -0.01277755398352412 -0.07702102954778377 0.08634956899550146 0.013512742684712642 -0.09307092597606487 -0.0647544911411462
-0.0951606496757184 -0.012424932056181006 0.04983193126414127 -0.021728149247707537 0.07717857073261589 -0.07248998998684114 -0.16802280838970393 -0.07910361872619479
0.12463004995671993 0.07136078179011217 -0.06660660160884269 0.05590218388695695 0.12659890388913064 0.0578651745704673 0.06312714751914991 -0.05513857986767766
-0.0046391082671777386 -0.1214394908508859 0.03271961855849724 -0.07567525078398189 0.02141922169554751 0.059064505055600916 -0.020884234893551446 0.10739727161035235
0.07293368871266222 -0.10241190453951594 0.0565040802153804 0.026464827828802304 0.15229138882553583 -0.028221779840997767 0.012786303362456302 -0.1212195884057367
0.007410990682038826 0.08997770535630586 0.008547896273313857 -0.04895611420651912 -0.11905916614393736 0.006310394754071974 -0.017469101020111313 0.03420851795763409
0.07508817704113212 0.09842013083673187 -0.05434397614655534 0.015683792832907103 -0.09367093108431161 0.022263891049628934 0.03551786342317829 -0.1998909720064425
0.056477067354460585 -0.06104280026760073 -0.0636616397549384 0.08128975593359082 0.12314064942207228 0.02755407432890963 -0.032220329493281026 -0.07594707585674587
-0.058598934761762415 0.12192557711547947 -0.1228129708681237 0.08670798536433008 0.016590242878753315 -0.012542515541754014 -0.055944381751511535 -0.06848618323653503
-0.0186947581601871 -0.12352511422380541 -0.04831806666313511 0.08415494776064938 0.06129135558378589 0.15719715328622375 -0.05055165052924997 0.07827896859006125
-0.07037877175693397 -0.05277076712511707 -0.13281042147516695 0.19617597636725145 0.0008705478100429913 -0.04730874379559086 -0.07144721260705747 0.10246758899953991
-0.0009541159170795583 0.03347365255902099 -0.1205059926009251 -0.1420185861534148 0.0748148887098944 -0.08491413416789555 -0.11704474214738343 -0.044822333232931236
-0.007521353768668963 0.1156839539110838 0.052440248530928185 -0.04917321424946628 -0.08487226047712111 0.009173764164811369 -0.11678326550472969 0.04039789432339182
-0.06672304673989256 -0.003167355325820081 -0.06961254602403508 -0.11139511143515993 -0.11654792020547053 0.03247887530453784 -0.07250515309276119 -0.05508413680450585
-0.07511674089749018 -0.08834974230072026 0.020959188024374218 0.13096259083868642 0.059042991593963964 -0.014217781710648263 -0.009944630592632965 0.0066700506693813805
-0.004304782894490949 -0.050047045170226234 0.17825964583867 -0.019811767834323507 -0.027371566946949467 -0.10514357929903687 -0.0640427261522546 -0.07378605562759767
0.02159482321930827 -0.03490887840985192 0.03913549414271466 0.07522906528534247 -0.07232693465420463 0.06801957643140476 -0.09509340573286156 -0.03223724529652609
0.04062712200325033 -0.009434424274470265 0.007928446541769735 0.12308734950208727 -0.01998253311530084 0.08557744189662204 -0.10667944035418914 -0.03000721179765304
0.061479644547730986 -0.09509332871055454 0.0503083973724169 -0.025707687911100594 -0.023894334737466435 0.024976000439140347 0.058117248146772056 0.07804617238102837

seq.2.bias f8 [100]
00000000: f8c2 08f4 5358 a73f b7b3 09b7 023f bc3f
00000010: 58b2 b378 6c5e ac3f 346c da83 3cea 96bf
00000020: 5849 499c a720 9b3f 0966 1305 d257 bdbf
00000030: add2 e2aa 8b94 803f f047 6ac4 49af a4bf
00000040: 546e ec2c 6fd9 9c3f 3352 9aa5 1d61 b6bf
00000050: 1e38 348f 6c4a b4bf 4aa3 7d73 0dc6 993f
00000060: 1b8e 7871 aceb 723f 17e4 80f8 f1ce a1bf
00000070: 3926 7e9a c4ff b9bf 22c6 b62b b625 c8bf
00000080: a213 d622 3346 c03f 0fc3 fa27 105b c33f
00000090: 8328 2586 1d40 a0bf 54c9 e665 1243 bcbf
000000a0: 5d54 3dd7 3f5d bbbf aaf3 795d 2f19 b5bf
000000b0: 4f58 d139 b757 ad3f 5a69 b8bf 89be 99bf
000000c0: c947 7eb9 40ea 7abf 2da6 1b1a 7de2 903f
000000d0: e27f 6a22 e5b1 6cbf 202a 7e12 a299 54bf
000000e0: 135b 6612 f3bd 97bf 1075 25ea abe1 b43f
000000f0: ecc7 83c1 c1b6 a6bf 4c02 aaa1 777f 973f
00000100: 86e0 508b ffea a7bf 8ff5 1fc2 25ca b4bf
00000110: e4a6 1421 4a91 b13f 5e08 bd90 76aa a73f
00000120: cad5 a14e 9399 a03f 7bc9 4f03 c61c ac3f
00000130: 55c3 ea24 ee7d c8bf a252 5ba5 e94d c2bf
00000140: 5c32 d8d8 d294 afbf b64e 20b8 e3ba a23f
00000150: a6e5 03dc 5292 c4bf e3fc 3166 3007 993f
00000160: 3cba dbe8 6475 ba3f 17c9 e26a 0e8c c4bf
00000170: 2081 3f26 5450 c0bf 5bc2 cc58 c6af a1bf
00000180: f99b 85a9 bb45 a6bf da98 6a5d 62a3 943f
00000190: 207c cbab 5ef8 c7bf 905c f265 3489 96bf
000001a0: ed95 b7f6 6c86 8fbf e6e0 b960 c4e2 a7bf
000001b0: 3900 3e7e b147 a73f d821 bc4e 1e2c b8bf
000001c0: f90d b5ec 342a 9a3f 94b4 35fd 7397 b7bf
000001d0: 2ab7 24b2 5163 aabf df68 a870 fd9a ab3f
000001e0: c488 ead1 c071 a6bf 2bd5 1365 03f6 a1bf
000001f0: aa98 5f0b 5345 bcbf 1ef2 8d57 53de c6bf
00000200: 49be c770 e262 86bf 733d f9eb 75f1 a7bf
00000210: 7912 7f49 7b67 acbf c17a b727 97f4 a0bf
00000220: 1a8b 8e5d 4caf a23f 2e9f 012f 3cc9 9e3f
00000230: 6eef 9cef f854 863f afde 7186 053b 993f
00000240: 9a9b b089 b527 ba3f 18be 2911 db28 b2bf
00000250: 483e a456 6e44 a33f 8dba 537b ffb4 a7bf
00000260: 883a 2635 8237 8e3f 0954 b53b e417 72bf
00000270: 8922 9d87 5594 88bf deec d736 6465 c6bf
00000280: 1eb1 81c7 1243 aabf a7dc 7ca0 1c32 b6bf
00000290: 36a0 89e3 2d93 a43f b08b d14f 36cb b4bf
000002a0: c884 289d b94e a63f 6aea a00e 8850 d43f
000002b0: c5af 65f3 5b86 a8bf dd48 8ad2 f42f 97bf
000002c0: 0c24 b8df 4e92 bf3f b2a4 b6e0 537b 92bf
000002d0: ef51 4ed9 6888 b0bf 6c99 8c20 57ab b03f
000002e0: 505a fb56 a2ba b43f ce74 7f97 b04f bb3f
000002f0: 447c 3b3a e4ac b43f 1f0c 46b4 f5dc b23f
00000300: d75b fc66 99b6 b23f 7990 fcc2 f7d5 83bf
00000310: 0a04 250a 7782 a03f 272b 9500 8125 bb3f
0.04559576372083102 0.11033646553705877 0.05540789578831057 -0.022377915904695025 0.026491755403477896 -0.11462128280563645 0.008095828201797184 -0.040399842478237136
0.0281731959504284 -0.0874193696311714 -0.07926062103453588 0.025169572996137014 0.004619287115505989 -0.03478199156274558 -0.10155895969196473 -0.1886508668372225
0.1271423263644041 0.15121652557493134 -0.03173916113389998 -0.11039843547658751 -0.10689162258980063 -0.08241554290903133 0.057309842880088106 -0.02514090759914587
-0.006571057157900692 0.016488985746866348 -0.003502795723150585 -0.0012573321091361514 -0.02318553733638413 0.0815684744497569 -0.04436307418099247 0.022947186701005415
-0.04671476913102972 -0.0812095259606933 0.06862319285996993 0.046222405594122704 0.03242168745866143 0.05490702429223667 -0.19134308626737587 -0.14300270628031791
-0.061682309122350815 0.03658210394510546 -0.1607154440205651 0.02444148658514401 0.10335379300134034 -0.1605241796401706 -0.127451437640965 -0.03454418024046354
-0.0435007709918906 0.020154511405643706 -0.1872671450464347 -0.0220077693198531 -0.015393115309914907 -0.04665197067964914 0.045468851719306654 -0.09442319318998871
0.02555163092371335 -0.09215474063758428 -0.05153899478533071 0.053916854860476475 -0.043836618065385774 -0.03508005722862103 -0.1104328062789103 -0.17865983748551256
-0.010930794779567725 -0.046764073424692486 -0.05547700187847666 -0.03311607703993991 0.03649366991091636 0.030064525956191072 0.010904259502801241 0.024639211970195415
0.1021684132725639 -0.07093590897579138 0.03763146216999452 -0.04630277996499386 0.014754311797131395 -0.00441731599433571 -0.01200167484388827 -0.17496922185805536
-0.051292979101022804 -0.08670214574964295 0.04018538858946423 -0.08122577141470688 0.04356937449871051 0.3174152510506817 -0.047900079213689696 -0.02264387640986675
0.1233262344541261 -0.018048582640095297 -0.06458144479103799 0.06511444611223788 0.08097281097011799 0.10668472002676596 0.08076311513603779 0.07368407870494352
0.07309874309827023 -0.009685454977052853 0.03224536894641268 0.10604101433015654

seq.4.weight f8 [2, 100]
00000000: 3ab0 1aca f55d 953f a1e2 3794 237a ea3f
00000010: e8e0 387d 5785 b63f 3322 80ec ba2e b23f
00000020: d836 e504 9caf adbf a2c6 a42f f9b5 8abf
00000030: cb7b 35be 8652 e0bf 8dee beaa 9c0f c73f
00000040: db38 c2e9 f7fb d4bf 9075 879f 9b8a c43f
00000050: 01ff f7f2 1351 d0bf 29e7 2844 3f2a b8bf
00000060: 5011 60bb b838 e4bf 7dae 634e 52e9 d1bf
00000070: 7872 ab00 a6dd cfbf cda4 b221 81b6 b4bf
00000080: a895 86e8 cb21 f33f 76be c981 bc93 dabf
00000090: 6e85 2f96 ea90 c4bf 3462 0910 28ba cbbf
000000a0: aaca 28f9 83ca b03f 41bf 0884 0dde 743f
000000b0: 8a24 3e3e 51c7 e23f 1168 85cf a781 cfbf
000000c0: 620f 356b 5571 e33f a628 a6d9 b38f acbf
000000d0: 708b 8699 e82b bcbf 80ce e158 75d9 b23f
000000e0: 3333 77cd 3076 f63f 6cac 1968 7d13 a63f
000000f0: b9f2 a1da 980b ea3f a896 95fa e9a6 da3f
00000100: 3871 dbfe f565 b33f cec1 cb42 0b8c 953f
00000110: a362 6df1 e5bd 833f b36f b6d3 874f e03f
00000120: 104c 7931 ecb8 e53f dddc 186b 261f ca3f
00000130: 22d2 e948 d4fd f2bf a2dc 04b1 2416 e93f
00000140: f2cc 5b44 a63d b83f 0c70 bc2c 721f cf3f
00000150: 7ffc 6834 7b27 b93f 8c8a 62d5 4a29 e3bf
00000160: d12c 3830 b17a e4bf b35a 3d85 4876 e53f
00000170: 9faf 5ea1 9e51 ad3f a2d8 d06a 687f b4bf
00000180: 9618 c0fb 736b c0bf 241c a8c3 9f9a c13f
00000190: 52ee c713 b04c a5bf 4a11 b245 9beb d53f
000001a0: db87 3463 967a b2bf b324 364e 1dea 92bf
000001b0: 8961 5b77 861e ecbf bcc9 6ea7 3bdd b23f
000001c0: d4b2 3800 f629 e5bf 1ad1 89d3 71a1 a3bf
000001d0: d28b e18a 45fd b5bf f843 05a9 e97c e3bf
000001e0: dbf4 069c bd65 b3bf 8764 a3ac 30fb d0bf
000001f0: d802 c2c1 41b6 c6bf d685 0c72 37f3 c3bf
00000200: 7e53 005d a4e3 d7bf db8e eacd fabb c2bf
00000210: f43d 1970 2917 d7bf 61dc d753 fd5b c5bf
00000220: 9d64 dc2e 88a7 bb3f af01 6afa 0645 b83f
00000230: cd3f b090 9bfd 9d3f 940d 6525 1d03 a8bf
00000240: e687 7514 ac1c d03f 7ba6 5435 ac05 cfbf
00000250: 66f9 6c26 72de a6bf dc50 febe 3fd3 cb3f
00000260: 0a7c cdd6 8980 f23f ecc6 48c3 92a3 b8bf
00000270: 2a2d 3c5e f4bd abbf 4d76 5a59 0ef5 bf3f
00000280: 28a4 69d6 fdfd d3bf dd23 a19c ed61 e23f
00000290: f6b3 f16b b2bb d23f 8318 65af 3fde a3bf
000002a0: 8711 7cfc 77ad ddbf 2746 066c 51b7 c43f
000002b0: a81c 6d4a 1214 e23f 0a5a 8027 a95d b13f
000002c0: 7853 2688 3b0a e1bf ef28 250a da56 d9bf
000002d0: 0ebf 76db 8f25 993f fdb3 40db 8f35 e0bf
000002e0: 59e8 2d12 6d4d 983f 29bf c774 ff67 d7bf
000002f0: 345b 3041 62e1 b7bf 462f 93d3 1514 e23f
00000300: 7b74 2d96 0534 d83f e00c 64cb f188 e83f
00000310: 54d9 e544 35be b6bf f1c5 8dce 2c82 e23f
00000320: 96f4 e937 e7c1 c6bf a8ac ac2a 59c5 84bf
00000330: 2fbf cab9 22c2 d0bf 7398 c17d 3d91 91bf
00000340: fc4b 7e75 bcb5 abbf 6e96 7f27 9e3f a73f
00000350: 2bd8 04d9 5a3e 8f3f ec87 c220 31c1 b73f
00000360: 5866 2393 ccab 95bf 5d22 c10b 7859 9e3f
00000370: 23d7 938a 73a1 c23f b7b4 aaac 4f64 a83f
00000380: 0556 5eae 9270 a43f 7ec9 d987 a2b4 923f
00000390: 41e0 145e 0ed6 c53f 479e 25a0 74fd c33f
000003a0: df34 4f36 570b b03f c866 7a8c 815a a23f
000003b0: 6420 a771 f6c3 b8bf 90cb 288c ce9f bdbf
000003c0: 020e c034 7fd1 a43f 4a2f 8c3b 2af9 c23f
000003d0: 8713 ca63 5e81 a4bf d9fd dc3c 28e9 abbf
000003e0: 8b00 8462 bfef a63f 267b 9fc1 6dee a9bf
000003f0: 935d 9809 022a babf 3cce 79be 763c b4bf
00000400: bd4a a2df 3a48 753f 8f1e 3d1b 65c0 b7bf
00000410: 9640 634c cf24 b43f b32f 39a4 b9d8 c33f
00000420: 3d92 e2e0 400e b2bf cb32 6df7 b68a c2bf
00000430: e290 925f a358 82bf 2df8 4f31 7585 9a3f
00000440: ad81 3fdc 02a4 93bf df60 24dc 9324 b73f
00000450: 2b3d 7974 51f1 7cbf e6bf d620 9361 b1bf
00000460: 3de1 e2d9 2fc4 c13f fb0a feae 183e be3f
00000470: b826 8179 a481 b1bf 86ac 5f92 7634 a93f
00000480: 22a2 0592 4cd1 73bf 2cb0 8a08 6c4d a1bf
00000490: 0903 7aee 4441 d23f a4dd 6d95 6a59 ba3f
000004a0: a6e5 d92b f38a aebf 4b56 6111 646a d9bf
000004b0: b2ad cfb1 d846 d5bf 8905 5a25 1fac 96bf
000004c0: df56 0f2a c34d bebf a968 8a89 62ae a63f
000004d0: 94b0 e338 d32f b4bf 3e34 0622 06e2 b0bf
000004e0: d398 d7b7 c09d 79bf 971d 6be1 6bb6 ae3f
000004f0: 9c5c f224 7678 cbbf c450 7d18 f31a 81bf
00000500: 265d c353 904f d53f d298 a9dc 20b7 cfbf
00000510: b433 77de f272 c23f e66b 8bdb 8f7a c53f
00000520: 81ad d4ca 3b24 c7bf ab23 7db4 bfcf b6bf
00000530: f01f 3243 688c c43f a9e4 7463 415b a2bf
00000540: d858 07f3 4129 b4bf 1f70 2408 ac5a a33f
00000550: be52 e639 51ec c03f d5aa 2a7d 6421 b63f
00000560: e144 3eec f5ce bb3f 25b4 bce5 a34e bd3f
00000570: 67ac b9bd 0400 6e3f a17a 3389 59b8 a33f
00000580: 8186 dcf4 41ae a0bf 5bb5 b4dc 45e8 c3bf
00000590: b533 86ed 21fb b73f e487 9c66 4b0e c1bf
000005a0: f94c e182 fa40 903f 0c1b 385f 54c0 8cbf
000005b0: a134 aa94 4710 983f 3dce 38f5 97e9 d43f
000005c0: b05c d5e0 605d 69bf e094 6633 2dca de3f
000005d0: c3ce ac95 d51c c7bf cbc6 9386 4136 653f
000005e0: 86c2 3d75 0e6f 74bf 2626 1f06 bc53 ae3f
000005f0: 3b70 2bfd 0404 a0bf aaaf f396 627a 8b3f
00000600: 8351 61ae 275c cabf 22ff c296 f049 a5bf
00000610: 1bf2 eaef 561e a23f eb44 ec46 6173 b0bf
00000620: d1a4 a00b 6ebc bd3f a599 d636 a626 aabf
00000630: cffe 9b2b 2916 b7bf e1b9 70b6 c706 b73f
0.02086624189421136 0.827409543503638 0.08797213370496915 0.07102554582537195 -0.05798041877515708 -0.01304239918372058 -0.5100740160959217 0.18016393983076676
-0.3278789313125238 0.16047997750767395 -0.2549486038915206 -0.09439464010293065 -0.6319240245507363 -0.2798658147355367 -0.24895167381955097 -0.08090979645443781
1.1957511027370433 -0.41526711153617357 -0.16067249615938856 -0.2166185453704813 0.06559014161102064 0.005094578548366092 0.5868307319334616 -0.24614427216403148
0.6075846761600412 -0.05578386337136125 -0.11004499195273154 0.0736306516644678 1.403855135536287 0.04311744590526065 0.8139156599205172 0.4164376208412741
0.07577455017184753 0.021042037917995242 0.009639545851017067 0.5097083220493829 0.678823563221501 0.20407562474586075 -1.1869700287035205 0.7839530427362613
0.09469069641982111 0.24314715561274658 0.09825868634742284 -0.5987905662226054 -0.6399770681176965 0.6706888773286067 0.05726333350989354 -0.0800690899639869
-0.1282792071580771 0.13753125241802977 -0.041600706495924414 0.3425052815075743 -0.07218303606035141 -0.018471200846339197 -0.8787262278738562 0.07368824804033286
-0.6613721851659542 -0.03834109980826579 -0.08589586868906388 -0.6089981366332031 -0.07577118930108233 -0.26533142909244883 -0.1774370380481034 -0.15585988110346588
-0.3732691677299086 -0.14636168531898516 -0.3607886881554514 -0.1668697986021668 0.10802508491578285 0.09480327237725449 0.029287749010165776 -0.0468987568042635
0.2517500114246317 -0.242360616722454 -0.04466587752402766 0.21738430810785914 1.156381453583665 -0.09624593036349055 -0.05418361330347417 0.12483300858954145
-0.31237741411911424 0.5744541224640859 0.29270611325665585 -0.03880499855090227 -0.46371268898681034 0.16184442305216004 0.5649501279484825 0.06783539976490985
-0.532499090115933 -0.3959260081361568 0.02455734993935637 -0.5065383226661876 0.023732856974199332 -0.3657225265915139 -0.09328283397222209 0.5649518139193581
0.37817516008164603 0.7667168591000539 -0.08883984500957826 0.5783905061963975 -0.17779245596094445 -0.010142037024328879 -0.26184909957645436 -0.017155609894324585
-0.05412091192479093 0.04540724022062369 0.015255651233570052 0.09279162454416195 -0.021163174133880552 0.029638171880181797 0.14555210367660107 0.047640313937657046
0.039921363625733654 0.018267192403479175 0.17059497445893793 0.1561723501174461 0.06267304492867563 0.03584675636120732 -0.09674015307166567 -0.11571970865115433
0.0406608344929076 0.1482289114722966 -0.04004950492984621 -0.05451322310409141 0.044797879005273954 -0.050647191892258456 -0.10220349058396598 -0.07904760504043734
0.005195836996920886 -0.09277946391113744 0.07868667235311685 0.15505142706603933 -0.07052999010427015 -0.14485823708891696 -0.008958126405851311 0.025899726042546135
-0.019180340474010005 0.09040187954485955 -0.007066076453681884 -0.0678951220677387 0.13879964961030025 0.11813501617693227 -0.06838443724077592 0.049228387229811196
-0.0048382750540914305 -0.033793808024114774 0.2852337197182782 0.10292688511059694 -0.05965385351459966 -0.39711858460700417 -0.3324491249502116 -0.02214096703983651
-0.11837405945638178 0.04429920128787163 -0.07885475291158378 -0.0659488518778781 -0.006253960423668842 0.05998551489534092 -0.2146136932758268 -0.00835218351827683
0.3329811876296439 -0.2477761342481189 0.14413295614795418 0.16780279369308387 -0.1807932606110221 -0.08910749584641901 0.16053488999409593 -0.035852473631572686
-0.07875454123800141 0.03780114745515583 0.13221183135160247 0.08644702964617619 0.10862671868951025 0.11448120459381579 0.0036621182060137428 0.03851585197275154
-0.03257948030501457 -0.1555259063401689 0.09367572831088362 -0.13324873457264552 0.015872873533521823 -0.014038714557512509 0.023499601792128847 0.32675742099238275
-0.003096284118025837 0.48108987826920036 -0.18056745346404143 0.002589347820156051 -0.004988724209269995 0.0592325932953595 -0.03128066626024447 0.013417024833380104
-0.20593734755187762 -0.041579740909126764 0.035387722765765704 -0.06426055890576136 0.11615646156191707 -0.0510761205617201 -0.09018189730340541 0.08994720653638623

seq.4.bias f8 [2]
00000000: 9c55 c1ee 77a1 76bf 193b 4df8 b531 903f
-0.0055250820988325365 0.01581463172925188
