benchmarks/models/nn_5_relu/model.pt (torch, 85871 bytes, 8 tensors)

seq.0.weight f4 [100, 3]
00000000: 98e3 683c 1a06 00bd 83bc 1bbd 742e 833c
00000010: 2a47 10bd d493 2fbd 3259 5f3c f381 f5bc
00000020: 1958 15bd 2eb4 743c 8e9a 06bd c6c0 23bd
00000030: 1c73 473c 162e dbbc 8746 05bd 48a2 663c
00000040: e688 fdbc 8232 1abd c09d 5d3c 29a3 f3bc
00000050: f32e 14bd 5215 633c c1ac f9bc 3cdc 17bd
00000060: 44ba 2e3c 74e9 bfbc b854 e9bc 8ad2 5a3c
00000070: 888d f0bc 494a 12bd d114 7c3c 5ba8 0abd
00000080: 45b4 28bd 2e11 663c 90f5 fcbc ddd8 19bd
00000090: 4d21 063c 37db 92bc ea6e b2bc 7cfb 6a3c
000000a0: 2027 01bd ae21 1dbd d933 5f3c 9251 f5bc
000000b0: fb3b 15bd 0fe6 813c 60e4 0ebd e7da 2dbd
000000c0: 1577 643c c920 fbbc 12c6 18bd e0ba 7e3c
000000d0: 0217 0cbd 1070 2abd 43e9 1b3c a62c abbc
000000e0: 360e d0bc d9d9 703c c979 04bd 3927 21bd
000000f0: ac36 8b3c 7433 19bd aa6a 3abd aacb 873c
00000100: 0477 15bd 66df 35bd ff85 613c 5cea f7bc
00000110: d8ca 16bd 0db2 323c 3e58 c4bc f1b7 eebc
00000120: 2ff3 763c 24da 07bd f644 25bd 0115 843c
00000130: d45f 11bd 08e6 30bd dfa0 a43c e83f 35bd
00000140: bea1 5cbd 6008 843c 0d5a 11bd 33da 30bd
00000150: f2df 673c 99f1 febc 7813 1bbd a0ea 573c
00000160: 584d edbc f653 10bd e7be 883c 0671 16bd
00000170: d310 37bd dfe5 873c 3782 15bd a7f1 35bd
00000180: 188b 6b3c 2288 01bd 0f95 1dbd c56e 7f3c
00000190: 7689 0cbd 2c00 2bbd 0a1d 5c3c c5f7 f1bc
000001a0: 542b 13bd b9d6 7b3c 927c 0abd 9580 28bd
000001b0: d1a3 783c 9bb9 08bd 7b52 26bd d6b1 5d3c
000001c0: edb6 f3bc bb3c 14bd 3331 5c3c d922 f2bc
000001d0: 6243 13bd 50b9 803c aaa5 0dbd ce54 2cbd
000001e0: d1ec 943c 78ee 23bd f184 47bd 0822 673c
000001f0: 3b3c febc 53a3 1abd 03b9 823c 53dc 0fbd
00000200: b80b 2fbd ed53 703c b021 04bd 20ba 20bd
00000210: 5dc7 723c 0c79 05bd f166 22bd e6b7 783c
00000220: 2edd 08bd 6782 26bd d91f 6f3c 8275 03bd
00000230: a1f0 1fbd defa 573c 4575 edbc 6b6c 10bd
00000240: 3437 eb3b c1a6 80bc 402f 9cbc 1c35 8b3c
00000250: dc21 19bd 9e62 3abd 6eda 663c 72bc fdbc
00000260: 8b5c 1abd f8a5 4b3c b6c0 dfbc a30d 08bd
00000270: 4694 443c c3e1 d7bc 6943 03bd a5ea 7e3c
00000280: 4633 0cbd e79a 2abd aa00 963c e922 25bd
00000290: 27fd 48bd 3c20 623c b38d f8bc 622f 17bd
000002a0: a270 593c bdff eebc 235a 11bd 51e3 603c
000002b0: 512f f7bc 525b 16bd e6bf 723c 1c84 05bd
000002c0: e170 22bd 2880 923c 0d39 21bd 5e3b 44bd
000002d0: dccc 6c3c e13a 02bd f46d 1ebd 06b6 723c
000002e0: 8e74 05bd 1063 22bd b9b7 7b3c ff74 0abd
000002f0: e578 28bd c034 813c b824 0ebd 92f1 2cbd
00000300: 460d 8b3c 8c00 19bd 7b27 3abd 7a69 823c
00000310: af7a 0fbd a994 2ebd 0294 5d3c 1796 f3bc
00000320: ff29 14bd 900a 6c3c f9c0 01bd 2de1 1dbd
00000330: fb15 6d3c 8461 02bd 4a9f 1ebd dd2d 833c
00000340: a94e 10bd 439a 2fbd f477 4b3c d986 dfbc
00000350: 64ee 07bd b373 853c 2fcb 12bd d6a3 32bd
00000360: 2320 953c 7123 24bd b0b8 47bd 71b7 7f3c
00000370: 64a3 0cbd d018 2bbd 6cb7 703c 455a 04bd
00000380: 6106 21bd ae4f 8d3c 4283 1bbd 403e 3dbd
00000390: 94fe 6a3c 402b 01bd 8a27 1dbd b44d 863c
000003a0: a7bd 13bd e8cb 33bd 13a3 4a3c 8693 debc
000003b0: 5c59 07bd 8c1c 743c 9e43 06bd df54 23bd
000003c0: 6768 633c ca01 fabc 920f 18bd 514e 653c
000003d0: 111c fcbc 5a56 19bd db13 813c 9d02 0ebd
000003e0: a2c6 2cbd 34fe 623c 8388 f9bc 4ac2 17bd
000003f0: 6162 5e3c 4a71 f4bc 94a9 14bd 0b98 6c3c
0.014214419 -0.03125582 -0.038021576 0.016013362 -0.035224117 -0.04286559 0.013632106 -0.029969191
-0.03646097 0.014935536 -0.03286224 -0.039978765 0.01217344 -0.026755374 -0.032537963 0.014076777
-0.030949067 -0.037645824 0.01352638 -0.029740887 -0.036177587 0.013860064 -0.030477883 -0.037075266
0.010664526 -0.023426749 -0.02848278 0.0133558605 -0.029364362 -0.035715375 0.015385822 -0.033851963
-0.041187543 0.014042182 -0.030878812 -0.037560333 0.00818665 -0.017926795 -0.021781404 0.014342185
-0.031531453 -0.038362198 0.013623201 -0.029946122 -0.036434155 0.01585677 -0.034885764 -0.04244509
0.013944407 -0.030655282 -0.03729827 0.015547484 -0.03420163 -0.041610777 0.009516063 -0.020895313
-0.025397401 0.014700376 -0.032342706 -0.039344046 0.016993843 -0.037402585 -0.04551188 0.016576607
-0.036490455 -0.044402502 0.013764857 -0.030263118 -0.03681454 0.010906708 -0.023967858 -0.029140444
0.015072628 -0.03316702 -0.04034897 0.016123297 -0.03549178 -0.043188125 0.02009624 -0.0442504
-0.053865187 0.016117275 -0.03548627 -0.04317684 0.014152514 -0.031121062 -0.037860364 0.013178498
-0.028967544 -0.03523632 0.016692592 -0.03672888 -0.04469378 0.016589103 -0.036501136 -0.04441991
0.014376424 -0.031623967 -0.03847223 0.015590374 -0.03431078 -0.04174821 0.013434658 -0.029537091
-0.035929993 0.015371018 -0.033810206 -0.04113825 0.015175776 -0.033380132 -0.040606003 0.013531169
-0.029750312 -0.03619073 0.013439464 -0.029557632 -0.035952933 0.015713364 -0.034581818 -0.042073064
0.01817933 -0.040022343 -0.048710767 0.014107235 -0.03103458 -0.037753414 0.015957361 -0.035122227
-0.042735785 0.014668447 -0.03225869 -0.039240003 0.01481804 -0.032586142 -0.039648954 0.015180564
-0.03341406 -0.040651705 0.014594995 -0.032094486 -0.03904784 0.01318237 -0.028986583 -0.035259645
0.0071782116 -0.015704514 -0.0190655 0.016993098 -0.037385806 -0.045504205 0.014090164 -0.030973647
-0.037685912 0.012429707 -0.027313571 -0.03321613 0.011998242 -0.026352769 -0.03204671 0.015558873
-0.034228586 -0.041651633 0.018310864 -0.040316496 -0.04906955 0.013801631 -0.030341005 -0.036910422
0.013271483 -0.02917468 -0.03548635 0.013726071 -0.03017393 -0.036708184 0.01481626 -0.032596692
-0.03965843 0.017883375 -0.03936105 -0.04790818 0.014453139 -0.031794433 -0.03867908 0.014813906
-0.03258186 -0.039645255 0.015363627 -0.033802982 -0.04113092 0.015772223 -0.034702986 -0.042222567
0.016974103 -0.037354037 -0.045447808 0.015919436 -0.03502911 -0.042622242 0.013524057 -0.029734654
-0.036172863 0.014406815 -0.031678174 -0.038544822 0.014470573 -0.03183128 -0.03872613 0.01601308
-0.035231266 -0.042871725 0.012418736 -0.02728598 -0.03318633 0.016290521 -0.035838302 -0.043613277
0.0182038 -0.040072862 -0.048760116 0.015607701 -0.03433551 -0.04177171 0.014692169 -0.03231265
-0.039312724 0.017249908 -0.037966974 -0.046201944 0.014342923 -0.031535387 -0.038367786 0.016394474
-0.03606954 -0.043895632 0.0123679815 -0.027169954 -0.033044204 0.014899384 -0.03277933 -0.03987586
0.013879872 -0.030518431 -0.037124224 0.013995723 -0.030775102 -0.037435867 0.015756538 -0.03467046
-0.04218162 0.013854552 -0.030460602 -0.037050523 0.01357326 -0.029839177 -0.036294535 0.014440547

seq.0.bias f4 [100]
00000000: 300c 273e aea8 1f3e 77f2 0c3e 57be 2a3e
00000010: 896a 1b3e 26f2 0d3e 4356 2b3e c7cc 153e
00000020: 05af e23d f7af 243e fa2c 213e 7273 2c3e
00000030: 41d9 863d 3680 153e 15ac 113e a9ac 1a3e
00000040: fff7 173e 9e61 0f3e 613f 9c3d cce4 2c3e
00000050: 5478 243e f6db 293e 3b40 2b3e 4e39 f13d
00000060: bf40 f83d 23ee 0a3e 91f4 023e cff8 2e3e
00000070: 4544 1b3e 4a0e 193e ac00 273e 1ddc 0c3e
00000080: b0f0 233e f64e 1e3e b78b 1e3e d8de 143e
00000090: 5be7 1b3e 9335 303e 0de6 063e baee 213e
000000a0: 1c45 093e 55c4 303e 230d 1b3e 182f 203e
000000b0: 7a73 203e 7ae5 2d3e b7a1 1c3e 4d7f 2f3e
000000c0: e693 c93d 858c 223e c758 153e f7e9 2f3e
000000d0: 98ab fc3d 9437 103e 28e4 e73d 5632 253e
000000e0: 7cef 193e 5f78 183e dd02 1c3e 4c70 e93d
000000f0: 3715 1c3e 905d 053e 9eb7 0c3e 27d9 093e
00000100: 1ea1 223e b2c4 213e 1e8a 183e add7 f93d
00000110: f624 1c3e 020f 2a3e f6c9 1a3e 6c1a 1e3e
00000120: ae94 2d3e 386a 193e 4d91 273e 9be0 163e
00000130: 45d1 233e 766f 203e d09e 083e 9811 213e
00000140: 2364 2c3e 34c8 263e 1271 123e 4f10 2b3e
00000150: b67c 183e a611 1f3e d24c 243e 3c22 153e
00000160: f3e0 1b3e 8bd8 033e 3d0c 1b3e 92c2 123e
00000170: 4bae ab3d 1ac0 173e 4115 113e 11f6 2d3e
00000180: 706c d0bc 7519 1a3e a268 273e a866 0b3e
0.16313243 0.1559169 0.13764368 0.16674171 0.15177359 0.13861904 0.16732125 0.14628898
0.110685386 0.1608275 0.15739813 0.16840914 0.06584407 0.1459969 0.142258 0.15104927
0.14840697 0.14002082 0.07629276 0.16884154 0.16061527 0.16587815 0.1672372 0.11778508
0.12121724 0.13567404 0.12788607 0.170871 0.15162762 0.14946857 0.1630885 0.13755842
0.16009784 0.15459809 0.15482984 0.14538133 0.15224974 0.17207937 0.13173695 0.15813723
0.1340527 0.17262395 0.1514173 0.15642965 0.15669051 0.1698207 0.15296064 0.17138405
0.098426625 0.15873916 0.14584647 0.17179094 0.123374164 0.14083701 0.11322814 0.16132483
0.15032762 0.14889668 0.15235467 0.11398372 0.15242468 0.13023973 0.1374192 0.13461743
0.15881774 0.1579769 0.14896438 0.1219934 0.15248474 0.16607288 0.15116104 0.15439767
0.16951248 0.14981925 0.16364022 0.14734118 0.15997799 0.15667519 0.13341832 0.15729368
0.16835074 0.16287309 0.14300945 0.1670544 0.14891323 0.15534076 0.1604493 0.1456384
0.1522253 0.12875573 0.15141387 0.14332035 0.08382853 0.14819375 0.14168264 0.16988398
-0.025442332 0.15048774 0.16348508 0.13613379

seq.2.weight f4 [100, 100]
00000000: 464f e53d 4744 013e 2fde db3d 351d f13d
00000010: 7230 c43d 770c e33d dc27 da3d b792 df3d
00000020: 47b3 ab3d e85e d73d 5f66 f83d 4884 e23d
00000030: ad47 833d f65c e73d 48b4 db3d 9102 003e
00000040: 80eb e03d b9fa fa3d 2716 993d 3648 ed3d
00000050: 7d43 093e e2e7 053e a803 de3d b4ad af3d
00000060: 7b5e f33d db3d 023e ee7a 223e 0635 023e
00000070: b954 e43d fd79 d43d f0cb 063e dcf6 053e
00000080: 7e04 e83d 2fca fb3d 60aa d83d a720 f83d
00000090: 18eb f43d 8d3a da3d b0cc d83d 7cc4 fd3d
000000a0: 69eb 123e 41ab e33d 1be0 003e f6aa ec3d
000000b0: 5b1c ef3d 762a f53d 247b eb3d b59b d43d
000000c0: d0ca 653d 3f3b 093e f044 e33d ad47 c83d
000000d0: 563e c13d 2236 fb3d ab00 143e 0696 de3d
000000e0: 24fc d53d 955f dd3d 8d2b ef3d cf7e 103e
000000f0: ad42 e93d 8018 ef3d 2611 f83d daa7 fe3d
00000100: 9514 093e 398a 003e 771f da3d 5774 e83d
00000110: c58a e93d 4649 013e bb18 c83d b687 033e
00000120: 4814 133e d7f5 fb3d 8f16 ed3d 2d5a 0b3e
00000130: ad60 e73d 5961 043e e941 c73d 9781 f03d
00000140: 07df df3d e4c3 e13d cd69 fe3d 8b70 df3d
00000150: 13e0 da3d bf05 e93d 84d3 ed3d cf99 d53d
00000160: 87a6 e73d ca91 df3d 4b9e fc3d 5871 ff3d
00000170: 1ac4 e43d a428 dd3d b7a4 063e 80e4 143e
00000180: 6490 2c84 8abc 143e 386c ce3d 4ce0 e63d
00000190: 151e cf3d 5a83 e93d 7696 c63d b8c7 d93d
000001a0: 3633 b13d cd12 cd3d d10a c53d 29ef c93d
000001b0: 3714 9b3d bb86 c23d 215c e03d 4098 cc3d
000001c0: e022 6d3d b0f8 d03d a470 c63d 383e e73d
000001d0: b026 cb3d 76b0 e23d f543 8a3d 8851 d63d
000001e0: d0f5 f73d fae4 f13d 3a87 c83d 1fac 9e3d
000001f0: 8bd0 db3d 1046 eb3d b5c1 123e 9336 eb3d
00000200: a63b ce3d 6ce9 bf3d 1281 f33d aeff f13d
00000210: 2c90 d13d 096c e33d 26b2 c33d 521d e03d
00000220: 1437 dd3d bc1b c53d cdd0 c33d 9a35 e53d
00000230: 92b3 043e c2a2 cd3d 6fce e83d 52c3 d53d
00000240: 2ff8 d73d 8c70 dd3d cfb0 d43d 1508 c03d
00000250: fc89 4f3d ebe6 f73d 0446 cd3d 57e5 b43d
00000260: cd89 ae3d 33e6 e23d dead 053e 2f0b c93d
00000270: 2746 c13d c7f2 c73d e105 d83d da82 023e
00000280: 68af d23d 79f4 d73d 060f e03d 7502 e63d
00000290: 1da1 f73d 7a33 e83d f402 c53d cbf4 d13d
000002a0: 79f0 d23d 878c e93d b3ba b43d 559a ed3d
000002b0: b8d8 043e 7293 e33d a024 d63d babb fb3d
000002c0: 0ffc d03d 5623 ef3d 7ef8 b33d 2f3b d93d
000002d0: 6b34 ca3d 61ea cb3d 7bca e53d afd0 c93d
000002e0: e7b0 c53d 6678 d23d 26cf d63d 58ed c03d
000002f0: 273b d13d 1eee c93d ab2b e43d 9bb8 e63d
00000300: 459f ce3d 01c1 c73d b139 f33d fa7b 063e
00000310: f93b 3784 c957 063e c371 ba3d c787 d03d
00000320: 023b d104 12ce 6c83 e1e4 3983 6315 7184
00000330: c091 5a04 60a7 7b84 fa6c 8b84 4060 2a04
00000340: 5661 c704 30da c184 640b 0803 702e b783
00000350: 601c c684 880b b204 0949 3204 290a 6704
00000360: 36c1 c602 98bb 9f04 b42a 2d83 907f c002
00000370: 4e30 c402 c00f 8784 e655 7003 dcbc 7884
00000380: a0e1 9382 0877 6c04 9942 b284 c701 0984
00000390: 8248 8084 8d65 2784 2e40 4004 adc9 d684
000003a0: e0f5 4d04 13d7 9684 08e5 f083 f729 e084
000003b0: 22c2 c704 e048 ae03 a0bf 8581 51cd c884
000003c0: 40f1 6304 403a 4184 d022 0e83 747f cd84
000003d0: bebc 2b03 f8f4 9401 69d9 6003 8d2a d104
000003e0: a0f5 6283 9fba 5804 4d97 a884 a7fe 8e83
000003f0: 8b30 aa04 cb7b d504 d04d 5704 3e24 0e03
0.11196761 0.12623702 0.107357375 0.11773149 0.09579553 0.11086362 0.10652134 0.109166555
0.08383804 0.10516149 0.12128901 0.11060387 0.064101554 0.11297028 0.10727745 0.12500979
0.10982418 0.12254853 0.07474928 0.11586039 0.13404651 0.13076738 0.10840541 0.08578053
0.11883255 0.12718908 0.15867206 0.1271554 0.11148972 0.1037483 0.13163733 0.1308245
0.11328982 0.12294423 0.105793715 0.12115603 0.11958903 0.10655699 0.10585916 0.12390992
0.14347614 0.111166485 0.1258549 0.11556046 0.1167533 0.119709894 0.114980966 0.10381261
0.05610162 0.13401507 0.11097133 0.09779296 0.09435718 0.122661844 0.1445338 0.108684584
0.10448483 0.108092465 0.116782285 0.14110874 0.113896705 0.11674595 0.12112646 0.12434359
0.13386758 0.12552728 0.10650533 0.11350315 0.11403421 0.12625608 0.09770342 0.12844738
0.14363205 0.123027496 0.11576568 0.13608618 0.11297736 0.1292776 0.09729368 0.11743467
0.10931211 0.11023691 0.12422524 0.10910138 0.1068727 0.11378049 0.11612609 0.10429727
0.113110594 0.10916479 0.123348795 0.124727905 0.11170216 0.10798767 0.13148771 0.14540291
-2.0284804e-36 0.14525047 0.10079235 0.1127325 0.101131596 0.114020064 0.09696667 0.106337965
0.08652346 0.100133516 0.09621204 0.09860069 0.07572215 0.09498354 0.10955072 0.09989977
0.057894588 0.102036834 0.09689453 0.11291164 0.099194884 0.110688135 0.06751243 0.104647696
0.12107432 0.11811252 0.097914174 0.07747673 0.10733136 0.11487973 0.14331706 0.114850186
0.10069971 0.093706936 0.118898526 0.11816345 0.10232577 0.111045904 0.095554635 0.109430924
0.10801521 0.096244305 0.0956131 0.11191864 0.12959126 0.10040809 0.11367499 0.10437645
0.10545384 0.10812482 0.10385286 0.093765415 0.0506687 0.12104591 0.1002312 0.088328056
0.08522377 0.11079063 0.13054606 0.09816586 0.094372086 0.09763103 0.10547996 0.12745228
0.10287362 0.10544676 0.109403655 0.112309374 0.12091277 0.113379434 0.09619704 0.10251769
0.10299773 0.114037566 0.088246725 0.11601702 0.12973297 0.11112107 0.104562044 0.122916654
0.10204326 0.11676662 0.087876305 0.106069915 0.09873279 0.099568136 0.11220261 0.09854256
0.09652882 0.102768704 0.10488729 0.0942027 0.102163605 0.098598704 0.111411415 0.112656794
0.10088972 0.097536094 0.11876238 0.13133231 -2.1539085e-36 0.13119425 0.091037296 0.101821475
4.9189854e-36 -6.9590724e-37 -5.4629354e-37 -2.8339234e-36 2.5692702e-36 -2.9581763e-36 -3.2778822e-36 2.00276e-36
4.6874064e-36 -4.5574456e-36 3.9979884e-37 -1.0766435e-36 -4.6575635e-36 4.185819e-36 2.0957336e-36 2.7158585e-36
2.9204383e-37 3.7552998e-36 -5.088915e-37 2.8285082e-37 2.8827337e-37 -3.175281e-36 7.0628268e-37 -2.923898e-36
-2.172921e-37 2.7796323e-36 -4.190876e-36 -1.6105089e-36 -3.0159243e-36 -1.9677385e-36 2.2598961e-36 -5.0496368e-36
2.4210534e-36 -3.5462345e-36 -1.4158515e-36 -5.2700686e-36 4.6962958e-36 1.0243532e-36 -4.913145e-38 -4.7208327e-36
2.6794498e-36 -2.2713788e-36 -4.1770012e-37 -4.8312316e-36 5.046905e-37 5.4718127e-38 6.607726e-37 4.917474e-36
-6.6697394e-37 2.547637e-36 -3.9635558e-36 -8.404475e-37 4.0011388e-36 5.0189745e-36 2.5308858e-36 4.1771653e-37

seq.2.bias f4 [100]
00000000: 0f39 f33d 0236 003e 941c 90bc 6e3f 8bbc
00000010: c07e fd3d e7c6 f43d bd84 e83d 1dca ff3d
00000020: 7fff f33d 17c4 033e 9ab4 fc3d 4363 ff3d
00000030: 6adb 013e 9b21 09bd c3c0 f83d 29de bd3d
00000040: 259b 083e b383 e33d cc35 f93d c155 a7bc
00000050: adbd cb3c b009 8abc dba8 11bc b5ae fd3d
00000060: 060c f93d a255 ed3d 385c fa3d 0e8b 043e
00000070: 2736 983d 8aa7 bb3d 6ec7 f13d 233b fc3d
00000080: eb03 f33d 672b c53d c2de f03d 8377 e63d
00000090: 89a8 f63d 44ca fb3d e34a f73d 0ef7 f63d
000000a0: 6578 013e a7c0 c43d 860a d53d 674d 073c
000000b0: 6de6 bc3d 9faa acbc bb7b afbc 9967 e23d
000000c0: 23ed 29bc 04d9 aebc 2ae8 cb3d 51a7 e13d
000000d0: c8a7 f93d 84d9 ec3d 437c f93d e1cd f33d
000000e0: 7274 ff3d 4a26 ea3d 6352 f23d a715 cc3d
000000f0: abef 98bc dab1 f03d c100 fb3d 1d29 003e
00000100: ded7 e2bc 75d1 e43d a948 ed3d 8c7e aabc
00000110: 2c36 ff3d 65d9 ef3d 916a ee3d ab3b 8fba
00000120: 9892 9cbc f306 e43d 40cc babc d4f8 f03d
00000130: 3a0f ea3d a832 033e e68a 01bd fa7b 4b3d
00000140: 7c1b 0dbd 0a1e 513d 93cd c8bc 96a8 02bd
00000150: fb1a 8ebc 69ea 003e 6392 003e 6326 e23d
00000160: c656 fe3d 8e4f d6bb df1f dd3d 0d9c 9a3d
00000170: 899a cbbc 8985 d83d 3ab2 e8bc 906c e1bc
00000180: ebc4 833d 6385 f23d 07e7 f23d bb3f c43d
0.118761174 0.12520602 -0.017591752 -0.01699802 0.12377691 0.11952 0.11353443 0.12489722
0.119139664 0.12867771 0.123391345 0.124701045 0.12681356 -0.033479314 0.121461414 0.09270889
0.13340433 0.11109104 0.12168464 -0.020426633 0.024870718 -0.016850322 -0.008890356 0.12386838
0.121604964 0.11588599 0.122246206 0.1294367 0.07432204 0.09162815 0.11805616 0.12315967
0.11865982 0.09627419 0.11761238 0.11253264 0.12043864 0.122944385 0.120748304 0.12058841
0.12643583 0.09607058 0.10402398 0.0082582 0.09223638 -0.021077452 -0.021421304 0.11054916
-0.010371479 -0.021343715 0.09956391 0.11018241 0.12190205 0.11564925 0.12181904 0.11904503
0.12473382 0.11433084 0.1183212 0.09965067 -0.01866897 0.117526725 0.12256003 0.12515683
-0.027690824 0.11172763 0.115861244 -0.020812295 0.12461504 0.117113866 0.1164142 -0.0010927817
-0.01911287 0.11134138 -0.022802472 0.1176621 0.114286855 0.12812293 -0.031626604 0.04967878
-0.03445004 0.051054038 -0.024512088 -0.031899057 -0.01734685 0.1258942 0.12555842 0.11042478
0.124188945 -0.0065402454 0.107970946 0.075492956 -0.024853962 0.10572345 -0.028405298 -0.027517587
0.064340435 0.11841848 0.11860471 0.09582468

seq.4.weight f4 [100, 100]
00000000: b60e e73d dcb1 d03d 0ced 2c84 f837 0584
00000010: 9aac c43d b7ae df3d c4b8 ec3d 71d0 cb3d
00000020: b522 e13d edb4 c53d 8618 d73d a017 cf3d
00000030: 0752 ba3d d7cc d201 f886 db3d ee5d a93d
00000040: 5fcf af3d eb64 dd3d 3012 b23d 0c13 a283
00000050: c42f 073d 3481 fa03 a197 8983 8adb d33d
00000060: 79eb de3d c690 ca3d 35d3 c93d f38e c43d
00000070: 564a 8e3d 9989 9a3d 6278 e13d 9b48 d33d
00000080: c2fb e13d a28d b43d 05e1 eb3d 8dd3 de3d
00000090: 965b dc3d 3760 c73d 2210 dd3d 2695 d73d
000000a0: 80e4 cb3d 4046 b13d 2472 c83d 2046 c5b9
000000b0: 1a85 a73d 9a7c 2e84 7d9d 0083 f888 c43d
000000c0: 9cd3 823c af4b 2c03 d249 ab3d b08b e33d
000000d0: af97 d53d d398 f03d 0b2c ce3d 3984 b23d
000000e0: 0d4f d93d a387 d43d 396a e23d 0607 c73d
000000f0: aad1 e902 0a73 e53d e38a d43d c3f0 c53d
00000100: d604 0783 38e6 c83d bdb9 e43d 0c6b 0f84
00000110: ba99 c93d dce2 f63d b5de e23d ef0d 1084
00000120: 6bfe d803 18af d33d 46c3 4182 ec41 be3d
00000130: 89ad e33d 168d c03d cf6b da83 cb37 583d
00000140: e069 de83 1142 4c3d c30b 9403 2e07 0884
00000150: 5712 6003 3f17 cc3d df07 c83d 6740 fd3d
00000160: 58c3 cb3d 0be8 1183 6307 c13d 0dfd 933d
00000170: c678 c482 1b2b df3d 3883 d183 01f2 9f03
00000180: 34be 593d 7d8e e73d 83bf e03d 2e0c c23d
00000190: 82f9 8c83 f797 fc82 a390 9b83 1d3a c103
000001a0: 1245 ab83 5eee c002 95cc d183 fba9 1404
000001b0: 224a 9f03 4ba0 3204 e065 4d83 5d10 e403
000001c0: 9de9 0584 d43a c703 25e0 fa82 a37d de03
000001d0: 8aee df83 4d5a 4404 9d9b 2604 490e 0784
000001e0: c660 f683 7dba bd02 6022 1c83 e0ee df01
000001f0: 1784 9a83 9695 ba83 eef3 f303 064c 4784
00000200: fae2 c982 a074 7883 59dd 0484 2d85 0204
00000210: cedd d982 00c2 8e83 0437 7e83 c5e0 b402
00000220: f96b 3483 6c01 a583 3fc1 1204 cff3 ee83
00000230: 069a 1e03 2acf 3402 7582 b303 6e50 f103
00000240: 8adb 8c02 f54d ee03 7792 9d83 ddb9 1c04
00000250: 32ef fc02 f4f1 2602 5d7a 1e83 6f99 0304
00000260: 3bf1 b483 8985 1083 e8f7 e203 0d7b 0204
00000270: a0b5 2c82 0000 0000 a0fb 4484 f3ad e703
00000280: 5986 1584 5e63 0684 1685 4303 3b02 8d82
00000290: aff7 f903 a053 8682 e5db 8e81 6268 f802
000002a0: 3aa1 e103 20fb 4b83 0429 8782 4d45 9d03
000002b0: 2e92 1c03 d2da 2c81 9b12 2484 1307 6e83
000002c0: ffee a603 9689 3c83 d58c cc02 3e86 8483
000002d0: 0446 5303 cc49 eb01 c2fd ee82 c1ed 9783
000002e0: ec15 ce03 e3ce 5783 1b14 0184 3a27 7602
000002f0: a91f e003 372c 0783 705a 4483 5513 1584
00000300: 8e60 9f83 564a b183 90d7 af03 f015 8603
00000310: d02c 3f02 71f5 0083 e685 a182 0ea7 c403
00000320: d46d 6c3a 8292 543a cdae 9503 8c20 0384
00000330: d82c 483a d287 643a 2e8a 723a b2ba 4f3a
00000340: 065b 663a c6d0 483a f3a7 5b3a de1f 533a
00000350: 8b73 3d3a d002 4a84 6227 603a 3c74 2d3a
00000360: ecfe 313a ff65 623a 7fba 343a 1c88 6d03
00000370: 64a8 8e39 b101 3b84 3a7f 2d04 026c 583a
00000380: 0fdf 633a 54fa 4e3a cf90 4d3a 117a 473a
00000390: 781d 123a 9006 1e3a 7ac7 663a 39aa 573a
000003a0: b6c6 663a a5e1 383a 1f68 713a 63ec 633a
000003b0: d961 613a b718 4b3a 90f1 613a 3855 5c3a
000003c0: 08d3 4f3a 1498 353a 9869 4d3a 75ad 96b6
000003d0: 847a 2b3a a7cf 8403 ddc2 5484 6af4 483a
000003e0: 61dd 0e39 20c7 5983 f5c7 2e3a fb62 693a
000003f0: 97ff 593a f639 763a 2d7c 523a 594a 353a
0.11282103 0.10190174 -2.032735e-36 -1.5659774e-36 0.09603234 0.10921996 0.11558679 0.099518664
0.10992948 0.096536495 0.10502724 0.10111928 0.09097677 7.743575e-38 0.107191026 0.08269869
0.08584475 0.10810264 0.08694875 -9.525877e-37 0.033004537 1.4723343e-36 -8.086949e-37 0.10344608
0.108847566 0.098908946 0.09854738 0.09597578 0.06947772 0.07545776 0.11009289 0.10316583
0.11034347 0.08816077 0.115175284 0.10880194 0.10759656 0.097351484 0.10794093 0.10526495
0.09955692 0.08655977 0.097873956 -0.00037627015 0.08179684 -2.0510816e-36 -3.7796607e-37 0.09596437
0.015970044 5.0633138e-37 0.083636895 0.11110628 0.10429322 0.11747899 0.10066994 0.08716626
0.10610781 0.10377433 0.110554166 0.097181365 3.4356614e-37 0.112035826 0.10378053 0.09665062
-3.9678486e-37 0.09809536 0.11168239 -1.6858723e-36 0.09843774 0.12054989 0.11077634 -1.6933517e-36
1.27537505e-36 0.10336131 -1.4235441e-37 0.09289917 0.111170836 0.0940191 -1.283764e-36 0.052787583
-1.3072295e-36 0.049867693 8.701359e-37 -1.599002e-36 6.5848737e-37 0.09965371 0.09767126 0.123657994
0.09949368 -4.2878042e-37 0.09425237 0.07226 -2.8868932e-37 0.108968936 -1.2314042e-36 9.4007415e-37
0.053159907 0.11306474 0.10974028 0.09474979 -8.285745e-37 -3.7115296e-37 -9.143288e-37 1.1356863e-36
-1.00663345e-36 2.834868e-37 -1.2330886e-36 1.7475368e-36 9.3622e-37 2.0997402e-36 -6.0361032e-37 1.3404392e-36
-1.5741345e-36 1.1709675e-36 -3.686285e-37 1.3076832e-36 -1.3161528e-36 2.3081153e-36 1.958466e-36 -1.5875733e-36
-1.4480799e-36 2.7878093e-37 -4.588374e-37 8.226003e-38 -9.081633e-37 -1.0966441e-36 1.433826e-36 -2.3427246e-36
-2.9664574e-37 -7.301453e-37 -1.5618163e-36 1.5342578e-36 -3.2012594e-37 -8.39055e-37 -7.4707046e-37 2.6577634e-37
-5.3021192e-37 -9.698155e-37 1.7250952e-36 -1.40443585e-36 4.6608837e-37 1.3283765e-37 1.0550626e-36 1.4183173e-36
2.069716e-37 1.4006281e-36 -9.261257e-37 1.8423056e-36 3.7165363e-37 1.2265191e-37 -4.6572493e-37 1.546943e-36
-1.0634833e-36 -4.2471087e-37 1.3340003e-36 1.5337929e-36 -1.2688688e-37 0.0 -2.315523e-36 1.36168965e-36
-1.7576555e-36 -1.5797251e-36 5.7458125e-37 -2.0719368e-37 1.469177e-36 -1.9737529e-37 -5.2478095e-38 3.6500238e-37
1.3261327e-36 -5.9944616e-37 -1.986001e-37 9.243541e-37 4.6012086e-37 -3.1748407e-38 -1.928665e-36 -6.9950035e-37
9.811474e-37 -5.5406175e-37 3.005594e-37 -7.789083e-37 6.20877e-37 8.643126e-38 -3.5116607e-37 -8.929568e-37
1.2112625e-36 -6.3420316e-37 -1.517311e-36 1.8084483e-37 1.31728055e-36 -3.972369e-37 -5.770304e-37 -1.7523743e-36
-9.367348e-37 -1.0420192e-36 1.0335066e-36 7.880849e-37 1.4045324e-37 -3.789757e-37 -2.3733678e-37 1.15581985e-36
0.0009019051 0.00081089896 8.797565e-37 -1.541392e-36 0.0007636077 0.00087177486 0.0009252158 0.0007924243
0.0008787367 0.0007660504 0.00083792134 0.000805376 0.0007226995 -2.3746277e-36 0.00085507904 0.00066167465
0.00067900005 0.00086364144 0.0006894245 6.9804286e-37 0.0002720981 -2.1982521e-36 2.0394472e-36 0.00082558405
0.0008692601 0.0007895578 0.00078417076 0.0007609437 0.0005573849 0.00060281996 0.0008803528 0.0008226964
0.0008803414 0.00070526666 0.00092089357 0.0008694587 0.0008597649 0.0007747518 0.00086190645 0.00084050326
0.00079278694 0.00069272635 0.0007835864 -4.4905414e-06 0.00065413886 7.805937e-37 -2.5009957e-36 0.0007665815
0.00013624645 -6.3999153e-37 0.0006667369 0.0008902994 0.0008315979 0.0009392792 0.0008029368 0.0006915681

seq.4.bias f4 [100]
00000000: 9959 c73d 1528 7fbc 4813 91bd 0ee3 ce3d
00000010: da24 60bc 6a5c b73d 3f59 dabc ea9a eabc
00000020: b4ad c03d b996 a63d 2b3c 05bc e876 bc3d
00000030: 96ae c43d eef0 db3d c927 9ebc 532c c5bc
00000040: 34d5 bf3d 31b7 d7bb 4015 afbc df24 8cbc
00000050: 5f91 9fbb ca9b d13d 9204 8fbc 3555 abbc
00000060: b84b 3fbc 6140 b93d 7a10 83bc 8758 f83d
00000070: afd2 cf3d dc9c ed3d 525a b53d c1ac 85bc
00000080: 1bea 86bc 193c ce3d 6878 bbbc 2355 ea3d
00000090: c40a ba3d a38b febc ddc7 a1bc c178 d33d
000000a0: 29f4 c03d 5f68 e93d b313 92bc e3a1 bcbb
000000b0: 4f29 70bc 67eb d83d 93be 023c dfda 62bd
000000c0: 8e58 e4bc 7e27 b53d a563 94bc 9d8e de3d
000000d0: 983b bc3d c3e0 dd3d 045b eebc 6ebd 87bc
000000e0: 2e5c 47bc 0303 b9bc 56be ef3d 4c2f 9cbc
000000f0: af2f cdbc cfe7 ccbc c137 d83d c83f 3c3d
00000100: ed94 c13d fc75 85bc 6573 ea3d b445 77bc
00000110: 4e0c b73d 2839 7dbc ea74 a5bc 489a 25bc
00000120: 705e 65bc e302 88bc 2c7c c3bc d98f c4bc
00000130: 47d3 e43d 350d ef3d 7228 b5bc 5a1f cc3d
00000140: e9f9 9fbc 1bf3 b43d 7570 99bc 6fce 94bc
00000150: cdec b63d 7816 b5bc 1bfb a7bc 98ba a9bc
00000160: 207c b63d e63e 31bd 3b50 d33d 2cce d5bb
00000170: 5786 063e bcd4 bb3d 2727 b93d a315 c23d
00000180: dd6b c93d 0100 ee3d b18b b83d ea0d 03bd
0.09733886 -0.015573521 -0.07083756 0.10101901 -0.013680661 0.089531735 -0.026653884 -0.028638322
0.09408131 0.08134217 -0.008132021 0.09202367 0.09603612 0.10739313 -0.01930608 -0.024068987
0.09366837 -0.0065831174 -0.021372437 -0.017107425 -0.0048696245 0.102347925 -0.017458234 -0.020914653
-0.011675768 0.090454824 -0.015999068 0.1212626 0.101476066 0.11602184 0.08855118 -0.016317727
-0.016469052 0.100700565 -0.022884563 0.1144202 0.09084085 -0.031072443 -0.019748623 0.10325766
0.0942157 0.1139686 -0.017831659 -0.005756603 -0.014658286 0.105917744 0.007980007 -0.055384513
-0.027874257 0.08845423 -0.01811392 0.10867045 0.09191054 0.108338855 -0.029096134 -0.01656982
-0.012167973 -0.022584444 0.117062256 -0.019065522 -0.025047151 -0.025012879 0.10557509 0.045959264
0.094522335 -0.01629161 0.11447791 -0.015092302 0.08937894 -0.015455522 -0.02019735 -0.010107584
-0.013999566 -0.016602939 -0.02386292 -0.023994373 0.111731105 0.11672441 -0.022114012 0.09966917
-0.019528346 0.08835431 -0.018730382 -0.018164841 0.08931885 -0.02210544 -0.020505479 -0.020718858
0.08910394 -0.043272875 0.10318037 -0.0065248217 0.13137184 0.09171435 0.09040671 0.09476783
0.098350264 0.116210945 0.09011019 -0.03199569

seq.6.weight f4 [1, 100]
00000000: e932 2c3e 6968 0382 e6cf c73a cf5b 253e
00000010: 6016 9f01 d26e 713e 7d98 843a 0b43 0602
00000020: 41e6 5f3e 6edd 963d dae8 6a01 2c4a 563e
00000030: de28 343e 0d63 0c3e 77c3 da39 cf26 f101
00000040: 6446 413e ca6a f281 0fe7 9e81 49b2 e601
00000050: d673 f781 a04c 203e 7855 8f01 1888 4201
00000060: aa87 fe01 d3e6 6d3e ab64 0402 5d82 d53d
00000070: 4e69 e33d 401d d93d 4f31 853e 0000 0080
00000080: 5fcd ce01 80f4 233e fa9a 0202 2af4 003e
00000090: fe13 563e 0013 2e3a 3e0a 6d01 34bf 223e
000000a0: 6e76 5e3e 25f1 ed3d 3094 0482 0cc9 a501
000000b0: 92dd b301 bdc2 0d3e dc29 c33a 8f72 9c3a
000000c0: de16 1c3a 1adf 823e 0000 0000 bb75 0f3e
000000d0: cfd8 563e 2439 213e 634b 8580 d426 0101
000000e0: c8ab de01 6ff4 fa81 605a f13d 294f 8f01
000000f0: 50ee 0d3a 1d8e 403a 37b6 0f3e 8eff 303d
00000100: ff73 3d3e 5cc3 e300 ce38 ee3d 0000 0000
00000110: c833 6e3e ed82 7701 fe69 5201 f13d 0901
00000120: 4e1f 1a01 ce7a 3a01 674b 073a 0000 0000
00000130: 767d 073e 13e1 e93d 483c b100 7297 3c3e
00000140: d6e3 a301 d7cc 733e adfa a400 e8b9 2701
00000150: 7a1f 683e 9035 1401 80b3 2001 158a 8480
00000160: bde0 663e 4ce2 723a dbe8 1a3e a380 5681
00000170: b038 983d 8b50 683e c060 603e 5bee 3c3e
00000180: f7bc 283e f7e0 f33d 03fe 6a3e da1b 353a
0.16816296 -9.654324e-38 0.0015244454 0.16148303 5.843948e-38 0.23577431 0.0010116246 9.864006e-38
0.21865179 0.07366453 4.3146075e-38 0.20926732 0.17593715 0.1370966 0.00041725833 8.8585106e-38
0.18874508 -8.9049995e-38 -5.8371586e-38 8.4744483e-38 -9.0899687e-38 0.1565423 5.2652545e-38 3.5729815e-38
9.349953e-38 0.23232584 9.726719e-38 0.104252554 0.1110407 0.10601282 0.26014182 -0.0
7.596714e-38 0.16011238 9.595368e-38 0.12593141 0.20906064 0.00066404045 4.3537374e-38 0.1589325
0.21724865 0.1161826 -9.740356e-38 6.0899916e-38 6.6072153e-38 0.13843818 0.0014889794 0.0011935997
0.0005954335 0.25560838 0.0 0.14009754 0.20981143 0.15744454 -1.2241165e-38 2.3721416e-38
8.1796415e-38 -9.218624e-38 0.11784816 5.2643493e-38 0.00054142345 0.0007345395 0.14034353 0.043212466
0.1850128 2.091674e-38 0.116319284 0.0 0.2326194 4.546067e-38 3.8646954e-38 2.5207367e-38
2.8307793e-38 3.4250913e-38 0.0005161077 0.0 0.13231453 0.114198826 1.6276508e-38 0.18417147
6.020367e-38 0.23808609 1.5150947e-38 3.0806437e-38 0.22668257 2.7221736e-38 2.9516144e-38 -1.217182e-38
0.22546668 0.0009265288 0.1512789 -3.9397885e-38 0.07432687 0.22686975 0.21911907 0.184503
0.16478334 0.11908143 0.2294846 0.0006908752

seq.8.weight f8 [1, 1]
00000000: 9a99 9999 9999 b93f
0.1
