benchmarks/models/nn_2_sigmoid/model.pt (torch, 4103 bytes, 5 tensors)

seq.0.weight f4 [20, 2]
0	0x3e53b6c8	0.20675194
1	0x3db3835f	0.087652914
2	0x3e45563a	0.19271174
3	0x3da76053	0.08172669
4	0xbe551586	-0.20808992
5	0xbdb4b062	-0.08822705
6	0x3e542c77	0.20720087
7	0x3db3e643	0.08784153
8	0x3e495c40	0.19664097
9	0x3daac51b	0.08338376
10	0xbe66c8d2	-0.22537544
11	0xbdc3a754	-0.095534
12	0xbe544def	-0.20732854
13	0xbdb40794	-0.08790508
14	0xbe60f7a7	-0.21969472
15	0xbdbebbf0	-0.0931319
16	0xbe640cd2	-0.22270516
17	0xbdc156a9	-0.09440357
18	0xbe5d88ff	-0.21634291
19	0xbdbbd535	-0.091715254
20	0x3e523762	0.2052894
21	0x3db23f9a	0.08703537
22	0xbe6af26a	-0.22944036
23	0xbdc72d02	-0.097253814
24	0x3e1db721	0.1540189
25	0x3d85fd58	0.06542462
26	0x3e4ab104	0.19794089
27	0x3dabe12f	0.0839256
28	0x3e4c39dc	0.19943947
29	0x3dad2e56	0.084561035
30	0xbe63c1d7	-0.22241913
31	0xbdc11892	-0.094285145
32	0xbe63a3e8	-0.22230494
33	0xbdc0fc94	-0.094231755
34	0x3e55c21a	0.20874825
35	0x3db53c3c	0.088493794
36	0x3e563e3f	0.20922183
37	0x3db5a730	0.08869779
38	0x3e5c2ca1	0.215014
39	0x3dbaa9fc	0.09114453

seq.0.bias f4 [20]
0	0x39ffdfe8	0.00048804213
1	0x39bea5f2	0.00036363263
2	0xba35d5fd	-0.0006936489
3	0x3a00f1b6	0.000491883
4	0x39d123d8	0.00039890292
5	0xba5458de	-0.00081004004
6	0xba347257	-0.0006883493
7	0xba4a7057	-0.00077224284
8	0xba4fb45c	-0.0007923299
9	0xba447fba	-0.00074958394
10	0x39f959af	0.000475598
11	0xba5b75c3	-0.0008371735
12	0xb81d5d0c	-3.7518374e-05
13	0x39d72c20	0.0004104087
14	0x39de344a	0.00042382098
15	0xba4f2c6c	-0.0007903043
16	0xba4eff91	-0.0007896359
17	0x3a046bd3	0.00050514675
18	0x3a0590c1	0.00050951174
19	0x3a1250fa	0.00055815245

seq.2.weight f4 [20, 20]
0	0xbed3747e	-0.41299814
1	0xbec5090c	-0.38483465
2	0x3ed4cd81	0.41563037
3	0xbed3eae0	-0.41390133
4	0xbec91216	-0.3927161
5	0x3ee69539	0.45035723
6	0x3ed404b9	0.41409853
7	0x3ee0bd7d	0.43894568
8	0x3ee3d4f5	0.4449841
9	0x3edd4a49	0.43220738
10	0xbed1f4b5	-0.4100701
11	0x3eeac5e1	0.45854095
12	0xbe9d687d	-0.3074378
13	0xbeca62b9	-0.39528444
14	0xbecbeeae	-0.39830536
15	0x3ee38b03	0.44441995
16	0x3ee36a2d	0.44416943
17	0xbed5801f	-0.4169931
18	0xbed5ff33	-0.41796264
19	0xbedbf361	-0.4295912
20	0x3ed880e5	0.4228584
21	0x3ec9bcee	0.39401954
22	0xbed9e0b7	-0.42554256
23	0x3ed8fa34	0.4237839
24	0x3ecdde6c	0.40208757
25	0xbeec16f2	-0.46111256
26	0xbed913a4	-0.42397797
27	0xbee61ab9	-0.44942263
28	0xbee94572	-0.45560795
29	0xbee2923d	-0.44252196
30	0x3ed6f803	0.41986093
31	0xbef06101	-0.46949008
32	0x3ea1288f	0.31476256
33	0x3ecf372e	0.40471786
34	0x3ed0ccaa	0.40781146
35	0xbee8f9e9	-0.45503166
36	0xbee8d7d1	-0.45477155
37	0x3eda9930	0.42694998
38	0x3edb1b7e	0.42794412
39	0x3ee13469	0.43985298
40	0xbecfc1b9	-0.40577486
41	0xbec1968b	-0.37810168
42	0x3ed13e17	0.40867683
43	0xbed0361b	-0.4066628
44	0xbec58d2a	-0.38584262
45	0x3ee2b7cf	0.4428086
46	0x3ed07968	0.40717626
47	0x3edcf984	0.43159115
48	0x3ee00390	0.43752718
49	0x3ed995e5	0.42497173
50	0xbece48c1	-0.40289882
51	0x3ee6d53e	0.45084566
52	0xbe9aa3eb	-0.30203184
53	0xbec6d806	-0.38836688
54	0xbec85d16	-0.3913352
55	0x3edfbb41	0.4369755
56	0x3edf9a57	0.4367244
57	0xbed1c45c	-0.40970123
58	0xbed2418a	-0.41065627
59	0xbed81b39	-0.4220827
60	0x3ed98a57	0.42488357
61	0x3ecab485	0.3959085
62	0xbedae932	-0.4275604
63	0x3eda0432	0.42581326
64	0x3ecedac3	0.40401277
65	0xbeed3605	-0.46330276
66	0xbeda1b31	-0.4259887
67	0xbee73250	-0.45155573
68	0xbeea610b	-0.45777163
69	0xbee3a5ad	-0.44462338
70	0x3ed7ffa5	0.4218723
71	0xbef18541	-0.47171977
72	0x3ea1ee0c	0.31626928
73	0x3ed03528	0.40665555
74	0x3ed1cc90	0.4097638
75	0xbeea155b	-0.45719418
76	0xbee9f2db	-0.45693097
77	0x3edba531	0.4289947
78	0x3edc285c	0.42999542
79	0x3ee248a0	0.44196033
80	0x3eb9ee72	0.36314732
81	0x3ead4185	0.3383905
82	0xbebb660e	-0.366013
83	0x3eba5687	0.3639414
84	0x3eb0cd93	0.3453184
85	0xbecb06a9	-0.3965352
86	0xbebab5db	-0.3646687
87	0xbec5e40b	-0.38650545
88	0xbec89bcb	-0.3918136
89	0xbec2dc02	-0.38058478
90	0x3eb89d2d	0.36057416
91	0xbeceb4d6	-0.40372342
92	0x3e8a6829	0.27032593
93	0x3eb1f585	0.3475763
94	0x3eb35194	0.35023177
95	0xbec85aaf	-0.39131686
96	0xbec83dc3	-0.3910962
97	0x3ebbbab7	0.3666589
98	0x3ebc2a91	0.36751226
99	0x3ec16620	0.37773228
100	0xbeb9a03b	-0.3625506
101	0xbeacf88e	-0.33783382
102	0x3ebb2538	0.36551833
103	0xbeba0836	-0.3633439
104	0xbeb082ea	-0.3447488
105	0x3ecabfe0	0.39599514
106	0x3eba757d	0.3641776
107	0x3ec59f36	0.3859803
108	0x3ec855e3	0.39128026
109	0x3ec29865	0.38006893
110	0xbeb84f8a	-0.35998183
111	0x3ece6c75	0.4031712
112	0xbe8a2c60	-0.2698698
113	0xbeb1aa73	-0.34700355
114	0xbeb305fe	-0.3496551
115	0x3ec81521	0.3907862
116	0x3ec7f7f7	0.3905637
117	0xbebb6be1	-0.36605743
118	0xbebbdb99	-0.36690977
119	0xbec11505	-0.3771135
120	0x3ed707df	0.41998193
121	0x3ec85d40	0.39133644
122	0xbed86a5c	-0.42268646
123	0x3ed7805b	0.42090115
124	0x3ecc7805	0.39935318
125	0xbeea8072	-0.4580112
126	0xbed79e9f	-0.42113206
127	0xbee48eed	-0.44640294
128	0xbee7b42b	-0.45254645
129	0xbee10c8a	-0.4395488
130	0x3ed58182	0.4170037
131	0xbeeec349	-0.46633366
132	0x3ea00ff5	0.31262174
133	0x3ecdce69	0.4019654
134	0x3ecf6130	0.40503836
135	0xbee768fc	-0.45197284
136	0xbee74751	-0.45171598
137	0x3ed91c6e	0.42404503
138	0x3ed99de1	0.42503265
139	0x3edfac29	0.43686035
140	0x3ed74bd6	0.42050046
141	0x3ec89ca5	0.3918201
142	0xbed8aede	-0.42320913
143	0x3ed7c478	0.4214208
144	0x3eccb88c	0.39984548
145	0xbeeacada	-0.45857888
146	0xbed7e2e0	-0.4216528
147	0xbee4d761	-0.4469557
148	0xbee7fd7a	-0.45310575
149	0xbee153ed	-0.44009343
150	0x3ed5c513	0.41751918
151	0xbeef0ee9	-0.46691063
152	0x3ea04264	0.31300652
153	0x3ece0f6b	0.40246138
154	0x3ecfa2af	0.40553805
155	0xbee7b265	-0.45253292
156	0xbee79074	-0.45227396
157	0x3ed96121	0.42456916
158	0x3ed9e2a4	0.42555726
159	0x3edff2da	0.4373997
160	0xbed375a1	-0.4130068
161	0xbec509d1	-0.38484052
162	0x3ed4e7ee	0.41583198
163	0xbed3ec15	-0.41391054
164	0xbec91289	-0.39271954
165	0x3ee6b188	0.4505732
166	0x3ed41fa8	0.41430402
167	0x3ee0d8fe	0.43915552
168	0x3ee3f0df	0.44519708
169	0x3edd65c7	0.43241712
170	0xbed1f5f2	-0.41007954
171	0x3eeae1d5	0.4587542
172	0xbe9d6620	-0.30741978
173	0xbeca6346	-0.39528865
174	0xbecbef50	-0.39831018
175	0x3ee3a73f	0.44463536
176	0x3ee385cf	0.44438025
177	0xbed58174	-0.41700327
178	0xbed600d4	-0.41797507
179	0xbedbf54c	-0.42960584
180	0xbed4edd7	-0.41587707
181	0xbec66866	-0.38751525
182	0x3ed64e23	0.4185649
183	0xbed5650d	-0.41678658
184	0xbeca789b	-0.3954514
185	0x3ee83663	0.45353994
186	0x3ed5843c	0.4170245
187	0x3ee253e8	0.4420464
188	0x3ee5712c	0.44812906
189	0x3ededa75	0.43526044
190	0xbed36b52	-0.41292816
191	0x3eec6e69	0.46177986
192	0xbe9e8027	-0.30957147
193	0xbecbcb9e	-0.39803785
194	0xbecd5a5e	-0.40108007
195	0x3ee526a4	0.44756043
196	0x3ee5055a	0.44730645
197	0xbed6fd2c	-0.4199003
198	0xbed77d38	-0.42087722
199	0xbedd7c48	-0.43258882
200	0xbedbcad6	-0.4292819
201	0xbecccd48	-0.40000367
202	0x3edd2a8b	0.4319652
203	0xbedc45f3	-0.43022117
204	0xbed0fec4	-0.4081937
205	0x3eefa847	0.46808073
206	0x3edc5a6e	0.43037742
207	0x3ee99473	0.4562107
208	0x3eeccbbd	0.4624919
209	0x3ee5fe4d	0.4492058
210	0xbeda3bfd	-0.42623892
211	0x3ef4030c	0.47658575
212	0xbea39a9c	-0.31953895
213	0xbed25cbd	-0.4108638
214	0xbed3f86c	-0.41400468
215	0x3eec7f37	0.46190807
216	0x3eec5c65	0.4616424
217	0xbeddeb4c	-0.4334358
218	0xbede6fcc	-0.4344467
219	0xbee4a077	-0.44653675
220	0x3ec1f1ff	0.3787994
221	0x3eb4b890	0.3529706
222	0xbec37272	-0.38173252
223	0x3ec25e97	0.3796279
224	0x3eb86bc2	0.36019713
225	0xbed3c0fe	-0.4135818
226	0xbec2bad1	-0.38033155
227	0xbece6522	-0.40311533
228	0xbed13b18	-0.40865397
229	0xbecb3b75	-0.396938
230	0x3ec0920f	0.37611434
231	0xbed797fc	-0.42108142
232	0x3e905d64	0.2819625
233	0x3eb9a08c	0.362553
234	0x3ebb0baf	0.3653235
235	0xbed0f795	-0.4081389
236	0xbed0d8f4	-0.40790522
237	0x3ec3d22c	0.38246286
238	0x3ec446f4	0.38335383
239	0x3ec9bc98	0.39401698
240	0x3ec6ff73	0.38866767
241	0x3eb96dc6	0.36216563
242	0xbec87ed4	-0.39159262
243	0x3ec76eea	0.38951808
244	0x3ebd3979	0.3695791
245	0xbed93ac3	-0.42427644
246	0xbec7c279	-0.39015558
247	0xbed3baf8	-0.41353583
248	0xbed6a3fd	-0.41921988
249	0xbed07c17	-0.40719673
250	0x3ec5966c	0.38591325
251	0xbedd2b94	-0.4319731
252	0x3e941fbf	0.2893047
253	0x3ebe7655	0.37199655
254	0x3ebfeaf7	0.3748395
255	0xbed65eba	-0.41869146

seq.2.bias f4 [20]
0	0x3e5f0ab1	0.21781422
1	0xbe6460dd	-0.22302575
2	0x3e597739	0.21236886
3	0xbe659148	-0.22418702
4	0xbe415425	-0.18879755
5	0x3e406644	0.18789011
6	0xbe62a275	-0.22132285
7	0xbe62e846	-0.22158918
8	0x3e5e005b	0.21679823
9	0x3e6060a0	0.2191186
10	0x3e68045d	0.22657914
11	0xbe49e959	-0.19717921
12	0xbe4f98e2	-0.20273164
13	0x3e612ed9	0.21990527
14	0xbe51a0c8	-0.2047149
15	0xbe5402d8	-0.2070421
16	0x3e5b7777	0.21432291
17	0xbe643d86	-0.22289094
18	0x3e6703da	0.22560063
19	0x3e59c39a	0.21266022

seq.4.weight f4 [1, 20]
0	0x3fbbf146	1.4683006
1	0xbfc07a8d	-1.50374
2	0x3fb8ad24	1.4427838
3	0xbfc16955	-1.511027
4	0xbfa50208	-1.2891245
5	0x3fa4c996	1.2874019
6	0xbfbf27c6	-1.4934013
7	0xbfbf653c	-1.4952769
8	0x3fbbfe79	1.4687034
9	0x3fbd4901	1.4787904
10	0x3fc37975	1.5271441
11	0xbfac39e3	-1.3455166
12	0xbfb0c4c0	-1.3810043
13	0x3fbdf50b	1.4840406
14	0xbfb25787	-1.3932961
15	0xbfb432d4	-1.4078012
16	0x3fba0518	1.4532804
17	0xbfc09a33	-1.5047058
18	0x3fc2caa1	1.5218087
19	0x3fb91537	1.4459599
