benchmarks/models/nn_4_sigmoid/model.pt (torch, 4167 bytes, 5 tensors)

seq.0.weight f4 [20, 3]
000000 c4 91 04 be 72 c7 18 3d 8a 2b 09 3e 4b 7d 02 bd
       -0.1294623 0.03729958 0.13395515 -0.03185777
000010 e1 6d 22 3c e4 87 0b 3d 6f 48 09 3e dd 12 1e bd
       0.0099138925 0.034065142 0.13406537 -0.03859221
000020 75 0e 0e be f7 d2 d3 bd f7 94 f2 3c 77 e5 da 3d
       -0.13872702 -0.10342973 0.029612048 0.10688298
000030 0e a9 eb bc 88 5e 13 3c 9a 6d f8 3c 67 54 20 3e
       -0.028767135 0.008994706 0.0303257 0.15657197
000040 0b 49 37 bd c0 9c 25 be 4f d1 2c 3e 5d 4d 45 bd
       -0.044747394 -0.16173077 0.1687672 -0.048169482
000050 fe 65 32 be 9d b5 10 3e 6b 34 26 bd eb a6 15 be
       -0.1742172 0.1413178 -0.040577333 -0.14614455
000060 2d a0 3b 3e f5 a3 55 bd 80 b1 40 be dc 5e 20 be
       0.18322821 -0.052158315 -0.18817711 -0.15661186
000070 74 34 37 3d e6 a6 25 3e b4 8a 05 3e d2 d8 19 bd
       0.044727758 0.16176948 0.13041192 -0.03756029
000080 b0 20 0a be 34 a2 2b be 4e ee 43 3d 69 0f 31 3e
       -0.13489032 -0.16761094 0.047834687 0.17291035
000090 50 37 eb bd 32 35 07 3d 0c 39 f3 3d 48 de 7b b5
       -0.114851594 0.033009715 0.11876115 -9.382825e-07
0000a0 72 e9 0d 35 38 f1 ac 35 f0 25 aa 36 10 84 bb 35
       5.28663e-07 1.2885203e-06 5.0708113e-06 1.3971021e-06
0000b0 02 e6 01 b8 81 62 8d bd b1 4a a0 3c 0b f9 91 3d
       -3.0970208e-05 -0.06903554 0.019566866 0.07127579
0000c0 6c fe 1c be 08 96 33 3d 41 37 22 3e 33 56 36 3d
       -0.15331429 0.043844253 0.1584139 0.0445158
0000d0 9c ad 57 bc 5b 29 40 bd 12 42 c7 3d 1d de e3 bc
       -0.01316395 -0.04691444 0.09729399 -0.027815873
0000e0 26 e1 cd bd df 75 0a be a8 63 1f 3d dc 48 0f 3e
       -0.10052709 -0.13521527 0.0389134 0.13992637

seq.0.bias f4 [20]
000000 fe e0 36 bb fe a9 25 bd 69 df 0d bb 3c f7 8b bb
       -0.0027905102 -0.04044532 -0.0021648055 -0.004271416
000010 ab 5f 49 bd 7e 0a d1 ba 84 4a b4 ba e0 b8 ff ba
       -0.0491635 -0.0015948561 -0.0013755118 -0.0019510053
000020 bb 66 9a ba f8 b6 ff ba 61 ed 15 bb 23 40 e0 ba
       -0.0011779884 -0.0019509485 -0.0022877085 -0.0017108958
000030 17 40 65 bb e9 2c 7c c0 0b 84 70 bf 16 85 1d bc
       -0.0034980827 -3.940241 -0.9395148 -0.00961425
000040 98 23 05 bb b5 9a ad bc bc be 87 bb be 90 28 bb
       -0.0020315405 -0.021191934 -0.0041426104 -0.0025721039

seq.2.weight f4 [20, 20]
000000 ef 27 c6 b9 9d 1c c4 b9 a9 98 cc b9 25 ac c6 b9
       -0.00037795256 -0.00037405352 -0.00039023653 -0.0003789376
000010 84 45 c2 b9 ac 5a cb b9 26 f8 cd b9 21 ea c9 b9
       -0.00037054357 -0.00038786733 -0.00039285532 -0.00038512147
000020 54 3a cd b9 15 48 c5 b9 98 e6 cc b9 a0 57 c5 b9
       -0.00039144105 -0.00037628473 -0.00039081718 -0.00037640054
000030 48 3e c5 b9 0e a8 91 37 d3 f0 52 b9 a8 f3 c6 b9
       -0.0003762117 1.7363604e-05 -0.00020116875 -0.0003794704
000040 89 75 c5 b9 14 bd c8 b9 8c ad cb b9 24 98 c3 b9
       -0.0003766234 -0.00038287847 -0.0003884848 -0.00037306652
000050 02 27 bc 3e c3 4b ba 3d 89 e4 c2 be a2 63 96 3e
       0.3674851 0.09096482 -0.38064983 0.2937289
000060 a7 5f a7 3d dc 3c e3 be 6d 20 f5 be d2 46 cd be
       0.08172541 -0.4438237 -0.478763 -0.40093094
000070 45 e1 04 bf 44 28 e3 3e 5e 9d bd be dc 4d f3 3e
       -0.51906234 0.44366658 -0.37034124 0.4752034
000080 e9 08 a7 3e ff f1 01 b8 38 da 92 b9 ae 11 45 3e
       0.32623985 -3.0981373e-05 -0.00028009876 0.19245026
000090 91 61 de 3e e6 d0 ff bd d4 93 8d be 71 69 c4 3e
       0.43433812 -0.12491016 -0.27651846 0.38361695
0000a0 a3 97 63 be d3 4d 61 bd ed bf 6b 3e 8b f8 35 be
       -0.22225814 -0.05500586 0.23022433 -0.17770593
0000b0 06 5d 4a bd 6a 62 89 3e e6 29 94 3e 0d 48 78 3e
       -0.04940512 0.26832896 0.28938216 0.24246235
0000c0 09 96 a0 3e 67 53 89 be d3 60 65 3e 41 0e 93 be
       0.31364468 -0.26821443 0.22400217 -0.28721812
0000d0 45 16 4a be 6b 23 c0 38 2f d1 3b 39 11 7f ee bd
       -0.19735058 9.1618705e-05 0.00017911637 -0.1164533
0000e0 49 72 86 be 1a ce 9a 3d 86 56 2b 3e 27 90 6d be
       -0.26259068 0.07558842 0.16732225 -0.23199521
0000f0 ab cf 25 39 e0 e7 bf 38 cf 23 3e 39 cb aa 67 39
       0.00015812989 9.15078e-05 0.00018133152 0.00022093502
000100 f2 ce 38 39 6f 30 4d 39 0e fb 59 39 82 e9 74 39
       0.000176247 0.00019568366 0.00020788258 0.00023356642
000110 c0 9d 84 39 cf 2f 77 39 0d f6 65 39 0d 87 14 39
       0.00025294535 0.00023573566 0.00021930803 0.0001416469
000120 83 f8 24 39 1e 13 0c 37 c8 be 37 b7 80 b3 37 39
       0.00015732837 8.349101e-06 -1.095207e-05 0.00017519109
000130 fd 8f 26 39 9a f3 50 39 4e bb 53 39 08 b2 26 39
       0.00015884633 0.00019927174 0.00020192305 0.00015897315
000140 fa b2 ce 3e 18 bf cc 3d a1 0b d6 be 75 34 a5 3e
       0.40370923 0.09997386 -0.41805747 0.32266584
000150 25 f9 b7 3d 8b 99 f9 be 6f a2 06 bf 5c 75 e1 be
       0.089830674 -0.48749956 -0.52591604 -0.4403485
000160 fa fa 11 bf b4 92 f9 3e ae 3e d0 be cd a9 05 3f
       -0.57023585 0.48744738 -0.4067282 0.5221222
000170 5c 7e b7 3e ac d2 f8 b7 2c 1a 92 b9 b2 7d 58 3e
       0.35838592 -2.9662006e-05 -0.0002786679 0.21141699
000180 75 52 f4 3e e2 6a 0c be 91 76 9b be cc c6 d7 3e
       0.4771916 -0.13712648 -0.30363896 0.42143857
000190 43 80 96 be 13 01 95 bd 3a e5 9b 3e e9 a0 70 be
       -0.2939473 -0.072755955 0.30448323 -0.23498882
0001a0 db d9 85 bd 4f bb b5 3e 6b 03 c4 3e 0d 31 a4 3e
       -0.06535693 0.35494468 0.38283858 0.32068673
0001b0 92 7a d4 3e b4 a8 b5 be 8e ad 97 3e da 8c c2 be
       0.41499764 -0.35480273 0.296246 -0.37998086
0001c0 5e 9f 85 be 6a b2 ae 38 e5 a5 6f 39 a5 ac 1d be
       -0.2609815 8.330199e-05 0.00022854617 -0.1539789
0001d0 4d d8 b1 be 8f b0 cc 3d 6f 8d 62 3e d0 19 9d be
       -0.34735337 0.099946134 0.22124265 -0.30683756
0001e0 38 d2 9c be 39 45 9b bd fa 6f a2 3e 4e ba 7a be
       -0.30629134 -0.075815625 0.31726056 -0.24485132
0001f0 ea 7b 8b bd 48 5d bd 3e 17 40 cc 3e 5c 15 ab 3e
       -0.06810744 0.3698523 0.39892647 0.33414733
000200 e7 69 dd 3e 5a 4b bd be c8 0a 9e 3e 1b bb ca be
       0.4324486 -0.3697155 0.308676 -0.39595875
000210 60 3b 8b be 5c de b0 38 65 a5 76 39 7a 4a 24 be
       -0.27193737 8.433752e-05 0.00023522002 -0.16044036
000220 b2 51 b9 be 6e 43 d5 3d 79 0c 6c 3e 04 b3 a3 be
       -0.3619514 0.10413252 0.23051633 -0.31972516
000230 90 b6 9f be 51 23 9e bd 3e 6e a5 3e 45 59 7f be
       -0.31193972 -0.0772158 0.3231067 -0.24936397
000240 e4 0f 8e bd 60 db c0 3e 01 05 d0 3e a8 3c ae 3e
       -0.06936625 0.3766737 0.40628818 0.34030652
000250 9b 80 e1 3e d6 c9 c0 be 39 f4 a0 3e 82 79 ce be
       0.4404343 -0.3765399 0.31436327 -0.40327078
000260 72 cc 8d be ba 2f af 38 bd ca 79 39 83 51 27 be
       -0.27695042 8.35354e-05 0.00023822016 -0.16339688
000270 3e bd bc be 83 2f d9 3d b7 64 70 3e f5 b7 a6 be
       -0.3686313 0.10604765 0.2347592 -0.32562223
000280 37 2c a9 be 4e 85 a7 bd 07 38 af 3e 46 3b 87 be
       -0.33041546 -0.08179723 0.34222433 -0.2641241
000290 7c 7f 96 bd 73 47 cc 3e df 58 dc 3e a2 8c b8 3e
       -0.073485345 0.3989826 0.43036553 0.36044794
0002a0 40 e0 ee 3e c2 37 cc be dc 79 aa 3e 9c b8 da be
       0.46655464 -0.3988629 0.33296096 -0.4271897
0002b0 98 31 96 be 48 1f aa 38 c4 76 81 39 8f 38 31 be
       -0.29334712 8.112058e-05 0.00024693285 -0.17306732
0002c0 59 ed c7 be c9 01 e6 3d 52 99 7e 3e 41 98 b0 be
       -0.3904827 0.11230809 0.24863175 -0.3449116
0002d0 40 02 ec b6 1a bd a9 b8 98 0d 42 b8 75 cb 60 39
       -7.03361e-06 -8.093771e-05 -4.6265865e-05 0.00021438098
0002e0 5a 4b 6b 39 01 17 05 39 e6 0b b8 b8 40 62 5a b8
       0.00022439417 0.00012692438 -8.77602e-05 -5.2066753e-05
0002f0 7c b8 03 b8 e3 4a 65 39 a3 e6 72 39 44 5c 72 b8
       -3.140465e-05 0.0002186704 0.00023164837 -5.7783225e-05
000300 58 04 f8 38 59 da 16 37 fe bc b1 b8 56 58 85 b8
       0.000118263706 8.991535e-06 -8.47522e-05 -6.358388e-05
000310 46 ec 5b 39 98 4f 4f 38 c2 7e 68 39 25 b2 5c 39
       0.00020973486 4.9426773e-05 0.00022172465 0.00021047199
000320 ba d5 36 39 d2 58 50 39 30 d8 e9 38 7a b1 1b 39
       0.00017436492 0.00019869514 0.00011150574 0.00014848067
000330 1f 21 2b 39 3e 9e d0 38 63 fc d9 38 3d 20 f3 38
       0.0001632017 9.947688e-05 0.00010394377 0.00011593148
000340 38 1a 89 38 f0 cf 34 39 48 d2 f6 38 4d 5b 47 39
       6.537553e-05 0.000172436 0.00011769362 0.00019012131
000350 da 07 37 39 ba ca 9d b7 c4 42 28 39 3c 2f 34 39
       0.00017455165 -1.881026e-05 0.000160466 0.00017183734
000360 b6 8e 3e 39 27 af 32 39 db ba f8 38 21 c2 37 39
       0.00018172976 0.00017040652 0.00011860366 0.00017524559
000370 f9 a3 a0 3e c9 f4 9e 3d d1 75 a6 be 9b 68 80 3e
       0.313751 0.07761533 -0.32511762 0.25079808
000380 d0 c8 8e 3d 61 0d c2 be 81 4e d1 be d8 51 af be
       0.06971896 -0.37900832 -0.40880206 -0.3424213
000390 3b e5 e2 be 5c ea c1 3e e7 f4 a1 be 3c af cf 3e
       -0.44315514 0.37874115 -0.31632158 0.4056338
0003a0 2d 9e 8e 3e 46 44 09 b8 74 d2 8e b9 d1 41 28 3e
       0.27855054 -3.272693e-05 -0.0002724115 0.16431357
0003b0 8d d7 bd 3e ab a0 da bd 44 e8 71 be 38 b0 a7 3e
       0.37078515 -0.10675176 -0.23623759 0.32751632
0003c0 24 33 3b 3e ba cc 38 3d 85 41 42 be 37 a7 15 3e
       0.18281227 0.045117117 -0.18970306 0.14614569
0003d0 a4 e7 25 3d 4a 5b 62 be 8e 16 74 be 1c 91 4c be
       0.040504113 -0.22105137 -0.23836729 -0.1997723
0003e0 4f 42 84 be 86 ea 61 3e 60 03 3d be ee eb 71 3e
       -0.2583184 0.2206212 -0.18458319 0.23625156
0003f0 d7 35 26 3e 50 00 c9 b7 32 26 72 b9 c6 07 c4 3d
       0.16231476 -2.3961213e-05 -0.00023093147 0.09571795

seq.2.bias f4 [20]
000000 5c 9a eb bf 66 d2 41 bd 16 f1 cb 3c 49 79 cd bf
       -1.8406482 -0.047319792 0.024895232 -1.6052638
000010 da 27 55 bd 08 4a 10 3d 5c 5c 17 3d 36 92 1a 3d
       -0.05203996 0.03522685 0.036953315 0.037737094
000020 d8 0f 25 3d 63 c4 39 c0 ec f8 b0 bf 35 76 26 bd
       0.040298313 -2.9026115 -1.3825965 -0.040640075
000030 af f0 da bc af f6 26 bd 3a f1 32 3d 23 f6 31 3d
       -0.026726095 -0.0407626 0.043687083 0.043447625
000040 0b 05 fc bc d1 d6 54 bd f3 65 3a 3d 1e b4 25 bd
       -0.030764123 -0.051962677 0.045507383 -0.040454976

seq.4.weight f4 [1, 20]
000000 be a9 85 38 92 67 01 bf f8 28 9c 3e aa 81 86 38
       6.373551e-05 -0.5054866 0.30500007 6.41377e-05
000010 da 38 0e bf 28 d5 ce 3e 6f 90 d7 3e 79 8f db 3e
       -0.555555 0.40397 0.42102382 0.42882898
000020 23 a2 e8 3e 7a 8f 75 38 0a 58 7f 38 71 cb dc be
       0.454362 5.8546175e-05 6.087873e-05 -0.43123963
000030 e2 56 80 be 22 84 dd be 9d e7 f9 3e a4 b2 f8 3e
       -0.25066286 -0.43264872 0.4880952 0.48573792
000040 ca e0 9e be 60 23 0e bf 9b 98 01 3f 5b b5 db be
       -0.31030875 -0.5552273 0.5062348 -0.429118
