examples/benchmarks/models/nn_3_tanh/model.pt (torch, 4603 bytes, 6 tensors)

seq.0.weight f4 [20, 2]
000000 33 3c 80 3b 88 96 d0 3b 9e 52 b8 bc 83 30 14 bd
       0.0039134263 0.006365601 -0.022500332 -0.036179077
000010 ff e4 d0 3c c7 cc 27 3d 06 07 20 3b d2 6f 78 3b
       0.025499819 0.040966775 0.0024418249 0.0037908447
000020 7e cb d0 3c 88 bc 27 3d 08 8c 85 3c 94 18 d7 3c
       0.025487658 0.04095128 0.016302124 0.026256837
000030 56 24 06 bc 54 00 5d bc a0 cf b4 3c 89 62 11 3d
       -0.008187374 -0.013488848 0.02207166 0.03549436
000040 c1 0e aa 3c 1f c3 08 3d 0b a7 0b 3d 05 1f 60 3d
       0.020758988 0.033389207 0.03409485 0.054717083
000050 f5 64 db bc e5 39 30 bd 12 e9 18 bd 3b 51 75 bd
       -0.026781539 -0.043023963 -0.03733165 -0.05989192
000060 93 2c 63 3c 1d 83 b7 3c 72 cf b7 3c 2c c7 13 3d
       0.013865608 0.022401387 0.022437785 0.036078617
000070 cc 8b 22 bc 5e 80 84 bc e4 66 31 bc 2a 16 90 bc
       -0.0099210255 -0.016174491 -0.010827754 -0.017588694
000080 f0 e7 dd bc d0 38 32 bd b7 a8 0a bd 67 87 5e bd
       -0.027088135 -0.043511212 -0.033852305 -0.05432835
000090 d4 48 19 bd 67 f1 75 bd 2c fa 3c bc e8 0d 99 bc
       -0.03742297 -0.060044672 -0.011534255 -0.018683389

seq.0.bias f4 [20]
000000 23 98 97 ba 06 52 80 3c 8b 1a 88 bc 9c 0b b1 bc
       -0.0011565726 0.015664112 -0.01661422 -0.021611981
000010 c5 de 88 bc 3e c9 4a bc 86 d8 42 3c 4e 95 7e bc
       -0.016707787 -0.012377081 0.0118924435 -0.015538527
000020 b5 ce 71 bc 03 59 a7 bc 69 5f 8d 3c 0f ac b4 3c
       -0.014758755 -0.020428186 0.01725741 0.0220547
000030 2e 7e 58 bc ad 15 80 bc e9 b3 4f 3c 1b d5 4a 3c
       -0.013213677 -0.015635336 0.012677171 0.01237991
000040 b2 05 8e 3c 4e 63 a6 3c df e0 b3 3c 11 72 5f 3c
       0.0173367 0.020311024 0.021957813 0.013638035

seq.2.weight f4 [20, 20]
000000 b1 ef 0e bd 80 25 49 3e 36 ca 63 be 65 ce af bc
       -0.034896556 0.19643211 -0.22245106 -0.021460721
000010 01 ba 63 be 92 ca 11 be 7b 4c 94 3d c7 57 45 be
       -0.22238924 -0.1423743 0.0724115 -0.19271766
000020 38 8b 39 be 3b 37 98 be 34 45 6f 3e 2c 98 a6 3e
       -0.18119514 -0.29729638 0.23366243 0.32537973
000030 f4 18 f8 bd 7d 95 48 be 04 1d b2 3d 9f df c1 3d
       -0.121141344 -0.19588275 0.086969405 0.094664805
000040 7d f8 71 3e 37 20 97 3e 10 0b a7 3e 09 6a ce 3d
       0.23629947 0.29516765 0.32625628 0.10078818
000050 11 9e a1 3c 79 3a e3 bd 9d b6 00 3e 1d c7 46 3c
       0.019728692 -0.11095137 0.12569661 0.012132433
000060 f3 a5 00 3e 03 c4 a4 3d 48 96 27 bd 6a da de 3d
       0.12563305 0.08045199 -0.040914804 0.10881503
000070 e0 af d1 3d b5 f6 2b 3e 37 2c 07 be f1 2f 3c be
       0.102386236 0.1679333 -0.1320046 -0.18377663
000080 97 22 8c 3d e7 97 e2 3d 15 35 49 bd ab 05 5b bd
       0.06842535 0.11064129 -0.04912289 -0.053472202
000090 23 b5 08 be 1a bf 2a be 7e b4 3c be 9c 16 69 bd
       -0.13350348 -0.16674462 -0.18428227 -0.056906328
0000a0 35 40 fd bc 46 27 32 3e 37 d2 49 be 36 c2 9b bc
       -0.030914405 0.17397794 -0.19709097 -0.019013505
0000b0 ea ba 49 be c1 2c 01 be 7b 64 83 3d d4 c5 2e be
       -0.19700208 -0.12614729 0.064156495 -0.17067653
0000c0 84 63 24 be 7c d7 86 be 2b f6 53 3e 52 92 93 3e
       -0.16053587 -0.26336277 0.20699374 0.2882257
0000d0 ed bb db bd 0c ab 31 be 9d c5 9d 3d 14 c6 ab 3d
       -0.107292034 -0.17350405 0.07703707 0.0838739
0000e0 9d 5e 56 3e 59 e2 85 3e 63 fb 93 3e ed cb b6 3d
       0.2093453 0.26149252 0.2890273 0.089256145
0000f0 a3 ad 12 3d 3c 5b 4e be ce c6 69 3e f5 58 b4 3c
       0.035810124 -0.2015199 0.22829744 0.022015074
000100 cf aa 69 3e 34 a1 15 3e ca 33 98 bd 49 64 4a 3e
       0.22819065 0.14612275 -0.07431753 0.19764818
000110 aa 6b 3e 3e 53 2d 9c 3e a5 83 75 be 55 f8 aa be
       0.18595758 0.3050333 -0.23976 -0.33392587
000120 25 82 fe 3d c8 cb 4d 3e 4a b8 b6 bd 6b ee c6 bd
       0.12427167 0.20097268 -0.08921869 -0.09713443
000130 0e 51 78 be 56 12 9b be 90 61 ab be f0 b4 d3 bd
       -0.2424967 -0.30287427 -0.33472872 -0.103372455
000140 53 c8 1f 3d bc c4 60 be 9b 93 7e 3e f6 76 c4 3c
       0.039009403 -0.21950048 0.24860995 0.023982506
000150 06 79 7e 3e 97 ee 22 3e 8b c4 a5 bd 86 85 5c 3e
       0.24850854 0.15911327 -0.08094128 0.2153531
000160 0b 64 4f 3e 63 11 aa 3e c8 b1 85 be 74 2f ba be
       0.20253007 0.3321639 -0.261122 -0.3636433
000170 0d a2 0a 3e b8 25 60 3e 71 f0 c6 bd 9c a9 d8 bd
       0.1353838 0.21889389 -0.09713829 -0.105792254
000180 cd 38 87 be 75 db a8 be f0 a5 ba be 6e 92 e6 bd
       -0.26410523 -0.32979932 -0.36454725 -0.11258398
000190 79 d7 55 3c 08 95 96 bd bd 70 aa 3d eb 24 04 3c
       0.013051861 -0.07352644 0.08322284 0.008065443
0001a0 b4 6c aa 3d d2 39 5a 3d 43 15 de bc 09 c4 93 3d
       0.08321515 0.053277798 -0.027109748 0.07215125
0001b0 ab d8 8a 3d aa da e3 3d 20 14 b3 bd 1b 4a f9 bd
       0.067796074 0.11125691 -0.08744073 -0.121723376
0001c0 e7 bc 39 3d c5 25 96 3d 7f 5c 05 bd 1b 20 11 bd
       0.045346167 0.07331423 -0.032558914 -0.03543101
0001d0 0f 14 b5 bd 07 3e e2 bd b2 18 fa bd 1a 9b 1a bd
       -0.088417165 -0.11046987 -0.122117415 -0.037745573
0001e0 97 ff 10 bd ed 0f 4c 3e f1 21 67 be 7b 5d b2 bc
       -0.0354 0.1992795 -0.22571541 -0.02177309
0001f0 0f 0d 67 be d4 ef 13 be 91 78 96 3d 10 32 48 be
       -0.22563575 -0.14446956 0.07347215 -0.19550347
000200 bf 42 3c be 15 71 9a be af c2 72 3e 2a 04 a9 3e
       -0.18384837 -0.301644 0.23707078 0.3301099
000210 52 b1 fb bd 22 7d 4b be 8d b4 b4 3d f1 b8 c4 3d
       -0.122896805 -0.19871953 0.088235 0.09605587
000220 e0 83 75 3e a5 56 99 3e 7b 7b a9 3e 01 65 d1 3d
       0.23976088 0.29948917 0.3310202 0.10224343
000230 45 46 22 bd 9d 59 64 3e f8 4f 81 be df 87 c7 bc
       -0.039617795 0.2229981 -0.25256324 -0.02435678
000240 a5 40 81 be a6 83 25 be eb 55 a8 3d 05 07 60 be
       -0.25244632 -0.16163501 0.082195126 -0.21877678
000250 06 a3 52 be 89 c6 ac be 33 ce 87 3e 04 19 bd 3e
       -0.20570001 -0.3374522 0.26524505 0.36933148
000260 25 d0 0c be 3e b7 63 be eb 2a ca 3d 7f 0a dc 3d
       -0.13751276 -0.2223787 0.09871467 0.107441895
000270 a6 59 89 3e d8 8a ab 3e b1 9a bd 3e 04 4e ea 3d
       0.2682621 0.33504367 0.37032083 0.114406615
000280 74 6d 12 3d 85 06 4e be 87 4f 69 3e c6 09 b4 3c
       0.035748914 -0.20119675 0.22784244 0.021977317
000290 0a 3c 69 3e 9c 4f 15 3e 0c de 97 bd 5d 20 4a 3e
       0.2277681 0.1458115 -0.07415399 0.19738908
0002a0 d2 08 3e 3e 82 e0 9b 3e 25 13 75 be 16 99 aa be
       0.18558052 0.30444723 -0.23933084 -0.3331992
0002b0 6b 19 fe 3d 70 73 4d 3e 1a 63 b6 bd c0 8c c6 bd
       0.12407192 0.20063567 -0.08905621 -0.09694815
0002c0 fd d0 77 be 01 cb 9a be ff 0b ab be f0 64 d3 bd
       -0.24200816 -0.30233005 -0.3340759 -0.10321987
0002d0 e9 78 19 3d 81 f3 57 be 5b 91 74 3e e4 af bc 3c
       0.037468825 -0.21088983 0.23883574 0.02303309
0002e0 f5 78 74 3e 8b 8b 1c 3e 3a 3c 9f bd 29 db 53 3e
       0.23874266 0.15287606 -0.07775159 0.20689072
0002f0 b4 35 47 3e 3a 65 a3 3e 3a 6f 80 be 0d d6 b2 be
       0.1945408 0.31913167 -0.2508486 -0.34928933
000300 1e 25 05 3e 4c 59 57 3e 87 2c bf bd 65 12 d0 bd
       0.1300244 0.21030158 -0.09334665 -0.101597585
000310 c3 e3 81 be e6 39 a2 be ef 48 b3 be 27 89 dd bd
       -0.2536908 -0.31684798 -0.3501658 -0.10817175
000320 c3 80 18 3d c0 a7 56 be 8e 16 73 3e 4d 9a bb 3c
       0.03723217 -0.20962429 0.23739073 0.022900725
000330 f2 ff 72 3e 63 91 1b 3e cf 45 9e bd 3c 9b 52 3e
       0.23730448 0.1519218 -0.07728159 0.2056703
000340 06 00 46 3e e2 6e a2 3e 98 54 7f be 84 c0 b1 be
       0.19335946 0.31725222 -0.24934614 -0.3471719
000350 04 61 04 3e 3f 0e 56 3e 76 14 be bd 95 e7 ce bd
       0.12927634 0.20903872 -0.09281246 -0.101027645
000360 6e 1b 81 be 73 45 a1 be ad 41 b2 be d5 4a dc bd
       -0.2521624 -0.31498298 -0.34815732 -0.107564606
000370 96 4e 01 3d 7a 0f 36 be 6d 1b 4e 3e ee 1a 9f 3c
       0.031569086 -0.17779341 0.2012765 0.01942202
000380 71 10 4e 3e 9b eb 03 3e ef 27 86 bd 31 9e 32 3e
       0.2012346 0.12882845 -0.065505855 0.17443158
000390 c1 db 27 3e eb b4 89 3e 58 83 58 be 7e ba 96 be
       0.16392423 0.26895842 -0.21143854 -0.29439157
0003a0 ff 85 e0 3d f9 85 35 3e 23 29 a1 bd dc 56 af bd
       0.10963058 0.17726888 -0.07869174 -0.08561489
0003b0 38 e5 5a be 11 bb 88 be b8 27 97 be cd d4 ba bd
       -0.21376503 -0.2670522 -0.2952249 -0.0912262
0003c0 85 aa d6 3c 3b 15 17 be 69 14 2b 3e 9b 1e 84 3c
       0.026204357 -0.14754193 0.16707005 0.016127875
0003d0 ed 08 2b 3e 2c 03 db 3d 8f c5 5e bd b2 3c 14 3e
       0.16702624 0.10693964 -0.054387625 0.14476278
0003e0 f6 59 0b 3e 8e a8 64 3e 44 b5 33 be f9 38 7a be
       0.13608536 0.22329924 -0.17549616 -0.24435796
0003f0 0d 5a ba 3d 82 a8 16 3e 01 cb 85 bd 0a a1 91 bd
       0.09099207 0.14712718 -0.065328605 -0.07110794

seq.2.bias f4 [20]
000000 ed 71 bc bc 11 32 c1 3c f5 a0 b7 bc ff 58 bd 3c
       -0.023003543 0.023583444 -0.022415617 0.023113726
000010 83 01 c4 3c a7 a6 0b 3d 20 4b bd bc bb c7 c4 bc
       0.023926502 0.03409448 -0.023107111 -0.02402102
000020 89 a4 bd 3c f4 55 c0 3c fb 80 c0 3c 65 48 b8 3c
       0.023149746 0.023478486 0.023499003 0.022495458
000030 65 81 b6 3c c8 93 bf bc 94 7e ba bc 02 53 d1 bc
       0.022278497 -0.023385897 -0.022765435 -0.025552277
000040 40 9f b6 bc f4 31 b8 bc 8d a2 b7 bc b9 17 ba bc
       -0.022292733 -0.022484757 -0.022416377 -0.02271639

seq.4.weight f4 [1, 20]
000000 71 f7 26 3f 9a 64 bc be aa d7 13 3f bf 64 2b bf
       0.65221316 -0.36795503 0.5775095 -0.669506
000010 0a b9 3a bf bc 6b 79 be 8e 6c 29 3f 2b b3 3d 3f
       -0.729386 -0.24357504 0.66181266 0.74101514
000020 4f 0a 2b bf f3 5a 33 bf a3 39 32 bf 97 f7 16 bf
       -0.66812605 -0.7006065 -0.69619197 -0.5897154
000030 2b 7e fa be e8 3f 30 3f 5c c2 20 3f ca 6c a6 3e
       -0.48924384 0.68847513 0.6279657 0.32504874
000040 67 d7 f8 3e 81 24 16 3f d5 55 15 3f 31 9a 1f 3f
       0.4860184 0.5864945 0.58334094 0.6234465

seq.6.weight f8 [1, 1]
000000 00 00 00 00 00 00 00 40
       2.0
