examples/xydoubleintegrator/models/100r100r2_MPC_2/model.pt (torch, 45255 bytes, 6 tensors)

seq.0.weight f4 [100, 4]
000000 70 0d 50 3e 59 ee a2 3e 4a 00 c8 be 3f 70 09 bf
       0.20317626 0.3182247 -0.3906272 -0.536869
000010 5d 3e 01 3d 64 21 3b bd e6 08 e3 3d e2 02 1d 3e
       0.031553615 -0.04568614 0.110856816 0.15333131
000020 9d ef 5a 3f 65 75 84 3b 48 c4 a8 3c 77 4d d7 3c
       0.8552187 0.004042315 0.020601407 0.026282055
000030 59 fc f9 3d d6 57 66 bd 43 c3 3c 3e 1b 1c 44 3e
       0.122063346 -0.05623611 0.18433861 0.19151346
000040 cb c8 d3 3e a3 87 9f be b7 a9 61 bd 25 ea c6 be
       0.4136413 -0.3115817 -0.055093493 -0.38850513
000050 7b c0 cd be de 0e ae be 37 a7 81 3d 91 55 7e 3e
       -0.40185913 -0.33995718 0.06330722 0.24837328
000060 3c 51 bf be fc 1a 96 3e ff 70 eb be 82 2c 82 3e
       -0.37366664 0.29317462 -0.45984647 0.25424582
000070 70 28 9b 3e f5 f9 ed 3b 2c 0c 50 3e 9a 0b 54 be
       0.3030429 0.007262463 0.20317143 -0.2070755
000080 ab 03 fb 3d 27 ea 08 be fe af 94 3e 62 17 c2 be
       0.12256559 -0.13370572 0.2904052 -0.37908465
000090 7a 1a 33 bf 63 cb c4 3d 46 49 d9 bc 10 ea 82 3b
       -0.69962275 0.096091054 -0.026524197 0.0039951876
0000a0 95 45 ae 3e 67 67 da be 72 d1 de 3e 79 76 94 be
       0.34037462 -0.42657015 0.4351917 -0.28996637
0000b0 ec a9 e9 bd e9 07 58 3f fc 64 86 3d 03 84 dd 3d
       -0.11409363 0.8438707 0.0656223 0.10816195
0000c0 5c 5c ff 3e ab a2 05 3d 8a ea 40 3c 8f 10 10 3d
       0.49875152 0.032625835 0.0117746685 0.03517204
0000d0 3e d7 14 bf fa e4 df 3e a8 53 a1 3c c2 8e 5d be
       -0.58140934 0.43729383 0.01969321 -0.21636489
0000e0 cd 8c 7f bd 2f 6d 07 3f 78 9a e0 3e 63 c6 ac be
       -0.062390137 0.52900976 0.4386785 -0.33745107
0000f0 ec ba ad be 23 9b e9 3e 43 dc 62 3d 65 fc 10 3e
       -0.33931673 0.45626172 0.05538584 0.14158781
000100 c6 38 19 3f f8 79 0f bf f4 ba f7 bb 9d 89 08 bb
       0.59852254 -0.56045485 -0.0075601283 -0.0020833977
000110 ae 23 00 3f 39 6c e8 bc c2 0d af 3e f3 50 e0 3e
       0.5005444 -0.028371917 0.34190184 0.4381176
000120 7f 76 5d 3d 39 8d d7 bd 12 97 fb bd 37 06 38 3e
       0.054068085 -0.10524983 -0.12284674 0.17971121
000130 3c 4a ac be 1c 61 30 bf e4 9b 6a 3c 7c d1 73 3c
       -0.33650386 -0.6889818 0.014319394 0.014881488
000140 5c 19 03 3f 57 10 9d 3e ae e7 6a be 90 75 52 3e
       0.5121057 0.3067653 -0.22939941 0.20552659
000150 3f 81 51 3f 7a 27 a2 3d 93 25 0b 3c 1b 8d ad bc
       0.8183784 0.07917686 0.008492845 -0.021185448
000160 60 fb 85 3e 01 f5 d5 3e 26 fe a9 ba d1 c1 92 bd
       0.26168346 0.41788486 -0.0012969419 -0.07165874
000170 08 78 c9 be d4 b8 16 3f cf ee 82 3c fa e8 e7 3c
       -0.3934939 0.58875775 0.015983013 0.028309334
000180 28 9b 2e 3f 00 d1 94 3e 7b db dc 3d 8b 42 3e 3e
       0.682055 0.29065704 0.1078405 0.18580072
000190 95 c5 4c 3e 9d c8 ad 3d 9d 42 cf 3e 71 59 6b be
       0.19997247 0.084855296 0.4048051 -0.22983338
0001a0 76 ac b8 3e 64 45 05 bf 09 4d 7f be ef dd d2 be
       0.36069077 -0.52059007 -0.2493173 -0.41184947
0001b0 ab 69 ee be a1 4f ad be 30 82 50 3e bf 8d 97 be
       -0.46564993 -0.33849815 0.20362163 -0.2960033
0001c0 e8 de 0f 3f ff f1 23 3e da 1e c7 3e ff 30 aa be
       0.561995 0.16010283 0.38890725 -0.33240506
0001d0 dc e2 5f 3e ea 04 33 3f c0 af 0d 3d de 88 34 3c
       0.21863884 0.69929373 0.034591436 0.01101896
0001e0 5b e4 17 be b7 b0 79 3e e0 0b 69 3e 94 76 91 3e
       -0.14833204 0.24383818 0.22758436 0.2841078
0001f0 d9 88 21 be e2 80 0c 3f 80 86 64 be 26 5c 95 3e
       -0.1577486 0.5488416 -0.22316933 0.29171866
000200 d1 91 b6 3e 16 5a 35 3f 17 af 4b 3b 40 64 09 3c
       0.35658124 0.70840585 0.0031079703 0.008385718
000210 b7 76 b8 be eb ae 49 3e c4 cd ba 3e 96 43 be 3e
       -0.36028072 0.19695632 0.36485112 0.3716094
000220 50 03 81 be 06 a9 dc 3e c1 9d 90 bd cc d6 67 be
       -0.2519784 0.43097705 -0.07061339 -0.22640532
000230 25 9d fe 3c a2 06 a8 3e 70 fd f0 3a 8d 35 86 3b
       0.031080792 0.3281756 0.0018386077 0.004095739
000240 63 20 6e 3e a9 d2 00 bf 72 cf df be f1 6c 5e 3e
       0.23254542 -0.5032144 -0.43712956 0.21721245
000250 37 45 a9 3e d4 28 10 3f c0 e9 24 3e 16 8f 41 3e
       0.3306062 0.563123 0.16104794 0.18902239
000260 31 16 47 be 74 af a8 3d e8 2f 15 3e 5e 89 fe bd
       -0.19442059 0.0823659 0.14569056 -0.124285445
000270 97 da af be 50 5f 16 bf 4b 2c 03 be f7 e6 1d be
       -0.34346458 -0.58739185 -0.12809865 -0.15420137
000280 6c 27 a7 3d 19 a8 23 bf fd a7 03 be 9e c2 37 3d
       0.08161816 -0.6392837 -0.12857051 0.044863336
000290 f4 fe 50 3f 2c c9 bd be e6 f6 c0 bd 0e fa 82 3e
       0.8163903 -0.37067544 -0.09422092 0.25581402
0002a0 2c 89 9e 3e 20 fa 41 3f 85 e4 44 3d 9a ee 81 3d
       0.3096403 0.75772285 0.048069496 0.06344338
0002b0 11 00 c2 bd 55 44 8f 3d 0a 51 2b bd 84 66 1d be
       -0.09472669 0.06995455 -0.04182533 -0.15371138
0002c0 56 64 de be 51 77 80 3e b6 0d 2f 3e 8f c6 fe 3e
       -0.43435925 0.2509103 0.17095074 0.49760863
0002d0 fc 33 2b 3f 77 17 8e 3f 23 17 a4 3a 26 03 b0 3b
       0.66876197 1.1100911 0.0012519102 0.005371469
0002e0 e1 03 ec 3d b2 9d d7 be e6 2b 1f 3e 7b cb d8 be
       0.11524177 -0.421125 0.1554409 -0.42342743
0002f0 2b a7 62 bf e8 cb 04 be ee cc 5a bd 18 19 bf bc
       -0.8853633 -0.12968409 -0.053418092 -0.023327395
000300 4d 2e e5 be 57 48 f8 3d e6 37 24 3e 35 b3 bf be
       -0.44761887 0.12123173 0.16036949 -0.37441412
000310 5c 09 03 3d d1 41 80 3e 85 98 cf 3e 74 ac 90 be
       0.031991348 0.25050214 0.4054605 -0.2825657
000320 5a 32 75 3e 64 2b 78 be ec 4a 31 3d 37 77 54 3e
       0.23944989 -0.24235302 0.04328434 0.20748602
000330 f3 be 12 bf 31 76 3f 3e d8 e3 dc bd 3b 2a 03 be
       -0.57322615 0.1869743 -0.10785645 -0.12809078
000340 ac 7d 47 be 4d fb bd 3e 82 c5 c6 be 72 82 02 3f
       -0.19481534 0.3710579 -0.38822562 0.50980294
000350 8c 49 e3 be 3a 75 9d bd 4e a4 65 3e 3b 5a d7 bd
       -0.4439205 -0.07688375 0.22425959 -0.10515257
000360 4a 06 a3 3f b3 bf 8f 3f 7c 79 98 bb 52 5c 81 3c
       1.2736294 1.1230377 -0.004653154 0.015791092
000370 8a bf 17 3f d7 c7 dc 3e 0d 77 0e bd 85 7e 5a bc
       0.5927664 0.43121216 -0.034781504 -0.013335829
000380 85 9b 92 be bf b8 0a be cd 54 df be 60 81 94 3e
       -0.28634277 -0.13547038 -0.43619385 0.29004955
000390 1c 3f b4 3e dd 15 f6 3e d0 88 8f 3e 6f 36 25 be
       0.352044 0.48063555 0.28034067 -0.16134046
0003a0 7b 8d 56 bf 93 09 4a 3f 71 bf 90 3a e5 c7 2e bc
       -0.8380963 0.7892086 0.0011043382 -0.010667776
0003b0 76 b9 dc 3e e0 a7 bb 3e 4f a4 56 be 75 ad 05 3c
       0.43110245 0.36651516 -0.20961116 0.008159031
0003c0 40 bc 99 3d b6 92 db 3e 52 a7 e4 bd bf 8c 71 be
       0.07506609 0.4288537 -0.11164726 -0.23588847
0003d0 18 68 56 bf f6 c9 1e be dd f7 23 3d 94 3b 3e bd
       -0.83752584 -0.1550673 0.040031303 -0.046443537
0003e0 90 11 78 bc e3 d1 f5 3e 61 67 a4 3e 8c 45 2c 3b
       -0.015140906 0.48011693 0.32110122 0.002628657
0003f0 42 78 1d bd 2f 78 05 3f 0e 8b 36 bc 58 f9 bc be
       -0.038444765 0.5213651 -0.011141552 -0.36908984

seq.0.bias f4 [100]
000000 5a d9 12 3f 2a 8e c8 3f 72 1c 97 bf e9 25 39 bd
       0.573629 1.5668385 -1.1805556 -0.04520217
000010 e4 21 2c 3e 9e c7 f5 3e 0c 9d 9b be b0 0d 9e be
       0.16809803 0.48003858 -0.30393255 -0.30869818
000020 40 7f 09 bf 4d dc 47 bf c6 2e 6d bd bd 72 7f bf
       -0.53709793 -0.7807053 -0.057905935 -0.9978445
000030 56 32 2e bf 6d 52 f4 be bc a7 11 bf f4 21 85 3f
       -0.68045557 -0.47719136 -0.5689657 1.0400987
000040 d8 a9 e5 bd cf ac a6 3e 48 eb a7 3f 08 bf 65 3f
       -0.11214036 0.32553717 1.3118677 0.89744616
000050 53 c3 4b bf cf 0a 63 bf c8 3e ba 3e 67 4d ad 3d
       -0.79594916 -0.8868837 0.36376023 0.08462029
000060 e3 2a 0f bf 73 e1 eb be e1 67 9d bd 89 d4 d3 3e
       -0.55924815 -0.46070442 -0.07685829 0.4137309
000070 31 4b 46 3f d8 02 19 3f 01 9f 7a be c2 54 eb be
       0.77458483 0.59769964 -0.24474718 -0.45963103
000080 4f 95 5a 3f bd a4 35 3f ed 74 61 be ee 56 8f 3f
       0.85384077 0.70954496 -0.2201726 1.1198404
000090 99 ed fa 3e 32 2d 24 3e 87 8d 36 3f 53 17 58 3e
       0.49009398 0.16032866 0.71309704 0.21102647
0000a0 c8 58 d2 be 42 88 1a bf 43 bd eb be 7a 98 8a 3f
       -0.4108336 -0.6036416 -0.46042833 1.0827782
0000b0 fe ba f8 be a2 3c 59 3f 3b 93 8d 3d 41 d6 a1 bf
       -0.48580164 0.84858143 0.069128476 -1.264351
0000c0 bd c7 0a 3f 43 c6 70 3e 31 d2 80 3f 37 fc 66 3f
       0.54211026 0.23513131 1.0064145 0.902286
0000d0 3c 75 98 be 62 6c 83 be ba b3 24 3e f6 35 b8 bf
       -0.29776943 -0.25668627 0.16084185 -1.4391468
0000e0 c7 dd 13 3f 91 02 f5 be ef 24 51 3d 25 ea 21 3f
       0.5776028 -0.4785352 0.051060613 0.632479
0000f0 d2 87 e7 be ea 20 39 bf 6c c6 d1 3c 2d 4f d0 bd
       -0.4522081 -0.7231585 0.02560731 -0.101713516
000100 63 dd 78 bf b4 81 11 be a1 c6 2e bf 9c 30 c0 be
       -0.9721281 -0.14209634 -0.68271834 -0.37537086
000110 35 cd 08 40 05 2d d0 be d3 2e 3e 3f f5 04 14 3f
       2.1375248 -0.40659347 0.742902 0.57820064
000120 90 48 68 3e 8c e3 d0 be 44 b2 39 bf 59 2e bc bd
       0.2268393 -0.40798604 -0.72537637 -0.091885276
000130 ed c7 b0 3e 1a 4f 04 bf 09 a0 74 be f1 76 85 be
       0.3452753 -0.516832 -0.23889174 -0.26067308
000140 ad 55 94 bf 35 5b a8 3f bf cf 24 3f 0d 33 8b be
       -1.1588646 1.3152834 0.64379495 -0.27187386
000150 b4 95 dc be 0f 7d 1e 3d ec 1e 6a bd 9c 48 81 be
       -0.43082964 0.038693484 -0.057158396 -0.2525071
000160 df fe 16 bf 9f 96 ef be a3 2f e7 be a0 cb 95 bf
       -0.5898265 -0.46794602 -0.4515353 -1.1702766
000170 2a 44 4c 3f 8b ba 41 3f ef c0 78 be e6 f3 53 bf
       0.7979151 0.75675267 -0.24292348 -0.82794034
000180 32 5d e1 3d 39 4e 8e bd fb 6a 8c be 31 0a a8 3e
       0.11004104 -0.069485135 -0.2742537 0.32820275

seq.2.weight f4 [100, 100]
000000 c9 ce 53 bd 08 e2 ae 3d 78 d7 1d 3b 54 8b f8 bc
       -0.051710878 0.08539206 0.0024084728 -0.030339874
000010 8e 70 00 bd cb 44 ed 3d 67 4d 8a 3c 16 d8 9a 3c
       -0.03135734 0.11585387 0.016882611 0.018901866
000020 93 6c 84 bd 8c 4c 2f 3c 3e 6a af 3c c3 d1 dc 3d
       -0.064660214 0.010699403 0.021412965 0.107821964
000030 94 a4 bb 3d 3d 81 fa 3d 9c 08 63 3d c6 14 94 3d
       0.0916225 0.122316815 0.055428132 0.07230525
000040 89 f8 8e bc 32 b1 d4 bc fb c2 66 3d 94 89 09 3e
       -0.017452495 -0.0259634 0.05633829 0.13431388
000050 10 f0 0b 3c 60 9d 3a bd 74 88 18 bc a3 5c 9c 3d
       0.008541122 -0.04556024 -0.009309877 0.076348566
000060 27 7d c9 3d 31 b5 00 bc bc 64 33 3d eb 01 99 3b
       0.09838324 -0.007855699 0.04379724 0.004669418
000070 db bf 4b 3d e0 3f 96 3d e3 e3 90 3d f5 55 8f 3d
       0.049743515 0.07336402 0.07074716 0.06998817
000080 0e 13 39 bc 43 ba fc bc d1 7f 6c 3d 4e 65 48 3d
       -0.011296047 -0.030850535 0.057739083 0.048924737
000090 85 16 a5 bd dc dd 8f 3d 9f a6 27 3d b4 51 5b bd
       -0.08060936 0.07024738 0.040930387 -0.053544715
0000a0 a2 92 1d bd 30 75 19 bd ef 9a a9 3d 5f d2 ba 3d
       -0.038469918 -0.037465274 0.08281504 0.09122156
0000b0 ad 9f f0 3d 4f 14 f2 3d c9 d6 4d 3d 77 c4 bb bc
       0.11749206 0.1182028 0.050253663 -0.02292083
0000c0 28 4f 8c bc ab 81 93 bd d7 c3 84 3d 61 47 86 bd
       -0.017127588 -0.072024666 0.06482666 -0.06556583
0000d0 df 86 ba 3d 9d 3b a1 bd 8b 81 83 3d fa e7 28 bd
       0.09107756 -0.078726985 0.06421193 -0.041236855
0000e0 45 46 b4 3c 6e 99 b7 3d 00 d4 4a bd 9e 02 12 bd
       0.022006163 0.08964811 -0.049518585 -0.035647027
0000f0 bc 37 02 bd 45 81 54 bc 5f 26 10 3d 56 c9 e4 3c
       -0.031791434 -0.012970273 0.035192844 0.027928036
000100 de 9f ab bc 66 80 e5 3c 33 72 0f bd 22 92 89 bd
       -0.020950254 0.028015327 -0.03502102 -0.06717326
000110 bb 2b fe bd a8 91 06 3c 48 ea 53 bd f5 c1 09 bd
       -0.12410685 0.008213438 -0.0517371 -0.033632237
000120 4b 3d e4 3d 5a d2 64 bc 6b 2c 96 bc 25 25 7f 3d
       0.11144503 -0.013966167 -0.018331727 0.062291283
000130 6a 58 d4 3a fc 5d fc bd bf f9 fe bd 77 8d 38 3c
       0.0016200666 -0.123226136 -0.12449979 0.011264197
000140 4b 51 02 be 97 37 57 bd fe f9 c0 3d 6c c2 75 3d
       -0.12726323 -0.05254325 0.09422682 0.05999987
000150 7e d0 ef ba 96 c0 5a bd 68 dc 3b 3d 93 f9 f4 3d
       -0.0018296388 -0.05340632 0.045864493 0.11961665
000160 6d 85 c0 bd 0c 67 d7 bc d0 49 23 3d 89 0f 71 3d
       -0.09400449 -0.026294254 0.039865315 0.058852706
000170 b4 31 88 3b c3 25 cd 3d a4 fc db 3d 2a 87 49 3d
       0.0041563157 0.10016968 0.10741547 0.049201168
000180 1c 3f 88 ba 1e ab b6 bd 7e ae 2f 3d 53 b1 c9 b9
       -0.0010394785 -0.08919357 0.042891018 -0.00038469824
000190 9e 22 07 bd 6f e6 15 3d a3 e1 a5 bc 6d 24 8b 3d
       -0.032991998 0.03659671 -0.020249194 0.06794057
0001a0 72 4a a5 bd 46 f5 80 3d 74 9b 70 bd c4 b0 93 3c
       -0.0807084 0.06296782 -0.058742 0.018028624
0001b0 d8 44 a2 ba 2c 96 1a bd 4e 17 b7 bc f9 a9 74 3d
       -0.0012380136 -0.03774087 -0.02234998 0.05973241
0001c0 18 1e 68 bd f3 aa 17 3d f3 03 01 bd b8 2d 3a 3d
       -0.056669325 0.037028264 -0.031497907 0.045453757
0001d0 c7 b5 64 3d ab 3d ad 3c d1 f4 24 bc c0 b5 8b bd
       0.05583742 0.02114757 -0.010068134 -0.068217754
0001e0 e9 20 11 3c fd 86 ae 3c a4 6c ac 3d aa 4d 89 3d
       0.008857944 0.021304602 0.08419159 0.06704266
0001f0 33 af 94 3d 09 b3 af 3d 7d 28 ba bc a4 70 ae 3a
       0.07259979 0.0857907 -0.022724384 0.0013308716
000200 27 64 21 b8 24 8e 43 3d 0e dd 62 bd 86 4e 31 bc
       -3.8478665e-05 0.047742978 -0.055386595 -0.010821944
000210 c7 d6 93 3d 5b 77 45 bd d7 19 36 bd b5 5c e0 3d
       0.072187 -0.04820953 -0.044458237 0.109551825
000220 c3 80 c7 3d f7 ce 1b bd 9c 2b 84 3d 8a a7 8f 3d
       0.09741356 -0.038039174 0.0645363 0.070143774
000230 01 9f ed 3a ee 71 b6 3d 21 17 a8 bd b6 f0 a9 bd
       0.0018129052 0.08908449 -0.082075365 -0.08297865
000240 dc ea 22 3d ea e4 86 3d 90 ef e1 3c 18 3a 9c bd
       0.03977476 0.06586631 0.027580053 -0.07628268
000250 8c 23 04 3e bf 54 55 3d 22 5e 89 3c 89 8f 7f bd
       0.12904185 0.052082773 0.016768519 -0.062392745
000260 7d f7 1b 3e 43 60 3d bd 6a 5d ca 3d 2a 68 98 bc
       0.15231128 -0.04623438 0.098810986 -0.018604357
000270 7b e4 bc 3d 3a 34 8c 3d 3c 15 55 bd f1 11 cb bc
       0.09223267 0.06845899 -0.052022204 -0.024788829
000280 75 bb 19 be 51 dc 23 3d 8c f6 3e 3d a1 7d 4b 3c
       -0.15012915 0.040005032 0.046621844 0.012420089
000290 cf 7c 02 3d 43 7c 74 bc ec e7 87 bd fa 6a 69 3c
       0.031857308 -0.014922204 -0.066360325 0.014246697
0002a0 7c fb 57 bc ec 2d 86 3b fa d9 83 bd 53 94 e6 3c
       -0.013182517 0.00409483 -0.0643806 0.028146898
0002b0 f0 88 93 3c 74 e7 77 3d 1d e3 a1 3a 4b 25 92 bb
       0.018009633 0.060523465 0.001235101 -0.004460012
0002c0 59 42 94 3d d4 ca 6b 3d 9e 25 b5 bd 71 8c 37 bd
       0.07239217 0.05756648 -0.088450655 -0.04481167
0002d0 f3 ba 83 bd 1d 3a e4 3c 9e f4 c0 3c a0 d5 3f 3d
       -0.06432142 0.027859742 0.023554143 0.046834588
0002e0 25 66 c2 3d aa 3a 80 bd 1c 82 9d bd 05 12 d6 bd
       0.09492139 -0.06261189 -0.07690832 -0.10452656
0002f0 02 a7 66 bc 42 b8 05 3d 43 3d e5 bd ae 0d 5a 3d
       -0.014077904 0.032646425 -0.11193325 0.053235702
000300 fb c1 8c 3d de 9f 71 bd d0 8b 83 bd 96 ef dc bd
       0.06872936 -0.05899035 -0.064231515 -0.10787885
000310 e8 7b c7 bd 9a 71 0e bd 0b 72 c3 3c ed 3c 2d 3d
       -0.0974043 -0.034776308 0.02385809 0.04229443
000320 1c 2d 75 3d e4 4b 92 3e c1 8d 31 be f6 f6 f4 3d
       0.059857473 0.28573525 -0.17339231 0.119611666
000330 dd a7 2e 3e 8f 46 f3 bd e7 6e 92 bc 71 0d fa 3c
       0.17056222 -0.11878692 -0.017875148 0.030523987
000340 02 6f 73 bd 8f d7 36 3d b0 e1 07 3e 15 75 b1 3c
       -0.059432037 0.044639166 0.13269687 0.021662274
000350 0c bf dd 3b 27 67 00 be b6 f4 e7 bc 97 cf 0c 3e
       0.0067671593 -0.1253935 -0.02831493 0.13751064
000360 c7 20 13 3e 1a 14 0b 3e bf dd 56 3e bf 80 1c bc
       0.14367972 0.13581887 0.20983027 -0.00955218
000370 90 ec cf 3c 05 72 19 bc 0b f4 a6 3c b6 e2 c0 bd
       0.025381356 -0.009365563 0.02038004 -0.09418242
000380 d2 a6 30 be c1 5c 4c 3c 30 98 0d 3c 24 d7 ce bb
       -0.17251137 0.012473286 0.008642241 -0.006312268
000390 66 eb 0c 3e 24 b0 e7 3d fb 16 d0 bd 3d f6 8a 3c
       0.13761672 0.11312893 -0.10160633 0.016963119
0003a0 46 55 2e 3e 4a 04 76 3d 14 bc 87 bc d6 61 e9 3d
       0.17024717 0.060062684 -0.016569175 0.11395614
0003b0 34 42 17 3e 32 52 c8 bd 60 34 b5 3d 53 d7 03 be
       0.14771348 -0.097813025 0.0884788 -0.12875108
0003c0 8b e5 e0 bd 0c fd a1 bd 26 13 1d bd c8 cb e1 3d
       -0.10981282 -0.07909593 -0.03834834 0.11025196
0003d0 49 51 ca bd 5a 6e 67 bd be 55 60 bd 42 9e 35 be
       -0.09878785 -0.056501724 -0.05476927 -0.17736152
0003e0 6b c3 3d 3d 49 4b 97 3c 93 0b 65 3e ae 66 e8 3d
       0.046328943 0.018468516 0.22367696 0.113477096
0003f0 c5 90 39 bd 2d 04 a9 bd b4 64 3c bd f5 56 83 bd
       -0.04530408 -0.082527496 -0.045994475 -0.0641307

seq.2.bias f4 [100]
000000 2e 64 e2 3c f3 74 23 3e ac af d9 3e 99 09 b7 3e
       0.02763566 0.15962581 0.4251684 0.3574951
000010 b9 40 ca be 14 a1 91 3d b9 ad 90 3d 01 7f 71 bf
       -0.39502504 0.07110801 0.07064385 -0.9433442
000020 2e 82 c2 3d d5 6a c1 bc 09 61 3c 3d 7e 38 13 bd
       0.09497486 -0.023610512 0.045990977 -0.035942547
000030 e3 04 46 bc 1e 1b 7e 3c e2 94 60 be ad 00 f4 bc
       -0.012086126 0.015509395 -0.21931794 -0.029785478
000040 51 d7 bc 3d ef a8 37 be 54 79 88 bd 88 fd ef be
       0.09220756 -0.17935537 -0.066637665 -0.46873116
000050 7a 8c 92 bd 52 c7 9f 3e 9a 1a 9e 3d b5 b5 97 bd
       -0.071557 0.31206757 0.077199176 -0.07407705
000060 c7 c5 1a 3e 80 a8 0b 3d 6f 1d 58 3c 5b 88 50 3b
       0.15114509 0.03409624 0.013190611 0.0031819555
000070 12 43 ee 3d a4 2c ef bc 48 13 99 3d b7 44 5e 3e
       0.116338864 -0.029196091 0.07474381 0.217059
000080 ef 45 07 be 6b 6e 39 3e b6 78 bb 3d 8c 8e e8 bd
       -0.13210271 0.18108527 0.09153883 -0.11355314
000090 28 25 a0 be cc 0b b7 bd df 6a 11 3e 8b e0 a3 bc
       -0.31278348 -0.08937797 0.14200924 -0.020004531
0000a0 12 41 a5 3d 0b 74 68 bf 0a 15 a1 3c 33 b8 c0 3c
       0.08069052 -0.9080207 0.019663353 0.023525333
0000b0 22 39 d0 be 77 7e d7 bd 1d 92 1b 3e 5a 7a 83 be
       -0.4066859 -0.10522168 0.15192457 -0.25679284
0000c0 40 c2 b1 3d 68 32 1c be 8c 16 c4 3d 46 ec 6a 3c
       0.08679628 -0.15253603 0.09574613 0.014338559
0000d0 71 12 14 be 62 5f e9 bb 9b fb 8c 3e 3c 5e 13 bd
       -0.1446016 -0.007121966 0.2753571 -0.03597854
0000e0 7b 2b 33 3e 90 57 93 bd 0c 2d db be d2 ce 0d be
       0.17497055 -0.071944356 -0.42807806 -0.13848427
0000f0 24 63 9e be 02 28 9b 3d d4 fb 98 bc d0 0c 85 3e
       -0.30935013 0.0757599 -0.018674769 0.25986338
000100 d6 b0 e1 bd 5b fa 90 3d 6e 8c 13 3d b7 55 b9 be
       -0.11020057 0.070790015 0.036022596 -0.36198208
000110 ef d3 61 bd 51 8e 88 3e d3 78 3e 3d 3d 37 23 3e
       -0.055133756 0.2667108 0.046501946 0.1593904
000120 0b 9e ca 3d 63 63 cc be b4 1c 26 3c e2 59 94 3d
       0.098934256 -0.39919576 0.010138679 0.07243706
000130 e8 cc b9 3c 78 61 b2 bd ba 42 2d be 88 62 17 be
       0.022680715 -0.08709997 -0.16919985 -0.1478368
000140 b4 e6 ee 3d f6 97 57 be c7 7d 27 be d5 1b 65 be
       0.11665097 -0.21054062 -0.16356574 -0.22373898
000150 22 cd 61 bd d3 64 ae 3d 41 a7 a8 3e 07 61 e7 3e
       -0.05512727 0.085153244 0.32940105 0.45191213
000160 c3 f2 c8 3c a4 a1 c8 3d ac 52 2a be fa c3 59 be
       0.02452982 0.097964555 -0.166331 -0.21266165
000170 02 e8 d7 bd 18 39 a6 3c 3b f1 4c 3d 9f d1 12 3d
       -0.10542299 0.020290896 0.050034743 0.03584444
000180 86 84 05 be f2 27 0e 3e 1f 95 26 3d db f1 74 3e
       -0.13038835 0.13882425 0.040669557 0.23920386

seq.4.weight f4 [2, 100]
000000 67 92 29 3e 06 94 90 bb a3 56 82 bf 64 d3 8d 3f
       0.16559754 -0.004412177 -1.018269 1.1080136
000010 83 39 b3 bf 86 88 12 be 75 21 9d 3d c1 73 2c 40
       -1.4001926 -0.14309892 0.07672397 2.694565
000020 fd f3 13 bd 9f e1 06 be 63 6d d0 3e 1b 19 28 3e
       -0.036121357 -0.13172005 0.40708455 0.16415827
000030 08 b4 7b bd ac 6c 60 be b3 40 65 3f 1b 71 08 be
       -0.061450988 -0.21916455 0.8955185 -0.13324396
000040 ad 7d 26 bf ee 7a b3 3e e9 cd 96 bd 1a 56 d1 3f
       -0.65035516 0.35054725 -0.07363493 1.6354401
000050 2d 68 fe bd 82 cf 5b bf 67 53 04 3e 02 ba 54 3e
       -0.12422214 -0.85863507 0.1292244 0.20774081
000060 e3 e7 70 3f 9d 76 6b be 73 5f 1f 3d cb df e1 bd
       0.9410383 -0.22994466 0.038909387 -0.11029013
000070 a4 30 06 bf a9 77 f6 3d 99 07 be be e4 ac cd be
       -0.5241797 0.12034542 -0.37115172 -0.40170968
000080 5c 51 4d bf a5 54 f8 3e 2a 08 c1 be f3 e1 64 3f
       -0.8020227 0.4850208 -0.3770154 0.8940727
000090 b3 33 ac 3f 62 1d ae be d1 88 0c 3f 8b 4a e4 bd
       1.3453277 -0.34006792 0.54896265 -0.111470304
0000a0 e0 0d 0b bf 06 a6 29 c0 85 9a 2c bf 9b c8 ee bd
       -0.54318047 -2.6507583 -0.6742328 -0.11659356
0000b0 63 94 91 3f c6 c1 f5 3e 01 63 8f bd a8 ab 65 bf
       1.1373409 0.479994 -0.07001305 -0.8971505
0000c0 ab 52 82 be 49 9c 1d bf 07 fc 22 be b7 0e 8a 3d
       -0.25453696 -0.615666 -0.15916453 0.06741088
0000d0 6d 96 8c 3f bc 6d 6b be 54 6d 45 bf 5f c2 30 be
       1.0983406 -0.22991079 -0.77119946 -0.17261647
0000e0 73 27 5c be d3 ef 4a 3f 7c 38 b5 bf f3 08 af 3e
       -0.21499424 0.7927219 -1.4157863 0.34186515
0000f0 3c b0 86 3f bb e2 19 be 01 87 f9 3b bb 18 0e be
       1.0522532 -0.15027897 0.0076149707 -0.13876621
000100 37 e6 91 bd 57 78 43 be 3d 45 13 3e 89 b0 cf bf
       -0.07123988 -0.19088875 0.14381881 -1.6225749
000110 7f b5 71 be 88 d9 dd 3e 26 8e 4c 3e 07 1f 55 be
       -0.23604392 0.43330026 0.199761 -0.20812617
000120 26 5a 31 be 17 5a 94 bf 4d 35 7a be a3 d7 ad 3e
       -0.17319545 -1.1589993 -0.24434395 0.3395358
000130 e3 b1 c7 3e 75 00 8f bb dd 8f 2b bf c5 df 1e 3f
       0.39002904 -0.004364068 -0.6701639 0.62060195
000140 f5 39 b8 be 9a a0 44 3f f8 f6 08 bf dd 0c 77 3f
       -0.35981718 0.7680756 -0.53501844 0.96504
000150 fb 6d 4e 3b 09 fd fa be ca 9c 25 bd ab 04 b6 3f
       0.003149866 -0.49021176 -0.04043273 1.4220175
000160 e0 16 a6 3d e3 c4 9d 3d 3e 54 2c 3f ad 20 80 3f
       0.08109832 0.07703569 0.67316043 1.0009972
000170 5e 55 ea 3e 03 af da be a2 6c d2 be 09 da fd 3d
       0.45768255 -0.42711648 -0.41098505 0.123951025
000180 0d 26 1f 3f f8 3f 0c 3f bf 56 d2 be 63 d0 38 bf
       0.62167436 0.5478511 -0.41081807 -0.7219297
000190 28 99 8b be 65 3c 90 be 66 12 98 be 5c 55 87 be
       -0.27265286 -0.28171077 -0.29701537 -0.26432312
0001a0 9a 3c 28 3d 3b b8 84 3e 2d cb 09 be 15 45 1e bd
       0.04107342 0.25921807 -0.13456412 -0.0386401
0001b0 f2 e2 82 3e f5 d1 2c 3c f0 3e 34 be c2 0d 57 3e
       0.2556377 0.0105481045 -0.17602134 0.21001342
0001c0 1e ca 96 3e 87 c6 7a 3d e8 cb df 3d b4 de 76 be
       0.29451078 0.061224487 0.10927564 -0.24108392
0001d0 0d e8 5c bd cb 75 30 3f e3 7b 4e bd d7 0a cd bc
       -0.05393224 0.6892974 -0.050411116 -0.025029583
0001e0 54 63 2a bb 4b bf 6d be d8 be d6 be c0 0c d1 3d
       -0.0025999146 -0.23217504 -0.41942477 0.1020751
0001f0 63 b2 e3 3d f7 0f 49 3d ff 80 ac bd d2 03 69 3e
       0.11118009 0.04908749 -0.084230416 0.22755364
000200 c8 ae 23 3e 96 2e 9c bd 9a d3 5c be f6 71 c5 be
       0.15984643 -0.07626073 -0.21565095 -0.38563508
000210 1b 2a c5 3d fe 8a 53 3e ff 25 26 be 28 38 3b bd
       0.096271716 0.2065849 -0.16225432 -0.04570785
000220 3b d1 e8 3d 33 7b 87 be 2c 01 df 3e c8 75 55 3e
       0.113680325 -0.2646118 0.43555582 0.20845711
000230 56 43 85 bd ea 40 92 3d 37 eb ce bd 89 ec 49 be
       -0.06506984 0.071412876 -0.101034574 -0.19719137
000240 f6 62 2e 3c c1 e5 21 be 83 7e ab be 19 21 7b be
       0.010643711 -0.158103 -0.33494958 -0.24524345
000250 e2 41 02 3e 02 d2 90 3d 53 e4 85 be 6b 3c b8 be
       0.12720445 0.07071306 -0.2615076 -0.35983595
000260 4a fb 77 3d ee 63 17 be 20 f7 91 bd 66 7e 60 3b
       0.060542382 -0.14784214 -0.071272135 0.0034255027
000270 99 6b cb 3e 4a fa 9c bd 1c 78 30 3a a8 74 0d 3f
       0.39730528 -0.07664926 0.0006731765 0.5525613
000280 ee 1d 4e 3d 3f a3 c2 3e 4a 14 c2 3d 69 50 75 bf
       0.050321512 0.38015172 0.09476526 -0.9582582
000290 01 b1 8b 3e ec a2 8e bd 98 4a aa 3e 2e f1 4b bd
       0.2728348 -0.06964669 0.33260036 -0.049790554
0002a0 2f 46 03 bd b9 93 30 bf ff 9b 29 be 31 4d a3 3e
       -0.032049354 -0.68975407 -0.16563414 0.3189483
0002b0 c9 98 db bd 30 0d 9b bd 11 0c 70 3e 01 78 21 be
       -0.10722501 -0.07570875 0.23442103 -0.15768434
0002c0 80 98 39 be 3f df 6e 3e 91 83 81 3d c6 16 26 3e
       -0.1812458 0.23327349 0.063239224 0.16219625
0002d0 1e 17 bb be a7 ad a8 3d 2d 70 37 3d e4 08 c4 3c
       -0.36541075 0.082362466 0.044784714 0.02393002
0002e0 7d 81 23 3e 94 b5 03 bd c2 24 90 3f 43 66 5a 3e
       0.15967365 -0.03215559 1.1261218 0.21328072
0002f0 84 c3 b9 3e d4 b7 e8 be 1a 27 53 bd 14 d0 af 3d
       0.3628198 -0.4545275 -0.051550962 0.0858461
000300 6a ce b0 3c ad 21 a9 bd 9e e9 c5 3d a8 3d a7 be
       0.0215828 -0.08258376 0.096636996 -0.32664227
000310 3e 3f dc bc be 3b 7b 3d 6c 5a a2 3d de f4 29 3e
       -0.026885625 0.06133627 0.07927403 0.16597316

seq.4.bias f4 [2]
000000 35 bb 1c be 19 f8 9e 3d
       -0.15305789 0.077621646
