benchmarks/models/nn_5_tanh/model.pt (torch, 85307 bytes, 7 tensors)

seq.0.weight f4 [100, 3]
0	0xbcc5fa39	-0.024167167
1	0x3d5a777c	0.053336605
2	0x3d842443	0.06452229
3	0x3cbbe3c9	0.022935765
4	0xbd4f77c2	-0.05065132
5	0xbd7b7464	-0.061390296
6	0x3c9206c2	0.017825488
7	0xbd20a880	-0.039223194
8	0xbd435317	-0.047686663
9	0x3ca89010	0.020576507
10	0xbd39e754	-0.045386627
11	0xbd619b78	-0.055079907
12	0x3ca8e3c6	0.020616423
13	0xbd3a1cbd	-0.045437563
14	0xbd62537e	-0.055255406
15	0xbcf2bf8b	-0.02963235
16	0x3d869e3a	0.06573148
17	0x3da2c35b	0.07947417
18	0x3ce025e2	0.027361814
19	0xbd76b1b3	-0.06022806
20	0xbd96ad3b	-0.0735726
21	0xbc97a5f5	-0.018511752
22	0x3d26c370	0.040713727
23	0x3d4a36f5	0.049368817
24	0x3cf81754	0.030284561
25	0xbd89a6c3	-0.067212604
26	0xbda6f107	-0.08151441
27	0xbc751754	-0.014959175
28	0x3d0558b8	0.032555312
29	0x3d220544	0.039555803
30	0xbcf4df89	-0.029891746
31	0x3d86ab9b	0.065757
32	0x3da57eb4	0.08080807
33	0x3d030ea5	0.031996388
34	0xbd90e1c1	-0.07074309
35	0xbdb08a75	-0.086201586
36	0xbcf53a25	-0.029934952
37	0x3d876e3f	0.06612825
38	0x3da54fe4	0.080718786
39	0xbca37bf5	-0.019956568
40	0x3d33a049	0.04385403
41	0x3d5935c0	0.053029776
42	0xbcf6f0bc	-0.030144088
43	0x3d885cdd	0.06658337
44	0x3da5bd44	0.0809274
45	0xbce8a4db	-0.028398922
46	0x3d808666	0.062756345
47	0x3d9ac344	0.07556775
48	0xbcd6d527	-0.026224686
49	0x3d6c3a99	0.05767307
50	0x3d907fab	0.07055601
51	0xbcf79a90	-0.030225068
52	0x3d88a5ac	0.066722244
53	0x3da72c68	0.08162767
54	0xbd00dcd0	-0.031460583
55	0x3d8db063	0.06918409
56	0x3dad5056	0.084625885
57	0x3c1c6421	0.009545357
58	0xbcabaab5	-0.020955423
59	0xbcd09838	-0.025463209
60	0x3c1b9304	0.0094955005
61	0xbcac8da9	-0.021063643
62	0xbcd0faba	-0.02551018
63	0x3cb57dfd	0.022154802
64	0xbd47061c	-0.04858981
65	0xbd71d304	-0.05903913
66	0xbcc19dd5	-0.02363483
67	0x3d55b4d8	0.05217442
68	0x3d81ac46	0.06331687
69	0x3cb94a01	0.022618296
70	0xbd4bf58b	-0.049794715
71	0xbd78a4e1	-0.060704116
72	0xbc9f2204	-0.0194254
73	0x3d2ef688	0.04271558
74	0x3d53b4c7	0.051686075
75	0x3caa76c4	0.020808585
76	0xbd3bed5a	-0.045880653
77	0xbd643e1f	-0.055723306
78	0xbc934a85	-0.01797987
79	0x3d220b58	0.0395616
80	0x3d44fa1d	0.04809009
81	0xbcd40908	-0.025883213
82	0x3d6abc29	0.05730835
83	0x3d8d021e	0.068851694
84	0x3cfc825a	0.030823875
85	0xbd8b16cc	-0.067914575
86	0xbdaa32e4	-0.08310488
87	0x3cc282eb	0.023744067
88	0xbd563b2d	-0.05230253
89	0xbd82718b	-0.06369313
90	0xbc2ab363	-0.010418746
91	0x3cbc79b7	0.023007257
92	0x3ce5380d	0.027980829
93	0xbcc85619	-0.024455117
94	0x3d5d347e	0.05400514
95	0x3d85c9be	0.0653262
96	0x3cdd3dca	0.027007002
97	0xbd73dad9	-0.05953488
98	0xbd9287b2	-0.07154788
99	0xbce9c89b	-0.028538039
100	0x3d800813	0.0625154
101	0x3d9c8c60	0.07643962
102	0x3c90b0e6	0.017662477
103	0xbd1f7907	-0.03893378
104	0xbd41d86d	-0.04732554
105	0xbc99ce84	-0.018775232
106	0x3d287bd2	0.04113371
107	0x3d4d89e0	0.050180316
108	0xbc58fcd5	-0.013243874
109	0x3cef1c26	0.029188227
110	0x3d11731e	0.035510175
111	0xbd0bd86d	-0.034141947
112	0x3d9b0211	0.075687535
113	0x3dbc64ba	0.091988996
114	0x3cdafde6	0.026732396
115	0xbd70fd28	-0.05883518
116	0xbd913a3e	-0.07091187
117	0xbd0512f6	-0.032488786
118	0x3d919e40	0.07110262
119	0x3db27597	0.08713835
120	0xbca8b3ba	-0.020593513
121	0x3d387de8	0.04504195
122	0x3d5fb9cb	0.054620545
123	0xbcbd6dc9	-0.023123639
124	0x3d4e9abe	0.050440542
125	0x3d7b5b22	0.061366208
126	0xbcf0d600	-0.029398918
127	0x3d843b1d	0.064565875
128	0x3da26701	0.07929803
129	0x3cb08a60	0.021550357
130	0xbd416ac4	-0.04722096
131	0xbd6a4606	-0.057195686
132	0x3cf3f82e	0.029781427
133	0xbd870ffc	-0.06594846
134	0xbda339e0	-0.07970023
135	0x3cb4d3a2	0.02207357
136	0xbd478d1c	-0.048718557
137	0xbd721045	-0.059097547
138	0x3c9d9c2d	0.01923951
139	0xbd2dbb5f	-0.04241502
140	0xbd5312da	-0.05153165
141	0xbbf2e6ee	-0.007412783
142	0x3c85d861	0.016338529
143	0x3ca2e308	0.019883648
144	0xbcce7543	-0.0252024
145	0x3d62e3ac	0.055392906
146	0x3d8aa5f0	0.06769931
147	0x3c65f744	0.0140360035
148	0xbcfbe5c5	-0.030749211
149	0xbd18f0c8	-0.037339002
150	0x3cd41783	0.025890118
151	0xbd6adbda	-0.057338573
152	0xbd8e1358	-0.06937283
153	0xbcd527cb	-0.026019951
154	0x3d6a0e6d	0.057142664
155	0x3d8e890e	0.06959735
156	0xbcb3f5ef	-0.021967856
157	0x3d45204c	0.048126504
158	0x3d6fbadd	0.058527816
159	0xbcbbf3e5	-0.022943446
160	0x3d4f849e	0.050663583
161	0x3d7a3eb9	0.061094973
162	0x3ccf4fcb	0.025306603
163	0xbd64277e	-0.055701725
164	0xbd8b659d	-0.068064906
165	0x3ccf5396	0.025308412
166	0xbd659e88	-0.05605939
167	0xbd8a8701	-0.06764031
168	0x3cf6646f	0.030077187
169	0xbd87bcdf	-0.06627821
170	0xbda62105	-0.08111767
171	0xbcbb2974	-0.022846915
172	0x3d4d8bb0	0.050182045
173	0x3d7a1c62	0.061062224
174	0x3cd72bad	0.026265943
175	0xbd6bed6a	-0.057599463
176	0xbd9038eb	-0.07042106
177	0x3cc4a6a3	0.02400524
178	0xbd592c53	-0.053020786
179	0xbd837a28	-0.06419784
180	0xbcc8c3a3	-0.02450735
181	0x3d5a7751	0.053336445
182	0x3d857aba	0.06517549
183	0x3ccc1a0a	0.02491476
184	0xbd60d2b0	-0.054888427
185	0xbd88da9c	-0.066823214
186	0x3bd69200	0.0065481663
187	0xbc6d76d1	-0.01449366
188	0xbc9109ab	-0.017704805
189	0xbcbf8acb	-0.023381611
190	0x3d51db59	0.051234577
191	0x3d7f7930	0.062371433
192	0x3cd929dd	0.02650922
193	0xbd6cb93f	-0.057793852
194	0xbd909217	-0.070591144
195	0xbc51fb4a	-0.01281626
196	0x3ce7a3e7	0.028276397
197	0x3d0ca3a0	0.034335732
198	0xbcc04259	-0.023469137
199	0x3d527b3c	0.051387057
200	0x3d7ee2b1	0.06222791
201	0xbcc25b57	-0.023725195
202	0x3d54b036	0.05192586
203	0x3d818a0f	0.06325161
204	0x3cda6469	0.026659207
205	0xbd702cf6	-0.058636628
206	0xbd92e5a8	-0.0717271
207	0x3ccab152	0.024742756
208	0xbd5f9476	-0.054584943
209	0xbd881809	-0.06645209
210	0xbc623a13	-0.013807791
211	0x3cf99fa8	0.030471638
212	0x3d17b420	0.037037015
213	0x3ca847da	0.020542074
214	0xbd375091	-0.04475457
215	0xbd5e8b24	-0.054331914
216	0x3cb0e465	0.021593282
217	0xbd42dbce	-0.047572903
218	0xbd6d05d5	-0.05786689
219	0xbcea4ffc	-0.028602593
220	0x3d80d478	0.06290525
221	0x3d9d4bae	0.076804504
222	0xbcf6840f	-0.030092267
223	0x3d868cb9	0.065698095
224	0x3da53b9b	0.080680095
225	0xbce2dcb0	-0.027693123
226	0x3d7a394c	0.0610898
227	0x3d9766f6	0.07392685
228	0x3d05b71f	0.03264534
229	0xbd9307c5	-0.07179216
230	0xbdb2d4c8	-0.08731991
231	0xbc533801	-0.01289177
232	0x3ce97a8b	0.028500816
233	0x3d0daae7	0.034586813
234	0x3c9cf28a	0.01915862
235	0xbd2d0d5a	-0.04224906
236	0xbd525b0f	-0.05135637
237	0xbc8648c5	-0.016392121
238	0x3d139f4b	0.036040585
239	0x3d32f210	0.04368788
240	0x3ccaa3be	0.024736281
241	0xbd5ce13e	-0.053925745
242	0xbd86a454	-0.06574312
243	0xbccd4b86	-0.025060426
244	0x3d6360bf	0.055512186
245	0x3d891b67	0.0669468
246	0xbcf1fd05	-0.029539594
247	0x3d8592e7	0.0652216
248	0x3da1fa16	0.07909028
249	0xbcaa6a32	-0.020802591
250	0x3d3ad872	0.045616575
251	0x3d62bb23	0.05535425
252	0x3ce8a425	0.028398583
253	0xbd7f41b0	-0.062318504
254	0xbd9c8600	-0.07642746
255	0x3cc0ad63	0.023520177

seq.0.bias f4 [100]
0	0x3b6a9695	0.003579532
1	0xbb5ec785	-0.0033993435
2	0xbb248336	-0.0025102622
3	0xbb435fc2	-0.0029811715
4	0xbb4346e2	-0.0029796888
5	0x3b9377de	0.0045003733
6	0xbb867480	-0.0041032434
7	0x3b2c0656	0.0026248894
8	0xbb96ea03	-0.004605533
9	0x3b070200	0.0020600557
10	0x3b941b7a	0.004519877
11	0xbb9f0493	-0.00485284
12	0x3b94195b	0.004519624
13	0x3b4328e3	0.002977901
14	0x3b9560df	0.004558667
15	0x3b8dccf1	0.0043274094
16	0x3b80ed49	0.0039345366
17	0x3b95c2ea	0.0045703547
18	0x3b9b6652	0.004742422
19	0xbab69e35	-0.0013932647
20	0xbab23f4b	-0.0013599185
21	0xbb57a052	-0.0032901955
22	0x3b65310f	0.0034971868
23	0xbb5b3374	-0.0033447416
24	0x3b3727c5	0.0027947288
25	0xbb45ffcc	-0.0030212281
26	0x3b26a398	0.00254271
27	0x3b81a440	0.0039563477
28	0xbb986495	-0.004650662
29	0xbb63f7fe	-0.0034785266
30	0x3ac0c5cd	0.0014707387
31	0x3b6e2113	0.0036335632
32	0xbb8715d8	-0.004122477
33	0x3b8c1c08	0.0042758025
34	0xbb23e5f9	-0.00250089
35	0x3b35db91	0.002774928
36	0x3aee81d5	0.0018196652
37	0x3baa1b34	0.005191231
38	0xbb84b7c6	-0.004050228
39	0x3ba02446	0.0048871366
40	0x3b494fcb	0.0030717726
41	0x3b630202	0.0034638648
42	0x3b9155c7	0.0044352743
43	0xbb53e275	-0.0032331024
44	0xbb9408b9	-0.0045176414
45	0xbb53e6a0	-0.0032333508
46	0xbb34b457	-0.0027573311
47	0x3a9e2509	0.0012065481
48	0x3b76d4ea	0.0037663528
49	0xbafa74e5	-0.0019108324
50	0xbb7e6af9	-0.0038821085
51	0x3b7dce53	0.0038727715
52	0x3b56aa8c	0.0032755462
53	0x3b63c680	0.0034755766
54	0xbb7809b1	-0.0037847573
55	0xbb7ba896	-0.0038400046
56	0xbb94aad0	-0.004536964
57	0x3b5c9c4c	0.0033662496
58	0xbb8103be	-0.0039372137
59	0xbb695cc9	-0.0035608283
60	0x3b6d001d	0.0036163398
61	0xbb7106bb	-0.0036777693
62	0xba964016	-0.0011463191
63	0x3b5f910d	0.0034113557
64	0xbb8255b5	-0.003977502
65	0x3aeaa4b8	0.0017901873
66	0x3b679a07	0.003533961
67	0x3b684991	0.003544424
68	0xbb82b3ab	-0.0039887032
69	0xbb6f2a2e	-0.0036493647
70	0x3afb2c8a	0.0019163054
71	0xbb41658d	-0.0029509992
72	0xbb4d481e	-0.0031323503
73	0x3b8be226	0.0042689024
74	0x3b941a3b	0.0045197285
75	0x3b88a49c	0.0041700136
76	0xbba17a91	-0.004927941
77	0x3aea8bf6	0.0017894495
78	0xbb33a1f8	-0.0027409773
79	0x3b122dab	0.0022305052
80	0xbb734349	-0.0037118963
81	0x3b79b1fc	0.0038100472
82	0x3b91ec75	0.0044532367
83	0x3b4c1893	0.0031142577
84	0xbb8bcb96	-0.0042662127
85	0xbb69bc65	-0.003566527
86	0xbb8c3676	-0.004278953
87	0x3b0ba24a	0.0021306449
88	0x3b3cc6a4	0.0028804922
89	0x3b1a3c49	0.0023534468
90	0x3b6c92ce	0.0036098245
91	0x3b4b4f96	0.0031022779
92	0x3b35d9f6	0.0027748323
93	0x3ac0d26b	0.0014711147
94	0xbadb6199	-0.001673746
95	0x3b91e747	0.0044526192
96	0xbb754472	-0.003742483
97	0x3b938f37	0.0045031565
98	0xbb802411	-0.0039105495
99	0x3b0ee8ab	0.0021806161

seq.2.weight f4 [100, 100]
0	0x3b56a255	0.0032750566
1	0xbb4cf890	-0.0031276084
2	0xbb1e269c	-0.00241319
3	0xbb36e03e	-0.0027904655
4	0xbb37df43	-0.0028056658
5	0x3b83fdca	0.0040280567
6	0xbb7441fb	-0.0037270773
7	0x3b251fb5	0.00251959
8	0xbb878a48	-0.0041363575
9	0x3b043475	0.0020172868
10	0x3b855c06	0.004069808
11	0xbb8eafee	-0.0043544685
12	0x3b85dac4	0.004084917
13	0x3b2fe23b	0.0026837725
14	0x3b8629fb	0.00409436
15	0x3b7d1d02	0.0038622026
16	0x3b6a448e	0.0035746428
17	0x3b86eb52	0.004117408
18	0x3b8ca06b	0.0042915842
19	0xbaa9c9ee	-0.0012953856
20	0xbaa74a77	-0.0012763281
21	0xbb45477b	-0.003010242
22	0x3b53034c	0.003219801
23	0xbb49f6dd	-0.0030817308
24	0x3b2caca8	0.0026348028
25	0xbb385674	-0.0028127702
26	0x3b1db273	0.0024062663
27	0x3b654e2a	0.0034989216
28	0xbb89b89d	-0.004202916
29	0xbb52ef95	-0.003218626
30	0x3aba6f50	0.0014223848
31	0x3b594988	0.00331554
32	0xbb6f6234	-0.003652704
33	0x3b7e5867	0.0038810016
34	0xbb1bdf70	-0.0023784302
35	0x3b257263	0.0025245182
36	0x3aeb2611	0.0017940422
37	0x3b992cf5	0.0046745487
38	0xbb6ce882	-0.0036149328
39	0x3b905c7c	0.0044055562
40	0x3b36bc67	0.0027883293
41	0x3b4ba743	0.0031075038
42	0x3b82eda4	0.003995614
43	0xbb3e3b4d	-0.0029027045
44	0xbb847868	-0.004042674
45	0xbb457886	-0.0030131652
46	0xbb2b2243	-0.002611295
47	0x3a7cca40	0.00096431747
48	0x3b60195b	0.00341948
49	0xbaf8f3f3	-0.0018993601
50	0xbb66932b	-0.0035182934
51	0x3b66a6c1	0.0035194608
52	0x3b41fa7e	0.0029598768
53	0x3b4b3465	0.0031006571
54	0xbb611690	-0.0034345724
55	0xbb6120c8	-0.0034351815
56	0xbb86c992	-0.0041133845
57	0x3b4ba3bc	0.0031072935
58	0xbb691bbb	-0.0035569507
59	0xbb551a7c	-0.0032517007
60	0x3b57ebe3	0.0032946996
61	0xbb5d4a2a	-0.003376613
62	0xba6ba285	-0.0008988756
63	0x3b5007df	0.0031742973
64	0xbb6a5a95	-0.0035759558
65	0x3adf8630	0.0017053541
66	0x3b4f994f	0.0031677072
67	0x3b52df13	0.003217642
68	0xbb6d12a9	-0.0036174452
69	0xbb5d16a0	-0.003373541
70	0x3af74488	0.0018865028
71	0xbb33b125	-0.0027418819
72	0xbb3fa7e8	-0.0029244367
73	0x3b7e1769	0.0038771278
74	0x3b854025	0.0040664845
75	0x3b771e73	0.0037707358
76	0xbb90aec5	-0.0044153654
77	0x3ae70422	0.0017625133
78	0xbb290964	-0.002579295
79	0x3b122a93	0.0022303208
80	0xbb5a1322	-0.0033275564
81	0x3b601726	0.0034193485
82	0x3b83969c	0.004015757
83	0x3b38b18e	0.0028182003
84	0xbb7e427d	-0.0038796954
85	0xbb505fd9	-0.003179541
86	0xbb7e3933	-0.0038791418
87	0x3b0a5f30	0.0021113865
88	0x3b328561	0.0027240145
89	0x3b1363ab	0.0022489827
90	0x3b5a5968	0.003331745
91	0x3b3f9a2f	0.0029236188
92	0x3b2a952f	0.0026028862
93	0x3ab76cfb	0.0013994271
94	0xbad7eb59	-0.0016473337
95	0x3b81f8c1	0.0039664214
96	0xbb6229dc	-0.0034509813
97	0x3b8595a4	0.0040766764
98	0xbb6508ed	-0.0034947947
99	0x3b0ad9ea	0.0021187016
100	0x3b54badd	0.0032460012
101	0xbb4bac10	-0.00310779
102	0xbb1dfd41	-0.002410725
103	0xbb36c0ae	-0.0027885842
104	0xbb352cf6	-0.0027645207
105	0x3b830f38	0.003999617
106	0xbb71bbef	-0.0036885699
107	0x3b221ff7	0.002473829
108	0xbb869828	-0.004107494
109	0x3b02f683	0.0019983358
110	0x3b846820	0.004040733
111	0xbb8daebd	-0.004323809
112	0x3b84f12c	0.0040570702
113	0x3b2e8e18	0.0026634987
114	0x3b85b203	0.0040800585
115	0x3b7a3ee8	0.0038184468
116	0x3b68a507	0.0035498755
117	0x3b85f72e	0.004088304
118	0x3b8b9c3b	0.0042605675
119	0xbaa6b009	-0.0012717257
120	0xbaa93406	-0.0012909181
121	0xbb43b804	-0.002986432
122	0x3b51ad1a	0.0031994046
123	0xbb479e3e	-0.003045931
124	0x3b2abb08	0.002605142
125	0xbb36d32b	-0.0027896862
126	0x3b1f2b80	0.0024287403
127	0x3b653125	0.003497192
128	0xbb886164	-0.0041620005
129	0xbb52673c	-0.003210499
130	0x3ab953d8	0.0014139367
131	0x3b580f96	0.0032968274
132	0xbb6e1e90	-0.0036334135
133	0x3b7b1378	0.0038311165
134	0xbb1cae88	-0.002390774
135	0x3b24289f	0.0025048626
136	0x3ae89cf2	0.0017746969
137	0x3b9742a2	0.0046160975
138	0xbb6a893f	-0.0035787371
139	0x3b8ef11b	0.004362238
140	0x3b33efe8	0.0027456228
141	0x3b4baac3	0.0031077124
142	0x3b8200aa	0.0039673643
143	0xbb3cac9c	-0.0028789407
144	0xbb83d9dd	-0.004023774
145	0xbb425a84	-0.0029656002
146	0xbb2a9a29	-0.0026031828
147	0x3a8382b5	0.001003346
148	0x3b5e8c1d	0.0033958026
149	0xbaf14579	-0.0018407545
150	0xbb658538	-0.0035022032
151	0x3b6539a6	0.0034976988
152	0x3b4116b3	0.0029462993
153	0x3b49c718	0.0030788835
154	0xbb5f8a45	-0.0034109515
155	0xbb5f43c6	-0.0034067496
156	0xbb857fb5	-0.0040740618
157	0x3b490e62	0.003067874
158	0xbb6856ef	-0.0035452207
159	0xbb550fc8	-0.0032510627
160	0x3b57556a	0.0032857307
161	0xbb5bbc94	-0.003352915
162	0xba627f86	-0.00086402183
163	0x3b4e70f3	0.0031500428
164	0xbb684488	-0.0035441238
165	0x3ae3edb1	0.0017389563
166	0x3b4d9c1e	0.003137357
167	0x3b511327	0.0031902285
168	0xbb6b6627	-0.0035919042
169	0xbb5a7ccb	-0.0033338543
170	0x3af5a0f0	0.001873998
171	0xbb33ac63	-0.0027415983
172	0xbb3fca92	-0.0029265028
173	0x3b7cede8	0.0038593952
174	0x3b84c286	0.0040515093
175	0x3b73c1b9	0.0037194325
176	0xbb9002ac	-0.0043948498
177	0x3ae55176	0.0017495591
178	0xbb29fe3d	-0.0025938891
179	0x3b0e208b	0.0021686878
180	0xbb593a56	-0.0033146343
181	0x3b5d1323	0.003373333
182	0x3b82f0dc	0.003995998
183	0x3b369285	0.0027858329
184	0xbb7bd240	-0.003842488
185	0xbb506378	-0.003179757
186	0xbb7b8edb	-0.003838471
187	0x3b09e8fd	0.0021043413
188	0x3b2f2ac6	0.0026728376
189	0x3b155339	0.00227852
190	0x3b597252	0.0033179712
191	0x3b3d1bae	0.002885561
192	0x3b2a0fd7	0.0025949383
193	0x3abc2829	0.001435523
194	0xbad66825	-0.0016357942
195	0x3b8195e6	0.003954637
196	0xbb5fa9b9	-0.0034128262
197	0x3b8450a5	0.004037934
198	0xbb646ca9	-0.0034854806
199	0x3b074588	0.002064081
200	0xbb50ef31	-0.003188085
201	0x3b45ec6e	0.0030200738
202	0x3b19f64c	0.0023492752
203	0x3b31aa7d	0.0027109676
204	0x3b30eda2	0.002699711
205	0xbb802714	-0.0039109085
206	0x3b6dc2cc	0.0036279438
207	0xbb203b01	-0.0024449232
208	0x3b83c4af	0.0040212492
209	0xbb006318	-0.0019590314
210	0xbb822a31	-0.0039723148
211	0x3b8b3f4a	0.004249488
212	0xbb81a7a9	-0.003956754
213	0xbb2bef54	-0.002623518
214	0xbb8248a6	-0.0039759455
215	0xbb7530d0	-0.0037413128
216	0xbb636bdb	-0.0034701738
217	0xbb83b71e	-0.004019632
218	0xbb87d8f8	-0.0041457377
219	0x3aa4d08f	0.0012574362
220	0x3aa54528	0.0012609111
221	0x3b3f77cc	0.0029215692
222	0xbb4bf2d0	-0.003112007
223	0x3b42fdb0	0.002975326
224	0xbb26cff0	-0.002545353
225	0x3b34c38c	0.0027582375
226	0xbb1bce62	-0.0023774137
227	0xbb5fe6a3	-0.003416457
228	0x3b855f2c	0.0040701833
229	0x3b4d7e99	0.0031355976
230	0xbaaf467b	-0.0013372445
231	0xbb542578	-0.0032370966
232	0x3b67d4f4	0.0035374733
233	0xbb757b16	-0.0037457398
234	0x3b18a3f3	0.002329108
235	0xbb2158ae	-0.0024619508
236	0xbadfab80	-0.0017064661
237	0xbb94886d	-0.004532865
238	0x3b65f132	0.003508639
239	0xbb8c96ab	-0.004290422
240	0xbb30f6f3	-0.0027002662
241	0xbb46b420	-0.0030319765
242	0xbb7e4619	-0.0038799106
243	0x3b386f9a	0.0028142692
244	0x3b809156	0.0039235754
245	0x3b3f3081	0.0029173198
246	0x3b269c3d	0.0025422715
247	0xba74ca37	-0.00093379937
248	0xbb59c310	-0.0033227839
249	0x3af1919d	0.0018430237
250	0x3b5ff5d5	0.0034173627
251	0xbb6168f1	-0.0034394825
252	0xbb3d5521	-0.0028889852
253	0xbb46a405	-0.0030310166
254	0x3b5bd5e2	0.0033544232
255	0x3b5ba0ca	0.0033512586

seq.2.bias f4 [100]
0	0xb6fd2cb8	-7.5451935e-06
1	0xb5b4a100	-1.3457902e-06
2	0xb6386320	-2.7475835e-06
3	0x3751ac74	1.2497523e-05
4	0xb7a1257e	-1.9210154e-05
5	0x38d38d02	0.00010087529
6	0x38ec258c	0.000112603506
7	0xb5e690d0	-1.7178481e-06
8	0x36231098	2.4298552e-06
9	0x37612218	1.3418983e-05
10	0x373dfca8	1.1324104e-05
11	0x3740df5c	1.1496097e-05
12	0x373fd2fa	1.1433609e-05
13	0x354cd760	7.6309334e-07
14	0x3699f0d0	4.5877896e-06
15	0xb6ee9cd4	-7.11121e-06
16	0x37682870	1.3837693e-05
17	0x37564ce8	1.27733e-05
18	0x36b55664	5.4042775e-06
19	0xb670b080	-3.5865523e-06
20	0x375b0d08	1.3056451e-05
21	0x372ee9cc	1.0425643e-05
22	0x355f7e40	8.325769e-07
23	0x3783189b	1.5627875e-05
24	0x376e794c	1.4214147e-05
25	0xb742b5fc	-1.1605673e-05
26	0x3744c6cc	1.1728796e-05
27	0xb6321540	-2.6536436e-06
28	0xb74693f0	-1.1836164e-05
29	0xb60accf0	-2.0682892e-06
30	0x369ba244	4.63825e-06
31	0xb52dc200	-6.472983e-07
32	0x36b5f61c	5.4228713e-06
33	0xb68da548	-4.2213687e-06
34	0x3694fa00	4.4398475e-06
35	0xb6d6bf18	-6.3999432e-06
36	0x37198ef4	9.1527945e-06
37	0xb7262fb4	-9.905478e-06
38	0xb79c518a	-1.8634619e-05
39	0x37ea606e	2.7939877e-05
40	0x3819f20e	3.6703474e-05
41	0x36ff8f84	7.6162996e-06
42	0x378e174e	1.6938571e-05
43	0x374f0c2a	1.2340994e-05
44	0x33f30000	1.1315569e-07
45	0xb6378df0	-2.7351743e-06
46	0xb781a519	-1.5454878e-05
47	0xb6758fc8	-3.6591537e-06
48	0xb6dd0c28	-6.5877284e-06
49	0xb75a4abc	-1.3011213e-05
50	0xb670a5e8	-3.5859357e-06
51	0xb6b9e0f8	-5.5396195e-06
52	0x37b90935	2.2058006e-05
53	0xb7307acc	-1.0519008e-05
54	0xb70f0162	-8.523786e-06
55	0x378be52d	1.667681e-05
56	0xb74819dc	-1.192695e-05
57	0x361700c0	2.250119e-06
58	0x37c89480	2.3911009e-05
59	0x380f1449	3.411275e-05
60	0x35ac01c0	1.2815508e-06
61	0x37baeca4	2.2283122e-05
62	0x370a82a2	8.255856e-06
63	0xb64c5568	-3.0448082e-06
64	0x3760d62e	1.3401308e-05
65	0x362c7546	2.569826e-06
66	0xb7036b6c	-7.83322e-06
67	0xb6f4f688	-7.3004667e-06
68	0xb415d900	-1.395565e-07
69	0xb50dd6e0	-5.283928e-07
70	0xb6475298	-2.9701387e-06
71	0xb72d3c6e	-1.0325673e-05
72	0x37a3bad6	1.9518116e-05
73	0xb74270a0	-1.1589524e-05
74	0x367bcb50	3.7520258e-06
75	0x368374d8	3.9177066e-06
76	0xb8047ac6	-3.1585594e-05
77	0x371798ca	9.035875e-06
78	0x3772bbaa	1.4468018e-05
79	0x370b3ef2	8.299701e-06
80	0xb793473c	-1.7556937e-05
81	0xb407ec80	-1.2658893e-07
82	0x382b2cfa	4.0811465e-05
83	0x37a35044	1.946849e-05
84	0xb7815b23	-1.5420437e-05
85	0x36233b58	2.4323435e-06
86	0xb75d0c50	-1.3175493e-05
87	0x36805f48	3.8257895e-06
88	0xb614ab18	-2.2153308e-06
89	0xb6e83494	-6.9202597e-06
90	0xb6b616e8	-5.4266893e-06
91	0xb6e09978	-6.6935863e-06
92	0xb8a5934c	-7.895249e-05
93	0x36c37f48	5.8262704e-06
94	0xb5a1a8d0	-1.2044566e-06
95	0x373e1c3c	1.1331456e-05
96	0xb73a526a	-1.1105652e-05
97	0x37412972	1.1513346e-05
98	0xb6e95bb8	-6.9546186e-06
99	0x37035eee	7.830311e-06

seq.4.weight f4 [100, 100]
0	0xbba19e60	-0.00493221
1	0xbba07f36	-0.004897977
2	0x3b9cee6b	0.004789164
3	0x3ba3fb9e	0.0050043603
4	0xbb96a657	-0.004597466
5	0x3b1a9e79	0.0023592992
6	0x3b45932b	0.0030147533
7	0x3ba053af	0.0048927884
8	0xbb9de035	-0.0048179873
9	0x3ba26ca4	0.0049567986
10	0x3b9caf6e	0.004781655
11	0x3ba4bd33	0.005027437
12	0x3ba4a68c	0.0050247367
13	0xbb9eda8f	-0.0048478316
14	0x3ba2927b	0.0049613095
15	0xbba3929e	-0.0049918434
16	0x3ba6f87f	0.005095541
17	0x3b94dfb8	0.004543271
18	0x3ba32ac5	0.0049794638
19	0xbba25778	-0.0049542747
20	0x3ba39f80	0.004993379
21	0x3ba5d10f	0.005060322
22	0x3b9bbf4a	0.004753028
23	0x3ba3d72c	0.0050000157
24	0x3ba334cc	0.004980659
25	0xbb9c10a9	-0.0047627282
26	0x3ba2f2ee	0.004972807
27	0xbb3f3d23	-0.0029180727
28	0xbba24d38	-0.004953053
29	0x3b9f8b52	0.004868903
30	0x3ba2a327	0.004963297
31	0x3b9aaf4f	0.0047206054
32	0x3ba0c93a	0.0049068006
33	0xbba01d99	-0.004886341
34	0xbb9caaf3	-0.004781121
35	0xbba040eb	-0.0048905513
36	0x3ba369c0	0.0049869716
37	0xbba048c4	-0.004891487
38	0xbb9dc1d9	-0.004814368
39	0x3b5144e7	0.0031931938
40	0xbb046efc	-0.0020207753
41	0x3b9fb9e5	0.0048744553
42	0x3ba583f3	0.00505113
43	0x3ba27bd6	0.00495861
44	0xbb9fa9f7	-0.0048725563
45	0xbba352ae	-0.0049842214
46	0xbba2ac3e	-0.0049643805
47	0xbba3058a	-0.0049750255
48	0xbba4746f	-0.005018763
49	0xbb98cacf	-0.0046628485
50	0xbba249b8	-0.0049526356
51	0x3b9770ae	0.0046215868
52	0xba5a25d7	-0.00083216786
53	0xbba25494	-0.00495393
54	0xbba25ba5	-0.0049547725
55	0x3ba39e41	0.0049932306
56	0xbb9dbffe	-0.004814147
57	0x3b9bb3d7	0.004751663
58	0x3b98f169	0.00466745
59	0x3b2f4f66	0.0026750206
60	0xbba0938a	-0.0049004005
61	0x3b9de03e	0.0048179915
62	0x3ba4024c	0.0050051566
63	0xbb9ff664	-0.004881667
64	0x3ba29d82	0.004962624
65	0x36182068	2.2668628e-06
66	0xbba39d2e	-0.0049931025
67	0xbba2a47c	-0.0049634557
68	0x3b9edc15	0.004848013
69	0xbba02a21	-0.0048878347
70	0xbba2761a	-0.0049579265
71	0xbba1a2ef	-0.0049327533
72	0x3ba4aea1	0.0050257
73	0xbb970232	-0.004608416
74	0x3ba2e5cf	0.004971243
75	0x3b9cbdc4	0.004783364
76	0xbb2083cf	-0.0024492627
77	0x3ba47b4b	0.0050195805
78	0x3ba459df	0.0050155963
79	0x3ba51736	0.0050381673
80	0xbba42d10	-0.0050102547
81	0x3b9cb81d	0.00478269
82	0x3b0ff771	0.0021967555
83	0x3b8f60a0	0.0043755323
84	0xbba576af	-0.0050495486
85	0xbb9e7b42	-0.004836471
86	0xbb900334	-0.004394913
87	0x3ba38a16	0.0049908264
88	0xbba13243	-0.0049193217
89	0xbba31109	-0.004976396
90	0xbba27d0f	-0.004958756
91	0xbba1d2ca	-0.004938458
92	0xbb3e6955	-0.0029054482
93	0x3ba49ec3	0.0050238087
94	0x3b8a8364	0.0042270888
95	0x3b9aacfe	0.0047203293
96	0xbba1c7e5	-0.0049371594
97	0x3ba47b11	0.0050195535
98	0xbba2f288	-0.0049727596
99	0x3ba17978	0.0049278103
100	0xbcb5a0ae	-0.022171345
101	0xbcb46959	-0.02202289
102	0x3cb060b6	0.02153049
103	0x3cb8cb28	0.02255781
104	0xbcaa2989	-0.020771759
105	0x3c2dc6e8	0.010606505
106	0x3c5dc039	0.013534599
107	0x3cb42532	0.021990392
108	0xbcb18738	-0.021670923
109	0x3cb7ab58	0.02242057
110	0x3cafe364	0.021470733
111	0x3cb98772	0.022647593
112	0x3cb8c8e0	0.022556722
113	0xbcb2a475	-0.021806935
114	0x3cb6e944	0.022328027
115	0xbcb7d24a	-0.02243914
116	0x3cbb8ec1	0.022895219
117	0x3ca7dba0	0.020490468
118	0x3cb7626c	0.022385798
119	0xbcb6671d	-0.022265965
120	0x3cb8200a	0.022476215
121	0x3cbaae6a	0.022788245
122	0x3caf4c87	0.021398796
123	0x3cb7f68f	0.022456435
124	0x3cb823e0	0.022478044
125	0xbcaf70e2	-0.021416131
126	0x3cb76295	0.022385875
127	0xbc5713d6	-0.013127288
128	0xbcb6a34d	-0.022294665
129	0x3cb33af4	0.021878697
130	0x3cb6d103	0.022316461
131	0x3cae0b3d	0.021245593
132	0x3cb579cb	0.022152802
133	0xbcb3fdb8	-0.021971568
134	0xbcb01d7e	-0.021498438
135	0xbcb41d88	-0.021986738
136	0x3cb7b53b	0.022425285
137	0xbcb4b00d	-0.022056604
138	0xbcb116ff	-0.02161741
139	0x3c6b33c1	0.014355601
140	0xbc14e5ea	-0.009088019
141	0x3cb38040	0.02191174
142	0x3cb9ebee	0.022695508
143	0x3cb7543f	0.022379039
144	0xbcb37586	-0.021906625
145	0xbcb7f3ff	-0.022455214
146	0xbcb7e0cc	-0.022446059
147	0xbcb73b88	-0.022367254
148	0xbcb8d1f0	-0.022561044
149	0xbcabd84e	-0.020977166
150	0xbcb6421f	-0.022248326
151	0x3caa3f81	0.020782234
152	0xbb7519c6	-0.0037399395
153	0xbcb68308	-0.022279277
154	0xbcb64dda	-0.02225392
155	0x3cb7d592	0.022440705
156	0xbcb15a50	-0.02164951
157	0x3cb00fff	0.021492003
158	0x3cabfaf8	0.020993695
159	0x3c44ffa7	0.012023843
160	0xbcb4994a	-0.02204575
161	0x3cb13069	0.02162953
162	0x3cb85e65	0.022505948
163	0xbcb398fc	-0.021923535
164	0x3cb70a0e	0.022343662
165	0x37290d4d	1.0076282e-05
166	0xbcb7eac2	-0.022450808
167	0xbcb6d338	-0.022317514
168	0x3cb29994	0.021801747
169	0xbcb411c9	-0.021981137
170	0xbcb69bef	-0.022291152
171	0xbcb5b3ff	-0.022180555
172	0x3cb96618	0.02263169
173	0xbca9c601	-0.020724298
174	0x3cb704b5	0.022341112
175	0x3cb02569	0.021502214
176	0xbc346e74	-0.011012662
177	0x3cb8eab5	0.022572855
178	0x3cb87a98	0.022519395
179	0x3cba3f10	0.022735149
180	0xbcb850d6	-0.022499483
181	0x3cb03474	0.021509387
182	0x3c21eebd	0.00988358
183	0x3ca15f3d	0.019698733
184	0xbcba049e	-0.02270728
185	0xbcb225fa	-0.021746624
186	0xbca20e2a	-0.019782145
187	0x3cb8200c	0.022476219
188	0xbcb561c5	-0.022141347
189	0xbcb7500d	-0.022377038
190	0xbcb68e82	-0.02228475
191	0xbcb5d62b	-0.02219685
192	0xbc56287c	-0.013071176
193	0x3cb91226	0.022591662
194	0x3c9baeab	0.019004187
195	0x3cadb462	0.021204177
196	0xbcb5f3e4	-0.022211023
197	0x3cb8f0c2	0.02257574
198	0xbcb7159d	-0.022349173
199	0x3cb58c6b	0.022161683
200	0xbc3c0b5d	-0.011477319
201	0xbc3aba53	-0.011396962
202	0x3c369ff1	0.011146531
203	0x3c3edced	0.0116493525
204	0xbc304c0d	-0.010760319
205	0x3bb3e80f	0.00549031
206	0x3be5efca	0.0070171105
207	0x3c3aaccc	0.011393737
208	0xbc37be47	-0.011214799
209	0x3c3e1e96	0.011603972
210	0x3c36233e	0.011116801
211	0x3c402586	0.011727696
212	0x3c3f9619	0.011693501
213	0xbc38edc2	-0.011287155
214	0x3c3d6f6a	0.011562208
215	0xbc3e58c7	-0.011617846
216	0x3c420696	0.0118423905
217	0x3c2de94f	0.010614707
218	0x3c3de7bd	0.011590895
219	0xbc3cee1f	-0.011531382
220	0x3c3e85c6	0.011628574
221	0x3c413d73	0.011794436
222	0x3c358a2a	0.011080304
223	0x3c3ead7c	0.011638042
224	0x3c3e9efb	0.011634584
225	0xbc359567	-0.011082984
226	0x3c3df476	0.011593929
227	0xbbdeaba6	-0.0067953644
228	0xbc3d0402	-0.0115366
229	0x3c39a0f4	0.011329878
230	0x3c3d42f1	0.011551605
231	0x3c340c5f	0.010989278
232	0x3c3bd0ec	0.011463385
233	0xbc3a1335	-0.011357118
234	0xbc365852	-0.011129456
235	0xbc3a76c5	-0.011380856
236	0x3c3e3091	0.011608259
237	0xbc3b1b28	-0.011420049
238	0xbc372bbe	-0.011179863
239	0x3bf3873f	0.007431894
240	0xbb9a2d5b	-0.004705114
241	0x3c39de6c	0.011344533
242	0x3c40796e	0.011747701
243	0x3c3d74ec	0.011563521
244	0xbc39c84b	-0.0113392575
245	0xbc3e746c	-0.011624437
246	0xbc3e55b9	-0.011617118
247	0xbc3d7593	-0.011563676
248	0xbc3f5bfc	-0.011679646
249	0xbc31e12a	-0.010856906
250	0xbc3ccb26	-0.011523044
251	0x3c304440	0.01075846
252	0xbafdb826	-0.0019357249
253	0xbc3ce5db	-0.011529411
254	0xbc3cb430	-0.011517569
255	0x3c3e647a	0.011620635

seq.4.bias f4 [100]
0	0x3a06f04d	0.0005147502
1	0x387d68f6	6.0417653e-05
2	0x3923ef07	0.00015633936
3	0x3abdbd7d	0.0014476028
4	0x38826f57	6.219622e-05
5	0xb91e2a7f	-0.00015083885
6	0x3a6c2ac1	0.00090090564
7	0x3a68275a	0.00088559615
8	0xb917a235	-0.00014460909
9	0x3a287433	0.00064260064
10	0xbb17a7be	-0.0023140754
11	0xb97075cc	-0.00022932066
12	0xbb3f948b	-0.0029232826
13	0xb90c13a3	-0.00013358756
14	0xb93c4624	-0.00017955207
15	0x3a2bdca4	0.00065560103
16	0x387ae28a	5.9815626e-05
17	0xb8740bb2	-5.8185025e-05
18	0xba125f64	-0.00055836723
19	0xb8a2c41a	-7.761289e-05
20	0xbb3fb584	-0.002925248
21	0xbb08b8aa	-0.0020862021
22	0xb895f103	-7.1497656e-05
23	0xbb3c1d66	-0.0028704046
24	0xbb1cf2d4	-0.0023948448
25	0x3a3bb53b	0.00071604893
26	0x391816ca	0.00014504339
27	0xb8706840	-5.731755e-05
28	0xb8937ab3	-7.032361e-05
29	0xba366167	-0.0006957263
30	0x386ffae9	5.721572e-05
31	0x387cece2	6.0302096e-05
32	0x394cc3c8	0.0001952789
33	0x3adc0a20	0.0016787685
34	0x3b115a80	0.0022179186
35	0xb908a247	-0.00013030424
36	0x38c21104	9.25381e-05
37	0xb90e02d2	-0.00013543226
38	0xbad05d33	-0.0015896916
39	0xb98f3f6c	-0.00027322338
40	0xba9b2e5d	-0.0011839379
41	0xb8ddb8be	-0.00010572512
42	0x39ce1c83	0.00039312625
43	0x3b247e0d	0.0025099546
44	0x38494df8	4.799475e-05
45	0xb95fb1b6	-0.0002133314
46	0xbabfe0bc	-0.001463912
47	0x393661f7	0.00017393367
48	0xb93e12e3	-0.00018126848
49	0xb92262cc	-0.00015486329
50	0x392cf177	0.00016493151
51	0x3999338e	0.00029220845
52	0x38b09c6b	8.421469e-05
53	0x38a98584	8.083417e-05
54	0xba959cb7	-0.0011414503
55	0x3a7c360f	0.00096210925
56	0x39f8220e	0.0004732762
57	0x385276db	5.0178594e-05
58	0xb85ca466	-5.2605195e-05
59	0x38672942	5.5113116e-05
60	0xbaa164ad	-0.0012313329
61	0xb9a2cf22	-0.00031053374
62	0xb8a5e545	-7.910518e-05
63	0xbb5762d7	-0.003286531
64	0x389ad173	7.382305e-05
65	0x3b2d6dce	0.0026463154
66	0x3b10f6f4	0.0022119852
67	0xb91679f8	-0.00014350552
68	0x38add487	8.288869e-05
69	0x3b2e2e2b	0.0026577811
70	0x38b17e27	8.4635154e-05
71	0x38b022e8	8.398836e-05
72	0xb85be70d	-5.242885e-05
73	0x3b3fa8e1	0.0029244947
74	0x395f2380	0.00021280162
75	0x3985f9ae	0.00025553763
76	0xb973bedb	-0.00023245385
77	0xbae4e4b9	-0.0017463184
78	0x396890d3	0.00022179195
79	0x3b0d6ad8	0.0021578576
80	0x38c7b0a6	9.521963e-05
81	0xb97ec334	-0.00024296046
82	0xba023f1d	-0.0004968511
83	0xb98487a6	-0.00025278068
84	0x38595c58	5.1822833e-05
85	0x3883851a	6.271359e-05
86	0x390ce7ba	0.00013437765
87	0x398543f1	0.00025418357
88	0xb939a9f9	-0.00017706295
89	0xbb279eb4	-0.0025576772
90	0xbadf3226	-0.0017028495
91	0xb8756706	-5.85085e-05
92	0x39f5c330	0.00046875468
93	0xba0ba8e9	-0.0005327599
94	0xb8dbf65c	-0.00010488622
95	0x3b4b3c2d	0.003101121
96	0xb84f8af4	-4.9482056e-05
97	0xb91e4ff4	-0.00015097839
98	0xb8779e1a	-5.9036633e-05
99	0xb8e1f302	-0.000107741

seq.6.weight f4 [1, 100]
0	0x3ce123be	0.027482864
1	0x3dfd943e	0.123817906
2	0x3d830b3b	0.063986264
3	0x3b53d11f	0.003232069
4	0x3df9bda9	0.12194378
5	0xbdc0b8bd	-0.09410236
6	0xb988bd0b	-0.0002608079
7	0xb989d0af	-0.00026286158
8	0xbd8bf1b7	-0.06833213
9	0x3d355c00	0.04427719
10	0xbc4f8302	-0.012665512
11	0xbd4109c2	-0.047128446
12	0xbbb92c2e	-0.0056510186
13	0xbd94f58f	-0.07273399
14	0xbd6a1da3	-0.05715717
15	0x3cc32862	0.023822967
16	0x3dfedfb6	0.12445013
17	0xbe01374f	-0.12618755
18	0xbcd5be7f	-0.026091812
19	0xbddc1110	-0.10745442
20	0xbbb3c785	-0.005486431
21	0xbc222203	-0.009895804
22	0xbde722ed	-0.112859584
23	0xbbc52388	-0.0060161985
24	0xbc1900ba	-0.009338552
25	0x3cbae18c	0.022812627
26	0x3d8b686b	0.068070255
27	0xbe0232b3	-0.12714653
28	0xbde971b5	-0.11398641
29	0xbcbee7bc	-0.023303859
30	0x3e025028	0.1272589
31	0x3dfdd27d	0.12393663
32	0x3d5a453a	0.053288676
33	0x3c5b9d68	0.013404228
34	0x3bc367f1	0.0059633185
35	0xbd97f49e	-0.07419704
36	0x3dc44311	0.095831044
37	0xbd9357d5	-0.07194487
38	0xbcc83108	-0.024437442
39	0xbd28c792	-0.04120595
40	0xbc8dd66e	-0.017314162
41	0xbdb260fc	-0.087099046
42	0x3d033f4a	0.03204278
43	0x3b683ae1	0.0035435485
44	0x3e0d4361	0.13795234
45	0xbd4c7318	-0.04991445
46	0xbb648d82	-0.0034874384
47	0x3d70809f	0.058716413
48	0xbd686df6	-0.056745492
49	0xbd84402d	-0.06457553
50	0x3d7afd09	0.06127647
51	0x3d20f368	0.03929463
52	0x3dd0ec3e	0.102013096
53	0x3dd68646	0.104748294
54	0xbc8eb84f	-0.01742187
55	0x3b855d42	0.004069955
56	0x3cebb131	0.028771015
57	0x3e0a919e	0.13532111
58	0xbe0f2f53	-0.13982897
59	0x3e04b1fa	0.12958518
60	0xbc8a83d1	-0.016908558
61	0xbd19cfc2	-0.03755165
62	0xbdd97fbd	-0.10620067
63	0xbb61cbe7	-0.003445381
64	0x3de2d924	0.110765725
65	0x3b8509c3	0.0040600016
66	0x3c0900a7	0.008361972
67	0xbd8c8879	-0.068619676
68	0x3dd32935	0.10310594
69	0x3c0cc686	0.008592254
70	0x3dd04b49	0.101706095
71	0x3dd1551b	0.10221311
72	0xbe07d6c3	-0.13265519
73	0x3b6cf113	0.0036154434
74	0x3d4b9fcb	0.049712937
75	0x3d30a9d1	0.0431307
76	0xbd3e6499	-0.046482656
77	0xbc51ace1	-0.012797565
78	0x3d454ff9	0.04817197
79	0x3c2e6f0f	0.010646596
80	0x3dc0484a	0.09388788
81	0xbd382e3a	-0.04496596
82	0xbd3ca534	-0.046055987
83	0xbd32bf68	-0.04363957
84	0x3e0890a3	0.13336425
85	0x3df8a699	0.12141151
86	0x3d944cc7	0.072412066
87	0x3d3246eb	0.043524664
88	0xbd6cba2d	-0.05779474
89	0xbb31e75b	-0.0027145955
90	0xbbabe156	-0.005245368
91	0xbe00dc67	-0.12584077
92	0x3cebad78	0.02876924
93	0xba4d1443	-0.00078231486
94	0xbdb37e68	-0.087643445
95	0x3b8a4747	0.0042199227
96	0xbe0b6834	-0.13613969
97	0xbd86cabd	-0.06581638
98	0xbe0048d3	-0.1252778
99	0xbdafd309	-0.08585174
