examples/arch-comp/tora/models/controllerTora/model.pt (torch, 169391 bytes, 7 tensors)

seq.0.bias f8 [100]
0.15755200386047363 0.17304499447345734 0.26871800422668457 0.1797260046005249 0.04023199900984764 0.15636800229549408 0.3126769959926605 0.23925800621509552
0.15828000009059906 0.23117400705814362 0.2380319982767105 0.24601900577545166 0.23651200532913208 0.2016340047121048 0.209524005651474 0.2998430132865906
0.13016800582408905 0.1506659984588623 0.1991340070962906 0.1897049993276596 0.23123100399971008 0.22300200164318085 0.23258399963378906 0.10748499631881714
0.25318801403045654 0.20484699308872223 0.24907800555229187 0.3240320086479187 0.19589300453662872 0.3065119981765747 0.1592549979686737 0.20692400634288788
0.17349399626255035 0.263590008020401 0.2014240026473999 0.2122180014848709 0.06207700073719025 0.19766199588775635 0.10692299902439117 0.22057600319385529
0.2110610008239746 0.16583099961280823 0.2300419956445694 0.2126230001449585 0.22377699613571167 0.24844799935817719 0.17900900542736053 0.300942987203598
0.2220740020275116 0.16547299921512604 0.3032880127429962 0.1556529998779297 0.1670600026845932 0.22767400741577148 0.17612800002098083 0.2231770008802414
0.27979299426078796 0.23367999494075775 0.16414399445056915 0.22866299748420715 0.15601399540901184 0.19553600251674652 0.18074099719524384 0.16601400077342987
0.19558200240135193 0.20642399787902832 0.1515360027551651 0.32544299960136414 0.15480299293994904 0.25250399112701416 0.2699350118637085 0.23484300076961517
0.18421900272369385 0.19301700592041016 0.16916699707508087 0.2292419970035553 0.11397600173950195 0.15632499754428864 0.14010100066661835 0.34139201045036316
0.16055600345134735 0.09499000012874603 0.18700900673866272 0.193463996052742 0.20547600090503693 0.2276179939508438 0.2290399968624115 0.2325190007686615
0.28852999210357666 0.273514986038208 0.1685820072889328 0.3170570135116577 0.25270500779151917 0.2174849957227707 0.11826100200414658 0.2801400125026703
0.27033498883247375 0.2514750063419342 0.26813700795173645 0.1656160056591034
00000000: 0000 0000 aa2a c43f 0000 00a0 5626 c63f
00000010: 0000 0000 ad32 d13f 0000 0000 4301 c73f
00000020: 0000 00e0 4999 a43f 0000 00e0 dd03 c43f
00000030: 0000 0060 e602 d43f 0000 00a0 01a0 ce3f
00000040: 0000 00e0 8442 c43f 0000 0020 1c97 cd3f
00000050: 0000 0020 d577 ce3f 0000 0000 8d7d cf3f
00000060: 0000 0080 0646 ce3f 0000 00a0 24cf c93f
00000070: 0000 00c0 aed1 ca3f 0000 00c0 a030 d33f
00000080: 0000 0060 58a9 c03f 0000 0000 0649 c33f
00000090: 0000 0020 397d c93f 0000 00e0 4048 c83f
000000a0: 0000 0040 fa98 cd3f 0000 0060 548b cc3f
000000b0: 0000 0000 50c5 cd3f 0000 0000 2384 bb3f
000000c0: 0000 0080 3b34 d03f 0000 0020 6d38 ca3f
000000d0: 0000 00c0 c9e1 cf3f 0000 00c0 f0bc d43f
000000e0: 0000 00a0 0513 c93f 0000 0080 e49d d33f
000000f0: 0000 00c0 7762 c43f 0000 0060 7c7c ca3f
00000100: 0000 0020 0d35 c63f 0000 00a0 a8de d03f
00000110: 0000 0000 43c8 c93f 0000 00a0 f529 cb3f
00000120: 0000 0080 8ec8 af3f 0000 0000 fd4c c93f
00000130: 0000 0040 4e5f bb3f 0000 00a0 d53b cc3f
00000140: 0000 0000 0c04 cb3f 0000 0040 f339 c53f
00000150: 0000 0020 0472 cd3f 0000 0000 3b37 cb3f
00000160: 0000 0080 b9a4 cc3f 0000 00e0 24cd cf3f
00000170: 0000 0060 c4e9 c63f 0000 0060 a642 d33f
00000180: 0000 00c0 eb6c cc3f 0000 0020 382e c53f
00000190: 0000 0020 1269 d33f 0000 0000 70ec c33f
000001a0: 0000 00e0 3862 c53f 0000 0000 6c24 cd3f
000001b0: 0000 00c0 5c8b c63f 0000 0060 1091 cc3f
000001c0: 0000 00e0 20e8 d13f 0000 00e0 39e9 cd3f
000001d0: 0000 00a0 ab02 c53f 0000 0040 d444 cd3f
000001e0: 0000 0040 44f8 c33f 0000 00e0 5207 c93f
000001f0: 0000 0060 8522 c73f 0000 0060 f23f c53f
00000200: 0000 00c0 d408 c93f 0000 0000 1a6c ca3f
00000210: 0000 0020 8865 c33f 0000 00e0 0ed4 d43f
00000220: 0000 00a0 95d0 c33f 0000 0080 0629 d03f
00000230: 0000 0080 9d46 d13f 0000 00e0 550f ce3f
00000240: 0000 0000 7d94 c73f 0000 0000 c8b4 c83f
00000250: 0000 00a0 43a7 c53f 0000 0040 cd57 cd3f
00000260: 0000 0000 882d bd3f 0000 0020 7502 c43f
00000270: 0000 0060 d4ee c13f 0000 00e0 5dd9 d53f
00000280: 0000 0060 198d c43f 0000 00c0 4351 b83f
00000290: 0000 0040 e9ef c73f 0000 00a0 6dc3 c83f
000002a0: 0000 00a0 094d ca3f 0000 0020 9622 cd3f
000002b0: 0000 00c0 2e51 cd3f 0000 00c0 2ec3 cd3f
000002c0: 0000 0080 4677 d23f 0000 0000 4581 d13f
000002d0: 0000 0060 1894 c53f 0000 0080 a94a d43f
000002e0: 0000 00a0 512c d03f 0000 0060 8cd6 cb3f
000002f0: 0000 0060 5a46 be3f 0000 0060 d0ed d13f
00000300: 0000 0020 2b4d d13f 0000 00a0 2a18 d03f
00000310: 0000 0020 2829 d13f 0000 00c0 e732 c53f

seq.2.bias f8 [100]
0.20540399849414825 0.24318599700927734 0.16940400004386902 0.1861799955368042 0.20912200212478638 0.1638299971818924 0.1634639948606491 0.19724999368190765
0.23169299960136414 0.2063470035791397 0.2179269939661026 0.2891860008239746 0.2342980057001114 0.28560999035835266 0.3008970022201538 0.2564629912376404
0.1811310052871704 0.14595699310302734 0.17143499851226807 0.2125300019979477 0.29249000549316406 0.08343300223350525 0.19251100718975067 0.1666959971189499
0.2175920009613037 0.31835100054740906 0.12350200116634369 0.22688600420951843 0.24138499796390533 0.2428330034017563 0.1913589984178543 0.2954060137271881
0.14930999279022217 0.14808900654315948 0.2849369943141937 0.21247699856758118 0.18311700224876404 0.29793301224708557 0.2229669988155365 0.1226620003581047
0.17193999886512756 0.2316499948501587 0.10961300134658813 0.28939399123191833 0.15987899899482727 0.27939799427986145 0.17053799331188202 0.13148799538612366
0.18532699346542358 0.14661400020122528 0.17716500163078308 0.31517499685287476 0.18577200174331665 0.17061099410057068 0.20837900042533875 0.2174459993839264
0.16120000183582306 0.14194999635219574 0.16478000581264496 0.2014400064945221 0.2291010022163391 0.20595799386501312 0.08723299950361252 0.1885939985513687
0.1459909975528717 0.08262400329113007 0.10283300280570984 0.25600799918174744 0.19818900525569916 0.11502700299024582 0.16277700662612915 0.2468779981136322
0.28189700841903687 0.10509199649095535 0.19279100000858307 0.3021959960460663 0.19175300002098083 0.17348100244998932 0.12961600720882416 0.19332300126552582
0.2734909951686859 0.270907998085022 0.17858999967575073 0.20802199840545654 0.08877599984407425 0.16079699993133545 0.17158299684524536 0.20983199775218964
0.2517940104007721 0.16088299453258514 0.2547439932823181 0.15518799424171448 0.17182299494743347 0.2100909948348999 0.31876298785209656 0.13564300537109375
0.1767899990081787 0.2179889976978302 0.1769219934940338 0.18432199954986572
00000000: 0000 00a0 ad4a ca3f 0000 0000 b820 cf3f
00000010: 0000 00c0 07af c53f 0000 0000 bfd4 c73f
00000020: 0000 0080 82c4 ca3f 0000 00a0 61f8 c43f
00000030: 0000 0060 63ec c43f 0000 00e0 7c3f c93f
00000040: 0000 00c0 1da8 cd3f 0000 0020 9469 ca3f
00000050: 0000 0020 08e5 cb3f 0000 0000 0682 d23f
00000060: 0000 0020 7afd cd3f 0000 0020 6f47 d23f
00000070: 0000 0080 e541 d33f 0000 00c0 e369 d03f
00000080: 0000 0000 4d2f c73f 0000 0000 b8ae c23f
00000090: 0000 0000 95f1 c53f 0000 00e0 2e34 cb3f
000000a0: 0000 0000 28b8 d23f 0000 0080 dd5b b53f
000000b0: 0000 0060 33a4 c83f 0000 0060 4b56 c53f
000000c0: 0000 0000 0eda cb3f 0000 00e0 dc5f d43f
000000d0: 0000 00c0 d39d bf3f 0000 00c0 990a cd3f
000000e0: 0000 0020 b4e5 ce3f 0000 00e0 2615 cf3f
000000f0: 0000 00a0 737e c83f 0000 00a0 eee7 d23f
00000100: 0000 0000 971c c33f 0000 00a0 94f4 c23f
00000110: 0000 0060 683c d23f 0000 0040 7232 cb3f
00000120: 0000 00c0 6070 c73f 0000 00a0 5511 d33f
00000130: 0000 00c0 2e8a cc3f 0000 00e0 c666 bf3f
00000140: 0000 0040 2102 c63f 0000 0000 b5a6 cd3f
00000150: 0000 0000 990f bc3f 0000 0060 6e85 d23f
00000160: 0000 0040 ea76 c43f 0000 0020 a8e1 d13f
00000170: 0000 0060 30d4 c53f 0000 0040 99d4 c03f
00000180: 0000 0080 cbb8 c73f 0000 0060 3fc4 c23f
00000190: 0000 00c0 57ad c63f 0000 00c0 d32b d43f
000001a0: 0000 0080 60c7 c73f 0000 00c0 94d6 c53f
000001b0: 0000 00c0 29ac ca3f 0000 0040 45d5 cb3f
000001c0: 0000 00a0 33a2 c43f 0000 00e0 6a2b c23f
000001d0: 0000 00e0 8217 c53f 0000 0040 c9c8 c93f
000001e0: 0000 0080 2e53 cd3f 0000 00e0 d45c ca3f
000001f0: 0000 00e0 e654 b63f 0000 0020 d923 c83f
00000200: 0000 0040 d5af c23f 0000 00c0 d826 b53f
00000210: 0000 0080 4353 ba3f 0000 0060 6f62 d03f
00000220: 0000 00e0 415e c93f 0000 00e0 6872 bd3f
00000230: 0000 0080 e0d5 c43f 0000 00c0 b299 cf3f
00000240: 0000 00c0 990a d23f 0000 0020 4fe7 ba3f
00000250: 0000 0020 60ad c83f 0000 00e0 2d57 d33f
00000260: 0000 00c0 5c8b c83f 0000 0020 a034 c63f
00000270: 0000 00e0 4197 c03f 0000 00e0 cebe c83f
00000280: 0000 0060 e080 d13f 0000 0080 8e56 d13f
00000290: 0000 0080 09dc c63f 0000 0000 77a0 ca3f
000002a0: 0000 0020 06ba b63f 0000 0000 ff94 c43f
000002b0: 0000 0080 6ef6 c53f 0000 0060 c6db ca3f
000002c0: 0000 00a0 641d d03f 0000 0060 d097 c43f
000002d0: 0000 00c0 b94d d03f 0000 0040 33dd c33f
000002e0: 0000 00c0 4bfe c53f 0000 0000 43e4 ca3f
000002f0: 0000 00e0 9c66 d43f 0000 0000 c05c c13f
00000300: 0000 0000 0ea1 c63f 0000 0040 10e7 cb3f
00000310: 0000 0040 61a5 c63f 0000 0000 dd97 c73f

seq.4.bias f8 [100]
0.17962099611759186 0.13778400421142578 0.2014870047569275 0.18034499883651733 0.20910200476646423 0.17521800100803375 0.20497900247573853 0.13145199418067932
0.19111700356006622 0.22564800083637238 0.19777800142765045 0.14113199710845947 0.2649439871311188 0.27115800976753235 0.2586379945278168 0.2735840082168579
0.24693800508975983 0.11205799877643585 0.26047301292419434 0.2734760046005249 0.20044100284576416 0.297542005777359 0.1733819991350174 0.15491199493408203
0.23396800458431244 0.22214999794960022 0.16149599850177765 0.21023499965667725 0.14268000423908234 0.1470009982585907 0.19150499999523163 0.2057349979877472
0.17989599704742432 0.14806999266147614 0.1261889934539795 0.14333300292491913 0.23909500241279602 0.2463569939136505 0.24499399960041046 0.1976650059223175
0.1484600007534027 0.2175540030002594 0.2183550000190735 0.23119999468326569 0.2306080013513565 0.2131039947271347 0.1963919997215271 0.18053899705410004
0.23385900259017944 0.25612300634384155 0.2547079920768738 0.2510420083999634 0.27437499165534973 0.1979849934577942 0.18775300681591034 0.1910790055990219
0.164014995098114 0.2096100002527237 0.23996299505233765 0.19124799966812134 0.24477200210094452 0.2153870016336441 0.22863900661468506 0.1538120061159134
0.1794310063123703 0.11904899775981903 0.25697898864746094 0.11228799819946289 0.21474899351596832 0.24546700716018677 0.20762400329113007 0.21272000670433044
0.12377600371837616 0.26111900806427 0.1465190052986145 0.2669140100479126 0.0961889997124672 0.16913600265979767 0.26356199383735657 0.25022000074386597
0.21349699795246124 0.17972999811172485 0.2549610137939453 0.1610260009765625 0.243817999958992 0.20043300092220306 0.15588299930095673 0.24375799298286438
0.22114300727844238 0.14661100506782532 0.2106650024652481 0.13281899690628052 0.2342739999294281 0.20633399486541748 0.23476900160312653 0.12078899890184402
0.20572799444198608 0.24008099734783173 0.17440800368785858 0.2650420069694519
00000000: 0000 0020 d2fd c63f 0000 0000 e8a2 c13f
00000010: 0000 0080 53ca c93f 0000 0080 8b15 c73f
00000020: 0000 00c0 dac3 ca3f 0000 0020 8b6d c63f
00000030: 0000 0080 c03c ca3f 0000 0040 6bd3 c03f
00000040: 0000 00a0 8576 c83f 0000 00a0 08e2 cc3f
00000050: 0000 0020 ca50 c93f 0000 0000 9d10 c23f
00000060: 0000 00a0 d7f4 d03f 0000 0020 a75a d13f
00000070: 0000 0060 868d d03f 0000 0080 6682 d13f
00000080: 0000 0020 aa9b cf3f 0000 0040 d5af bc3f
00000090: 0000 0000 97ab d03f 0000 0080 a180 d13f
000000a0: 0000 0000 0da8 c93f 0000 00a0 ed0a d33f
000000b0: 0000 00a0 6131 c63f 0000 0000 28d4 c33f
000000c0: 0000 00e0 a9f2 cd3f 0000 0040 696f cc3f
000000d0: 0000 00a0 e6ab c43f 0000 0000 fbe8 ca3f
000000e0: 0000 00a0 5643 c23f 0000 00c0 edd0 c23f
000000f0: 0000 0060 3c83 c83f 0000 0040 8655 ca3f
00000100: 0000 0000 d506 c73f 0000 0020 f5f3 c23f
00000110: 0000 0000 f626 c03f 0000 0060 bc58 c23f
00000120: 0000 0040 aa9a ce3f 0000 0040 a088 cf3f
00000130: 0000 00a0 f65b cf3f 0000 0040 164d c93f
00000140: 0000 00c0 bc00 c33f 0000 0040 cfd8 cb3f
00000150: 0000 0080 0ef3 cb3f 0000 0020 f697 cd3f
00000160: 0000 0020 9084 cd3f 0000 00e0 fd46 cb3f
00000170: 0000 0080 5f23 c93f 0000 00e0 e61b c73f
00000180: 0000 0080 17ef cd3f 0000 00c0 5164 d03f
00000190: 0000 00c0 224d d03f 0000 0080 1211 d03f
000001a0: 0000 0020 5c8f d13f 0000 0080 9257 c93f
000001b0: 0000 0060 4a08 c83f 0000 00e0 4675 c83f
000001c0: 0000 0080 71fe c43f 0000 0020 80d4 ca3f
000001d0: 0000 0080 1bb7 ce3f 0000 0080 d07a c83f
000001e0: 0000 0060 b054 cf3f 0000 0020 cd91 cb3f
000001f0: 0000 0000 0b44 cd3f 0000 00a0 1cb0 c33f
00000200: 0000 0060 98f7 c63f 0000 00c0 fe79 be3f
00000210: 0000 0000 5872 d03f 0000 0000 e8be bc3f
00000220: 0000 0020 e57c cb3f 0000 0080 766b cf3f
00000230: 0000 0060 6c93 ca3f 0000 00c0 683a cb3f
00000240: 0000 00c0 c8af bf3f 0000 0080 2cb6 d03f
00000250: 0000 0080 22c1 c23f 0000 0080 1e15 d13f
00000260: 0000 00a0 d79f b83f 0000 00a0 3fa6 c53f
00000270: 0000 0020 33de d03f 0000 00c0 9a03 d03f
00000280: 0000 00a0 de53 cb3f 0000 0080 6401 c73f
00000290: 0000 0000 4851 d03f 0000 0000 809c c43f
000002a0: 0000 00a0 6d35 cf3f 0000 00e0 c9a7 c93f
000002b0: 0000 0060 f9f3 c33f 0000 0040 7633 cf3f
000002c0: 0000 0000 6a4e cc3f 0000 0040 26c4 c23f
000002d0: 0000 0020 12f7 ca3f 0000 0080 3600 c13f
000002e0: 0000 00c0 b0fc cd3f 0000 0000 2769 ca3f
000002f0: 0000 0020 e90c ce3f 0000 0020 07ec be3f
00000300: 0000 0080 4b55 ca3f 0000 0060 f9ba ce3f
00000310: 0000 0060 0053 c63f 0000 00c0 72f6 d03f

seq.6.weight f8 [1, 100]
-0.03656100109219551 -0.09285099804401398 -0.075204998254776 -0.0107829999178648 0.16059300303459167 -0.06917700171470642 0.3112359941005707 0.14299699664115906
0.14267399907112122 0.18814900517463684 0.14923100173473358 -0.1501159965991974 0.06925199925899506 -0.0457179993391037 -0.08692699670791626 0.030267000198364258
0.010053999722003937 -0.08373700082302094 0.03383199870586395 0.020333999767899513 -0.07106900215148926 -0.10037700086832047 0.039611998945474625 0.05437599867582321
0.15350599586963654 -0.13763800263404846 0.0712990015745163 -0.06631699949502945 -0.07768400013446808 0.1355140060186386 0.09380000084638596 0.20235900580883026
-0.03459399938583374 0.30532801151275635 0.13515900075435638 0.1567389965057373 -0.2571850121021271 0.06393399834632874 0.142643004655838 -0.08723600208759308
0.09323299676179886 0.16546399891376495 0.2063480019569397 0.07875300198793411 -0.1585479974746704 0.20813800394535065 -0.08697400242090225 -0.0752979964017868
-0.08728700131177902 -0.044596001505851746 -0.08316999673843384 -0.1769780069589615 -0.10279499739408493 -0.145238995552063 0.2129559963941574 -0.09247100353240967
-0.1609860062599182 -0.04822000116109848 0.13863299787044525 0.08469799906015396 -0.1844490021467209 -0.039684001356363297 -0.06112699955701828 -0.11747100204229355
-0.1331070065498352 0.11905200034379959 -0.14762000739574432 -0.22197000682353973 0.1931769996881485 0.2604779899120331 0.06677199900150299 0.10165899991989136
-0.04944499954581261 -0.07166899740695953 0.16404299437999725 0.289341002702713 -0.29329800605773926 -0.02696000039577484 0.04883100092411041 -0.0424019992351532
-0.23350200057029724 -0.01926499977707863 -0.05280200019478798 -0.1199600026011467 -0.0537169985473156 0.27185600996017456 -0.028781000524759293 -0.11900699883699417
-0.059505999088287354 -0.15973399579524994 0.07925400137901306 -0.07684099674224854 0.09759599715471268 0.17553600668907166 -0.013101999647915363 0.029308000579476357
0.1119609996676445 0.03728200122714043 0.07908699661493301 0.2641040086746216
00000000: 0000 00a0 1fb8 a2bf 0000 0040 15c5 b7bf
00000010: 0000 0080 a240 b3bf 0000 00c0 6515 86bf
00000020: 0000 00c0 4f8e c43f 0000 0080 95b5 b1bf
00000030: 0000 0060 4aeb d33f 0000 00c0 b94d c23f
00000040: 0000 0040 2443 c23f 0000 0040 4415 c83f
00000050: 0000 0060 001a c33f 0000 0040 0037 c3bf
00000060: 0000 00c0 7fba b13f 0000 0080 5968 a7bf
00000070: 0000 0000 d940 b6bf 0000 0000 50fe 9e3f
00000080: 0000 0000 3197 843f 0000 00c0 c96f b5bf
00000090: 0000 0080 6d52 a13f 0000 00a0 6fd2 943f
000000a0: 0000 0000 9431 b2bf 0000 00a0 4eb2 b9bf
000000b0: 0000 0020 0648 a43f 0000 00c0 2bd7 ab3f
000000c0: 0000 00a0 15a6 c33f 0000 0040 1f9e c1bf
000000d0: 0000 00c0 a640 b23f 0000 00a0 26fa b0bf
000000e0: 0000 0040 19e3 b3bf 0000 00e0 8558 c13f
000000f0: 0000 00e0 4603 b83f 0000 0060 e6e6 c93f
00000100: 0000 0000 4eb6 a1bf 0000 0080 7e8a d33f
00000110: 0000 00e0 e34c c13f 0000 0000 0610 c43f
00000120: 0000 0020 b875 d0bf 0000 0080 fa5d b03f
00000130: 0000 0040 2042 c23f 0000 0040 1955 b6bf
00000140: 0000 0020 1ede b73f 0000 00a0 ec2d c53f
00000150: 0000 0080 9c69 ca3f 0000 0020 2829 b43f
00000160: 0000 0000 4d4b c4bf 0000 0020 44a4 ca3f
00000170: 0000 00a0 ed43 b6bf 0000 00c0 ba46 b3bf
00000180: 0000 00e0 7058 b6bf 0000 0080 49d5 a6bf
00000190: 0000 0000 a14a b5bf 0000 0020 37a7 c6bf
000001a0: 0000 00e0 c550 babf 0000 0000 3197 c2bf
000001b0: 0000 0060 2442 cb3f 0000 0000 2eac b7bf
000001c0: 0000 0080 309b c4bf 0000 00c0 4ab0 a8bf
000001d0: 0000 00e0 b9be c13f 0000 00a0 c4ae b53f
000001e0: 0000 0060 069c c7bf 0000 0020 7651 a4bf
000001f0: 0000 00c0 094c afbf 0000 0060 9412 bebf
00000200: 0000 0080 a609 c1bf 0000 0020 317a be3f
00000210: 0000 0060 36e5 c2bf 0000 0060 8369 ccbf
00000220: 0000 0020 06ba c83f 0000 00e0 abab d03f
00000230: 0000 0040 f817 b13f 0000 0000 5306 ba3f
00000240: 0000 00e0 da50 a9bf 0000 0040 e658 b2bf
00000250: 0000 0060 5cff c43f 0000 0020 9084 d23f
00000260: 0000 0000 65c5 d2bf 0000 0000 679b 9bbf
00000270: 0000 0080 6000 a93f 0000 0000 b7b5 a5bf
00000280: 0000 00c0 64e3 cdbf 0000 0040 34ba 93bf
00000290: 0000 0020 dd08 abbf 0000 00e0 b2b5 bebf
000002a0: 0000 0060 cb80 abbf 0000 00c0 1666 d13f
000002b0: 0000 0040 c478 9dbf 0000 0020 3e77 bebf
000002c0: 0000 0000 9277 aebf 0000 00e0 2972 c4bf
000002d0: 0000 0080 fd49 b43f 0000 0000 daab b3bf
000002e0: 0000 0020 0dfc b83f 0000 00c0 f677 c63f
000002f0: 0000 00a0 38d5 8abf 0000 00a0 ea02 9e3f
00000300: 0000 00e0 79a9 bc3f 0000 0060 a016 a33f
00000310: 0000 00a0 0b3f b43f 0000 0080 14e7 d03f

seq.6.bias f8 [1]
10.197818756103516
00000000: 0000 0080 4865 2440

seq.8.weight f8 [1, 1]
1.0
00000000: 0000 0000 0000 f03f

seq.8.bias f8 [1]
0.0
00000000: 0000 0000 0000 0000
