examples/benchmarks/models/nn_4_relu_tanh/model.pt (torch, 4667 bytes, 6 tensors)

seq.0.weight f4 [20, 3]
00000000: cf3b 203d 6d0c 22bc 3c00 28bd 28ea 403d
00000010: a297 abbc bb4d 3ebd 5aff b73c a248 babb
00000020: 544d bfbc 9e08 4cbd 4e15 4e3c 3a70 563d
00000030: cb2f 803d 6f5c 81bc a0fb 86bd fd21 a3bc
00000040: d01d a53b 6e1b a93c deb0 833d a525 8dbc
00000050: 579f 8abd baec d8b9 a345 df38 7b38 d939
00000060: 0fb9 7cbc 3811 803b 55ff 813c b381 c5bb
00000070: 6cc3 cc3a 7e12 ca3b 1a72 42bd d461 443c
00000080: 4d43 4c3d 2085 8700 29c6 e700 ce27 0d01
00000090: 968b 50bd aba2 523c 333b 5b3d ddbd 0a3d
000000a0: 8555 0cbc ec31 11bd a3d5 81bb 16fa 893a
000000b0: cfaf 823b 4c19 aa80 1a6d 1881 0000 0000
000000c0: a5d8 f680 5692 9c00 2c7a 1001 4f1b 6c3c
000000d0: fcb2 71bb 4382 74bc d1ce 083d 3661 0abc
000000e0: af1f 0fbd fede 2001 bb04 bc00 1454 c780
0.039119538 -0.009890658 -0.04101585 0.04709831 -0.020946328 -0.04646085 0.022460628 -0.005684928
-0.023352303 -0.049812905 0.012578322 0.05235312 0.06259116 -0.015791146 -0.065909624 -0.019913668
0.0050389543 0.020642962 0.06430219 -0.017229864 -0.06768673 -0.00041375106 0.000106464395 0.00041431547
-0.015424981 0.0039083026 0.015868822 -0.0060274242 0.0015622205 0.006166755 -0.047472097 0.011986215
0.04986887 1.2445548e-38 2.1285086e-38 2.5926168e-38 -0.05091437 0.012856166 0.053523254 0.033872474
-0.008565311 -0.035448 -0.003962235 0.0010526802 0.003988243 -1.5621109e-38 -2.7996267e-38 0.0
-2.266925e-38 1.4378833e-38 2.6536277e-38 0.014410808 -0.0036880365 -0.014923635 0.03340036 -0.008446028
-0.034942325 2.9547348e-38 1.726677e-38 -1.8305425e-38

seq.0.bias f4 [20]
00000000: 4cc6 fb3e 0054 983d 97f9 173e 5063 de3e
00000010: 1e32 d53e 4f32 c83e 63fc 423e a915 4d3c
00000020: b51a c83e dae9 163d f814 1f3f 9bcd e5bd
00000030: 0a1d c93e 0648 533e ccf1 093e 86bd c4bd
00000040: fd07 00be 3c53 ad3d 3626 853e bc16 a8bd
0.49174726 0.07437897 0.14841305 0.43435144 0.416398 0.39100882 0.1904159 0.012517371
0.39082876 0.036844112 0.6214137 -0.11220857 0.39279968 0.20632944 0.13471144 -0.09606461
-0.12503047 0.08463141 0.26005715 -0.08207461

seq.2.weight f4 [20, 20]
00000000: 113a 34bd f725 5abd 5bcc cdbc 3a98 653d
00000010: 05c3 90bd 6f0a b53c 1f50 95bd 70c6 e839
00000020: 2a19 8b3c 0d2f da3b 97db 5a3d 4bfb 8283
00000030: f1b7 6a3d 3108 1cbd 6bbd 8c3b a8e7 f983
00000040: 954c 4a03 47fb 83bc 3eac 19bd 685c 8583
00000050: ff43 9483 eaed 6303 5c39 de83 6288 4b03
00000060: f0ff 9a03 8a5b 9701 ee41 2803 066c 8e81
00000070: 8ae5 0984 6684 9c83 6a7b 2702 2e6b 2201
00000080: 8417 6003 5763 8682 6a11 4502 dbc2 8e02
00000090: 45e5 a703 ad4d 5583 c3ef 7183 53f9 9983
000000a0: c30a 25be ab9d 47be fe84 bcbd dbcf 523e
000000b0: 1b99 84be 6ab2 a63d eaab 88be e86b d63a
000000c0: 9b50 803d 0725 c73c 1ce7 483e 207f 1502
000000d0: 0680 573e ddce 0ebe 9a19 813c 4d1a 8a83
000000e0: acf0 0f83 8ad5 71bd b6bc 0cbe fe4d 8483
000000f0: 1de3 1e3e b1d8 3f3e 716d b53d 7e9c 4abe
00000100: cb35 7f3e c710 a0bd 6255 833e 1019 c8ba
00000110: ca4b 76bd b05e bfbc 0100 41be cfee b703
00000120: 3a24 4fbe d172 093e f017 78bc c17d 1903
00000130: a56f 3603 d7a6 683d 5f79 073e 82d7 2604
00000140: 60f0 2a03 b6d3 7c01 ca52 0803 340f 2483
00000150: 8bf8 7983 9669 1484 ad2a 3284 e370 4683
00000160: dc37 e682 1b0e b403 f2f9 6e02 83a2 9483
00000170: 346a 9202 6a2a 7602 feba a703 1f48 4304
00000180: 857d 8083 c402 8600 851e ff82 2873 8a03
00000190: d723 29be 7367 4cbe 7730 c1bd 7a0d 583e
000001a0: 19e4 87be 55d8 aa3d 8f09 8cbe 1967 da3a
000001b0: 6983 833d d18d cc3c 5be6 4d3e c7c1 4184
000001c0: 65dc 5c3e bf59 12be 9449 843c c23f ec81
000001d0: f82b f402 ade7 77bd a03a 10be 5f6c 3e03
000001e0: 511c d4bd 4746 00be e153 72bd a164 073e
000001f0: ca66 2abe 5506 563d b6ad 2fbe 0ac9 883a
00000200: a6bb 243d c864 803c dd07 013e 9a90 2602
00000210: 1367 0a3e cb92 b7bd 05ff 253c c806 3b03
00000220: a640 a382 ec59 1bbd f0dd b4bd 633d 9c83
00000230: 86e5 1003 98de 7383 5cc5 0283 5814 cc02
00000240: 785d 5902 8bff db83 8130 3b83 79a8 4c03
00000250: 709b 9703 8860 8083 ccaa 6303 9d0a 0c83
00000260: da57 9183 92d7 c602 1703 5803 1cb5 b983
00000270: f6d6 9703 ba0d 6783 9e67 9103 c2fd 1b02
00000280: 79e3 36bd ba63 5cbd bbdc d0bc d802 693d
00000290: 35ea 92bd c246 b83c 2785 97bd b70e f139
000002a0: c72e 8d3c 8604 dd3b 6c22 5e3d 15ad 2d03
000002b0: 4452 6e3d 6b4d 1ebd a553 8f3b 77b6 8483
000002c0: f0ca 2083 a8e5 85bc 53fd 1bbd eed8 b303
000002d0: 0f9c 1c83 34ae 3e03 5bd5 2183 8b63 b402
000002e0: 73a1 1b03 406c ed02 db0f 8802 de1b 9102
000002f0: 5501 8883 bc0c eb02 b149 7b82 f78f 2004
00000300: 1ee2 9282 2c28 9983 9a52 b482 5f3c ef02
00000310: b78a 3584 d56b 5703 66fd 7083 a70a 9e83
00000320: 8d3f 353e 658d 5a3e c9d7 ce3d 54b9 66be
00000330: 9e7d 913e c419 b6bd 23ab 953e b52c e3ba
00000340: 2908 8cbd 31f0 d9bc 44b9 5bbe 0009 0a81
00000350: 19e4 6bbe b8b3 1c3e 9cf8 8cbc afcb 8381
00000360: 4647 9183 86a3 843d c979 1a3e 5760 5903
00000370: 5f40 ea02 08c7 9182 7693 4603 6b89 2303
00000380: 5589 c582 61bf 4283 a691 9303 6137 1c03
00000390: dc4d 0e01 140f ca83 3372 ff82 f73f ba02
000003a0: 99a6 8783 024b 5683 d828 b802 e002 4883
000003b0: e56e 4803 c489 f981 2e74 4183 3aa7 9a83
000003c0: 8511 7383 fa87 b302 5bc6 5d02 e092 a102
000003d0: 7762 a903 da63 4183 8d79 8402 d897 b883
000003e0: 3818 1583 2435 2a03 621f 0803 79f3 a383
000003f0: 133f c583 7961 0603 65d0 fb82 43ef f902
-0.04400069 -0.053258862 -0.025121858 0.056053378 -0.07068447 0.022099702 -0.072906725 0.00044398336
0.016979773 0.006658441 0.053432073 -7.698407e-37 0.057304326 -0.03809375 0.0042950413 -1.468809e-36
5.9450377e-37 -0.01611103 -0.03751778 -7.838253e-37 -8.714269e-37 6.6982416e-37 -1.3061156e-36 5.98129e-37
9.110067e-37 5.559999e-38 4.9446446e-37 -5.231757e-38 -1.6209672e-36 -9.199253e-37 1.230464e-37 2.9831598e-38
6.585468e-37 -1.9746549e-37 1.4478272e-37 2.0976866e-37 9.8680155e-37 -6.268424e-37 -7.1098768e-37 -9.049774e-37
-0.16117387 -0.1949374 -0.09205054 0.20587103 -0.2589806 0.081394985 -0.2669366 0.0016359063
0.06265374 0.024309648 0.19619411 1.0983274e-37 0.21044931 -0.139461 0.015759278 -8.116949e-37
-4.23002e-37 -0.059041537 -0.13743863 -7.776169e-37 0.15516324 0.18735005 0.08858765 -0.1978626
0.24922864 -0.078157 0.2565108 -0.0015266258 -0.06013087 -0.02336058 -0.18847658 1.0810601e-36
-0.20228663 0.13422705 -0.015142426 4.5107017e-37 5.3613155e-37 0.056799736 0.13229893 1.9612163e-36
5.0234447e-37 4.6436985e-38 4.0061845e-37 -4.821272e-37 -7.3459837e-37 -1.7445799e-36 -2.0943395e-36 -5.831656e-37
-3.3827524e-37 1.0582688e-36 1.7557209e-37 -8.735969e-37 2.151373e-37 1.8085398e-37 9.858309e-37 2.2955256e-36
-7.551982e-37 1.2306949e-38 -3.74864e-37 8.13735e-37 -0.16517578 -0.19961338 -0.09433072 0.21098891
-0.26541212 0.08342043 -0.27351043 0.0016662806 0.06421549 0.024969967 0.20107405 -2.277602e-36
0.21568449 -0.14292048 0.016148366 -8.6784196e-38 3.5877815e-37 -0.060523678 -0.14084864 5.5960386e-37
-0.103569634 -0.12526809 -0.059162024 0.1322198 -0.16640773 0.052252132 -0.17156109 0.0010435891
0.040218018 0.015673056 0.12600656 1.2237253e-37 0.13515882 -0.089635454 0.010131602 5.4962145e-37
-2.3987804e-37 -0.037927553 -0.08831394 -9.18295e-37 4.2581277e-37 -7.1666807e-37 -3.8430124e-37 2.9986783e-37
1.5969466e-37 -1.2930333e-36 -5.501004e-37 6.014361e-37 8.910669e-37 -7.545326e-37 6.690537e-37 -4.1154486e-37
-8.542504e-37 2.9217216e-37 6.348024e-37 -1.0914903e-36 8.924335e-37 -6.7900556e-37 8.546123e-37 1.1460426e-37
-0.04465053 -0.053806044 -0.025495877 0.056887478 -0.07173578 0.022494677 -0.07398444 0.00045978065
0.01723422 0.006744924 0.054232046 5.103882e-37 0.058183923 -0.03864805 0.004373985 -7.800155e-37
-4.7252735e-37 -0.01634486 -0.038083386 1.0570479e-36 -4.6023426e-37 5.6035957e-37 -4.7558568e-37 2.6505758e-37
4.573574e-37 3.4886153e-37 1.9992505e-37 2.132183e-37 -7.993667e-37 3.4537456e-37 -1.8461716e-37 1.8874015e-36
-2.1582557e-37 -9.001755e-37 -2.6496034e-37 3.5152545e-37 -2.1340142e-36 6.3306606e-37 -7.082055e-37 -9.288851e-37
0.17700024 0.21343 0.100997515 -0.22531635 0.2841615 -0.08891633 0.2923213 -0.0017332049
-0.06837494 -0.02660379 -0.21457392 -2.5353054e-38 -0.23036231 0.15302932 -0.01720839 -4.841407e-38
-8.538698e-37 0.06476502 0.1508552 6.388116e-37 3.4420157e-37 -2.1420073e-37 5.8356247e-37 4.8059143e-37
-2.9025373e-37 -5.723117e-37 8.673323e-37 4.590785e-37 2.6137142e-38 -1.1875955e-36 -3.753443e-37 2.7366958e-37
-7.972836e-37 -6.2975053e-37 2.7059813e-37 -5.877802e-37 5.890202e-37 -9.166584e-38 -5.685097e-37 -9.0897e-37
-7.1431393e-37 2.6379733e-37 1.6293441e-37 2.3741126e-37 9.955534e-37 -5.6832226e-37 1.9465424e-37 -1.084941e-36
-4.3814966e-37 5.0019512e-37 4.0002834e-37 -9.6361775e-37 -1.15931005e-36 3.9490954e-37 -3.7000748e-37 3.6724591e-37

seq.2.bias f4 [20]
00000000: f57a f53d f318 f0bd 64a6 003f 1585 933e
00000010: 454f 72bd 67de 023f 9598 913e e33f 65bd
00000020: a0cc f33d a843 13bd 8e47 a43e 1f00 a8bd
00000030: cbeb 82bd 2432 423e 6ce2 8e3e 9544 2fbd
00000040: 402f 89bd 3805 743e 00e4 f53d 947c 973e
0.11986343 -0.11723509 0.5025389 0.2881247 -0.05915763 0.5112061 0.28436723 -0.05596913
0.119042635 -0.035953194 0.32085842 -0.08203148 -0.0639263 0.1896444 0.2790712 -0.042790014
-0.06698465 0.23830116 0.12006378 0.29587233

seq.4.weight f4 [1, 20]
00000000: 181b 9abd 9260 9702 4d3e 8dbe 0ae1 873e
00000010: cc27 8702 23c1 90be aa73 35be ab42 7202
00000020: da61 9cbd 2870 5e02 54d9 9a3e 4065 dc82
00000030: fbfb 3f02 5570 633e 42c9 bd3e 5bb2 ae02
00000040: b590 5e02 e800 ac3e 25af 8bbd ad84 a23e
-0.07524699 2.2242885e-37 -0.27586594 0.2653888 1.985931e-37 -0.28272352 -0.17719904 1.7798485e-37
-0.07635851 1.6342171e-37 0.30243933 -3.238421e-37 1.4104779e-37 0.2221082 0.3706761 2.5669373e-37
1.6351513e-37 0.3359444 -0.068205155 0.3174185

seq.6.weight f8 [1, 1]
00000000: 0000 0000 0000 2440
10.0
