examples/xydoubleintegrator/models/100r100r2/model.pt (torch, 45255 bytes, 6 tensors)

seq.0.weight f4 [100, 4]
0	0x3eca2425	0.394807
1	0xbea667a4	-0.32500947
2	0xbe7e1494	-0.24812537
3	0xbe662921	-0.22476627
4	0xbeb35c23	-0.35031232
5	0xbeb2f3d7	-0.3495166
6	0xbda183a9	-0.0788644
7	0xbde0c0c6	-0.109742686
8	0x3e97e741	0.2966862
9	0xbc3f36a0	-0.011670738
10	0xbe3c7430	-0.18403697
11	0x3ee06836	0.43829507
12	0xbde42c25	-0.111412324
13	0xbea02cdb	-0.31284222
14	0xbe10baf0	-0.14133811
15	0xbdf1ce9e	-0.11806987
16	0xbf01896c	-0.50600314
17	0x39ea00f7	0.00044632677
18	0x3e29834b	0.1655399
19	0x3e87130b	0.26381716
20	0xbdd30805	-0.10304264
21	0x3db3d58d	0.08780966
22	0xbf110311	-0.56645304
23	0x3e96b2ca	0.2943328
24	0x3ec3017d	0.38087073
25	0x3dc95ed5	0.09832541
26	0xbf03321f	-0.51248354
27	0xbeca88f9	-0.39557627
28	0xbe5d9da4	-0.21642166
29	0x3dd34741	0.10316325
30	0xbe04e436	-0.1297768
31	0x3e548c4c	0.20756644
32	0xbed1c3c6	-0.40969676
33	0xbea832a8	-0.32851148
34	0xbeca20a4	-0.39478028
35	0xbe1d064c	-0.15334433
36	0x3e8f07e2	0.27935702
37	0xbe4fa8a6	-0.20279178
38	0x3e6e5a9f	0.23276757
39	0x3dc4d5c4	0.09611085
40	0x3f294162	0.6611539
41	0x3e8793ab	0.2647985
42	0x3dd92187	0.10602098
43	0x3d938841	0.07203723
44	0x3f16e48f	0.589425
45	0x3f040ece	0.5158509
46	0x3e76e343	0.24110131
47	0xbead5720	-0.33855534
48	0xbe627bf5	-0.22117598
49	0x3d9caa64	0.07649687
50	0x3ec36eb3	0.38170394
51	0xbe89fd33	-0.26950988
52	0x3ef2db08	0.47432733
53	0xbec5c5f6	-0.38627595
54	0x3eb97dc4	0.36228764
55	0xbe28d48a	-0.16487327
56	0x3ef4b212	0.47792107
57	0xbe0465b0	-0.12929416
58	0x3dc97567	0.09836846
59	0x3d14878d	0.036262084
60	0x3e68abaf	0.22721742
61	0xbe76fee9	-0.24120678
62	0xbede2ca4	-0.43393433
63	0x3eaecaeb	0.3413919
64	0xbead7c22	-0.33883768
65	0xbe7e669b	-0.24843828
66	0xbe8335fb	-0.2562712
67	0xbee58352	-0.44826752
68	0xbeeb53ae	-0.4596228
69	0xbe9c0978	-0.30475974
70	0x3ee7f559	0.45304373
71	0x3dbe78da	0.09300394
72	0xbed1715c	-0.409068
73	0x3ee9350c	0.45548284
74	0x3e6f2e42	0.2335749
75	0x3e5aee93	0.21380071
76	0x3f1359c3	0.5755884
77	0xbda13cb0	-0.07872903
78	0xbd1f3b0b	-0.038874667
79	0x3e49773a	0.19674388
80	0x3ea1e35f	0.31618783
81	0x3baa2677	0.0051925736
82	0xbe153e37	-0.14574514
83	0xbef31660	-0.47478008
84	0x3e12db01	0.14341356
85	0x3eb402d7	0.35158417
86	0x3eef191f	0.46698853
87	0xbeb00159	-0.34376028
88	0xbe3a81fe	-0.1821365
89	0x3e4fee70	0.203058
90	0x3e3b11cc	0.18268508
91	0x3ebd7dd7	0.3701007
92	0x3f2145be	0.62997043
93	0x3f2e1cb9	0.6801258
94	0xbcc6246b	-0.024187287
95	0x3df6fa49	0.12059457
96	0x3d61a2b8	0.05508682
97	0x3ee4c661	0.446826
98	0x3e224695	0.15847237
99	0x3ed484b6	0.415075
100	0xbd89c825	-0.06727628
101	0x3d9bd922	0.07609774
102	0x3ea1a9b0	0.31574774
103	0x3ec940c2	0.3930722
104	0x3f05c825	0.5225852
105	0xbebcff28	-0.3691342
106	0xbe27ea4e	-0.16397974
107	0x3d4c5b09	0.049891505
108	0x3cf32df0	0.02968499
109	0xbe57bbbc	-0.21067709
110	0x3e42b3ba	0.19013873
111	0xbebdb839	-0.37054613
112	0xbd73edd8	-0.059552997
113	0xbcd37b65	-0.025815675
114	0xbede368c	-0.4340099
115	0x3df06ea1	0.11739851
116	0xbb7ee9e2	-0.003889673
117	0x3e763813	0.24044828
118	0xbdc163aa	-0.094428375
119	0x3e6453c4	0.22297579
120	0x3e75c450	0.24000669
121	0xbee22e4a	-0.4417594
122	0xbed0c6d7	-0.40776703
123	0x3eb54323	0.35402784
124	0x3f22e3c7	0.6362881
125	0xbba8ceb8	-0.005151596
126	0xbe85eac6	-0.2615568
127	0x3e19d2a3	0.15021758
128	0x3d88664c	0.066601366
129	0xbeebee34	-0.46080172
130	0xbeaf8d2d	-0.34287396
131	0x3d282147	0.04104736
132	0x3eb545dc	0.3540486
133	0x3a6a7d99	0.0008945107
134	0xbd245bcc	-0.040126607
135	0xbd8cfa88	-0.068837225
136	0xbda8f7ba	-0.08250375
137	0xbe953b01	-0.2914658
138	0xbec176b3	-0.37785873
139	0xbe850f19	-0.2598808
140	0x3cab1d19	0.020887898
141	0x3e13ca37	0.14432608
142	0x3eead4bb	0.45865425
143	0x3eb1b179	0.34705713
144	0xbea2a1fa	-0.31764203
145	0xbecba294	-0.39772475
146	0xbe02f6ba	-0.12789431
147	0x3eb29e71	0.34886506
148	0xbf09dd91	-0.5385371
149	0x3e781d1d	0.24229856
150	0x3eac6432	0.33670193
151	0xbeb3921d	-0.35072413
152	0x3d8e1b66	0.069388196
153	0x3f0214ff	0.5081329
154	0x3e9fc34f	0.31203696
155	0x3ea3727b	0.3192328
156	0xbf58a291	-0.84623057
157	0x3f231f81	0.63719946
158	0xbe2edeb3	-0.1707714
159	0x3e2c9454	0.16853458
160	0x3eeb47dc	0.45953262
161	0x3e92b5f6	0.2865445
162	0x3ce8f719	0.028438138
163	0xbe93c3c4	-0.28860295
164	0x3edaa895	0.42706743
165	0xbee7c5f6	-0.4526822
166	0x3e2cc9d3	0.16873865
167	0x3ead1814	0.33807433
168	0x3f7bb04b	0.98315877
169	0xbdffcf25	-0.124906816
170	0x3e6208d2	0.22073677
171	0xbc40d47a	-0.011769408
172	0xbeec1ed3	-0.46117267
173	0xbf094432	-0.5361968
174	0xbd6ae6d8	-0.057349056
175	0xbd9a22d8	-0.07526177
176	0xbeb8542b	-0.36001715
177	0x3e0777a6	0.13229236
178	0x3d8a3346	0.06748061
179	0xbeb0b9fe	-0.345169
180	0x3effda4c	0.49971235
181	0xbe8fe4e5	-0.2810432
182	0x3db5faa3	0.08885696
183	0xbda48958	-0.08034009
184	0x3f5ea50f	0.8697061
185	0x3eb4e9d9	0.35334662
186	0x3e5181f8	0.20459735
187	0xbd17484c	-0.036934182
188	0xbecfbb66	-0.4057266
189	0x3e4c7e85	0.19970138
190	0xbcfee503	-0.03111506
191	0xbee46e01	-0.44615176
192	0xbe88fc8b	-0.26755175
193	0x3ed30aab	0.41219077
194	0xbf00e0a8	-0.503428
195	0x3eada5cd	0.33915558
196	0x3e13cd58	0.14433801
197	0xbe2bd1f2	-0.16779307
198	0xbea07209	-0.31337002
199	0x3e7666e0	0.24062681
200	0xbe9e1c76	-0.3088109
201	0x3ea1ac82	0.31576926
202	0x3e911d82	0.28342825
203	0x3eda10b2	0.42590863
204	0xbec43e9f	-0.38329026
205	0x3f243fde	0.64159954
206	0x3e4e44ed	0.2014348
207	0x3e1ae356	0.15125784
208	0xbef90780	-0.48638535
209	0x3f03c9e2	0.51479924
210	0xbe11e353	-0.14246874
211	0xbd78dee6	-0.060759448
212	0xbf273f4a	-0.65330946
213	0x3e8b42d2	0.27199417
214	0xbe14ed08	-0.14543545
215	0xbd20b04b	-0.039230626
216	0x3efc67ec	0.49298036
217	0x3ebda2d1	0.37038282
218	0x3da73b57	0.08165615
219	0x3dcc4290	0.09973633
220	0xbe36cf30	-0.17852473
221	0xbef45b73	-0.4772602
222	0x3e7e057e	0.24806783
223	0x3ed24ecb	0.4107574
224	0x3d93eb9f	0.072226755
225	0x3e6ff09c	0.23431629
226	0x3e0d8f05	0.13824089
227	0x3dde0011	0.108398564
228	0xbe526010	-0.20544457
229	0x3e54c271	0.20777299
230	0xbea24c74	-0.31698954
231	0xbec4c525	-0.3843166
232	0xbf1e2db0	-0.61788464
233	0x3ee9cb33	0.4566284
234	0xbdd8c2a9	-0.105840035
235	0x3d1b2006	0.037872337
236	0xbda0d4d2	-0.07853092
237	0x3ebbfb5a	0.36715204
238	0x3b9749cc	0.0046169516
239	0x3e92b822	0.28656107
240	0xbe26dac0	-0.16294384
241	0x3e9f5926	0.31122702
242	0xbe827c8c	-0.25485647
243	0x3dec25cc	0.11530647
244	0x3e9cbc6e	0.3061251
245	0xbee8928f	-0.45424315
246	0xbd17420e	-0.03692823
247	0xbea178ce	-0.3153748
248	0xbf08d3a7	-0.53447956
249	0x3f1d0d49	0.61348397
250	0xbd3f5717	-0.046713915
251	0x3db18d97	0.08669584
252	0xbe9096c6	-0.2824003
253	0xbebeccde	-0.37265676
254	0xbebceb96	-0.36898488
255	0xbdf4b353	-0.11948266

seq.0.bias f4 [100]
0	0xbe6b6566	-0.22987899
1	0x3e890ee4	0.26769173
2	0xbf0c4da6	-0.5480598
3	0x3e8a8ecd	0.27062073
4	0xbe1f5799	-0.1556076
5	0xbed117e1	-0.4083853
6	0x3d4ff28e	0.050768428
7	0xbf1f89a1	-0.6231938
8	0xbeec5505	-0.46158615
9	0x3e6442b9	0.22291078
10	0x3f06f7be	0.52721775
11	0xbe95c84d	-0.2925438
12	0xbee5ed09	-0.44907406
13	0xbe7a0c2f	-0.2441871
14	0xbebe0cf0	-0.37119246
15	0x3d3e5a44	0.046472803
16	0xbdc67275	-0.096898
17	0x3e48200d	0.19543476
18	0x3eda3940	0.42621803
19	0xbe54b2c2	-0.20771316
20	0x3e6aa44c	0.22914237
21	0xbeff336e	-0.49843925
22	0xbe22e878	-0.15908992
23	0x3f10b50d	0.5652626
24	0xbe22ba33	-0.15891342
25	0xbd9171f2	-0.071018115
26	0x3efc30bf	0.4925594
27	0xbe0a814e	-0.13525888
28	0x3b125e84	0.0022334168
29	0xbf114f76	-0.5676187
30	0x3de32bf2	0.11092366
31	0x3ee6005f	0.44922158
32	0x3d128822	0.035774358
33	0xbecd8996	-0.40144032
34	0x3c8a6a64	0.016896434
35	0x3ec948a0	0.3931322
36	0x3eb6a895	0.35675493
37	0xbeaadf1a	-0.33373338
38	0x3e28f23b	0.16498654
39	0xbe51c10a	-0.20483795
40	0xbe38aa43	-0.180337
41	0x3d3903fd	0.04516982
42	0xbddf0fa8	-0.10891658
43	0x3ead3752	0.3383127
44	0xbef15129	-0.47132233
45	0xbe220085	-0.1582051
46	0x3f0435a6	0.5164436
47	0x3ef866ee	0.4851603
48	0x3e87c674	0.26518595
49	0xbe8c7228	-0.27430844
50	0xbeda27bc	-0.4260844
51	0xbef64317	-0.4809806
52	0x3ed75c7e	0.42062753
53	0x3e968abb	0.29402718
54	0xbe3fc8f5	-0.18729003
55	0x3ef30f1e	0.4747247
56	0xbf0b36c4	-0.5438044
57	0xbe80aa84	-0.25130093
58	0x3f23bd35	0.6396058
59	0xbf447641	-0.7674294
60	0xbeb0b177	-0.34510395
61	0xbdbbdb56	-0.091726944
62	0xbd62c94b	-0.05536775
63	0x3e477c64	0.19481045
64	0x3e970cfa	0.29502088
65	0x3efa5326	0.48891562
66	0xbd018ff0	-0.03163141
67	0x3ec96da5	0.39341465
68	0xbeb76024	-0.35815537
69	0x3eace6ba	0.3376978
70	0x3dbe78a0	0.09300351
71	0x3ea14ae1	0.3150244
72	0xbe70476b	-0.23464744
73	0xbd3f0658	-0.04663691
74	0x3dc19da9	0.094538994
75	0x3ef94ae1	0.4868994
76	0x3e6afd24	0.22948128
77	0xbea0ddc2	-0.31419188
78	0xbedc1a93	-0.42989025
79	0xbe615638	-0.22005546
80	0xbc5cc8b0	-0.013475582
81	0xbdcee7cd	-0.10102806
82	0x3e98f917	0.2987754
83	0xbe3fadbd	-0.1871862
84	0xbec974a1	-0.39346793
85	0x3ed39b7c	0.41329563
86	0x3f173fb5	0.59081584
87	0x3e834349	0.25637272
88	0xbed4025c	-0.4140805
89	0x3dcf65bc	0.10126826
90	0xbd66298c	-0.056191966
91	0x3d1c1806	0.038108848
92	0x3e4a744d	0.19770928
93	0xbd74669f	-0.05966818
94	0xbe54a855	-0.20767339
95	0x3d3cf9c2	0.046136625
96	0xbeadc870	-0.33941984
97	0x3e8e1b5d	0.27755252
98	0x3d88d676	0.0668153
99	0x3e52650f	0.20546363

seq.2.weight f4 [100, 100]
0	0x3d208b2f	0.039195236
1	0x3dc6d8ca	0.09709318
2	0x3e0064c7	0.12538444
3	0xbc36f1fc	-0.011166092
4	0x3d14b74d	0.03630762
5	0x3daa6393	0.083197735
6	0x3cd49c1c	0.025953345
7	0x3c9fc5bf	0.019503472
8	0x3d83a460	0.064278364
9	0xbdcc7610	-0.09983456
10	0xbdda333c	-0.106543034
11	0xbc687eb1	-0.014190362
12	0xbd6658bc	-0.056236967
13	0xbe160340	-0.14649677
14	0x3dbdfd1f	0.09276795
15	0xbbcf1fac	-0.0063209143
16	0x3d83eb47	0.0644136
17	0xbdc67bd5	-0.09691588
18	0xbd978b93	-0.073996685
19	0xbc33ca8a	-0.010973582
20	0x3d9219d9	0.07133836
21	0x3e0e1d68	0.13878405
22	0x3d7db4c3	0.061939966
23	0xbd6bfd2e	-0.057614498
24	0x3dacd178	0.084383905
25	0x3d501fed	0.050811697
26	0xbcb7a1bf	-0.022415994
27	0x3cecec07	0.02892114
28	0xbd7e396e	-0.062066488
29	0x3da451ca	0.080234125
30	0x3d28ed64	0.04124202
31	0x3e0c57e7	0.13705407
32	0x3d80f4e1	0.06296707
33	0xbccdee42	-0.025138024
34	0x3d8b0b6a	0.067892864
35	0xbddc29df	-0.10750174
36	0x3c4b733f	0.0124176135
37	0xbd2a9c2b	-0.04165284
38	0x3de8fc80	0.113762856
39	0x3d490a6e	0.049082212
40	0x3da958c5	0.082688846
41	0xbd5730f6	-0.052536927
42	0xbcae75c9	-0.021296399
43	0xbd4ecbdb	-0.05048738
44	0x3d252e97	0.040327635
45	0x3ddfa078	0.10919279
46	0x3e47a024	0.19494683
47	0x3d2b25e7	0.041784193
48	0xbd4aa2b7	-0.049471583
49	0xbca55b0f	-0.020185022
50	0x3d87c93b	0.066301785
51	0x3dbbf7a1	0.09178091
52	0xbd043009	-0.032272372
53	0x3d498d09	0.049206767
54	0xbd3f3921	-0.04668534
55	0x3d8d7791	0.06907571
56	0x3e0fd7b2	0.14047125
57	0xbc1e9782	-0.009679677
58	0xbda49fd8	-0.080383
59	0x3e0ba2ce	0.13636324
60	0xbd821e19	-0.06353397
61	0xbd672b8b	-0.05643801
62	0xbd9170ea	-0.07101615
63	0xbd02728b	-0.031847518
64	0x3d6b5adf	0.05745971
65	0xbdbbe898	-0.09175223
66	0xbd333101	-0.043747906
67	0x3dde74b5	0.10862104
68	0x3d2133f0	0.039356172
69	0xbe06c222	-0.13159993
70	0x3d97bb0f	0.074087255
71	0x3d3f1d37	0.04665872
72	0x3d9896d7	0.074506454
73	0xbdc25dd3	-0.09490552
74	0x3df36511	0.11884511
75	0x3e20e0a7	0.15710698
76	0xbc98bb2d	-0.01864394
77	0x3cd32ff7	0.025779707
78	0x3d8853ac	0.06656584
79	0xbd966e23	-0.07345226
80	0x3d0b63a1	0.03403056
81	0xbc003f79	-0.007827633
82	0xbdea7072	-0.114472285
83	0x3e39ad49	0.1813251
84	0xbda7c235	-0.08191339
85	0x3d6d9f61	0.058013324
86	0x3deda6fb	0.116041146
87	0x3d2c700a	0.042099036
88	0x3de767c3	0.11299088
89	0x3d43290a	0.04764656
90	0xbce4cd86	-0.027930032
91	0xbdc79afe	-0.09746359
92	0xbd34fe6f	-0.04418796
93	0x3bae3712	0.0053166235
94	0xbd8eaf35	-0.06967012
95	0xbd18f3df	-0.03734195
96	0x3dc7d783	0.097579025
97	0x3d1f39be	0.038873427
98	0xbd918e42	-0.07107212
99	0x3d50b6cc	0.05095558
100	0xbb08e415	-0.00208879
101	0x3dbc7134	0.09201279
102	0xbd57a6e0	-0.05264938
103	0x3cd5c7b4	0.026096202
104	0x3d2508e8	0.040291697
105	0xbd122e11	-0.035688464
106	0xbd44b839	-0.04802725
107	0x3d8901fe	0.06689833
108	0xbdd2f102	-0.10299875
109	0xbd2c9ce2	-0.042141803
110	0x3de8ad44	0.11361173
111	0xbd7155f6	-0.05891987
112	0x3d61b28b	0.055101912
113	0xbcc7b6b7	-0.024379117
114	0xbd2b2234	-0.041780666
115	0xbd1ed732	-0.038779445
116	0xbce15160	-0.027504623
117	0xbd2f94a3	-0.04286636
118	0x3d014dbd	0.031568278
119	0x3ded6a04	0.115924865
120	0xbd7b563e	-0.061361544
121	0x3dc2dc29	0.095146485
122	0xbc2f2c1c	-0.010691669
123	0xbc159ad7	-0.009131155
124	0x3df9d24e	0.121983156
125	0x3de2c1dc	0.11072132
126	0xbdb5b474	-0.08872309
127	0x3cad49b7	0.021153314
128	0x3c9e190f	0.019299058
129	0x3cd5f497	0.026117606
130	0x3db7d906	0.08976941
131	0xbd1c925a	-0.03822551
132	0xbd3bbdeb	-0.045835417
133	0x3d3d5b98	0.04622993
134	0x3c5df1a9	0.013546386
135	0xbd9f1d60	-0.07769275
136	0xbd8b9057	-0.0681464
137	0x3ddfb8cf	0.10923921
138	0x3dd0ab1c	0.101888865
139	0x3df62a2a	0.12019761
140	0x3d5a42ed	0.05328648
141	0xbdd22fb7	-0.10263007
142	0xbddbf2f7	-0.10739701
143	0xbdeafa70	-0.114735484
144	0x3d8a0643	0.067394756
145	0xbdf483f7	-0.11939233
146	0x3e49cd63	0.19707255
147	0x3daddb9c	0.08489153
148	0xbd60a4a8	-0.05484453
149	0x3d2fdce3	0.042935263
150	0xbc7a718b	-0.01528586
151	0x3d9ec9b0	0.077533126
152	0xbde2fc42	-0.110832706
153	0x3c86b20f	0.016442327
154	0x3dbd9041	0.0925603
155	0x3cedbd31	0.029020878
156	0x3dab332b	0.08359369
157	0x3c537e2f	0.0129085025
158	0x3e09602d	0.13415594
159	0x3e04dc09	0.12974562
160	0xbd9d207b	-0.07672211
161	0x3d964228	0.07336837
162	0x3d49ae2a	0.04923836
163	0x3d37855a	0.04480491
164	0x3dbc5d63	0.091974996
165	0x3d9bfff8	0.076171815
166	0x3d45cde7	0.048292067
167	0x3d5b1291	0.053484503
168	0x3d5a6dc0	0.053327322
169	0xbc82ecd1	-0.015982063
170	0xbc0e6cc9	-0.008692929
171	0x3c29a5d3	0.010354477
172	0xbd3ec28a	-0.046572246
173	0x3db149c5	0.086566485
174	0x3da0ed88	0.078578055
175	0xbe313d98	-0.17308652
176	0x3c86a8bf	0.016437886
177	0x3d2d95b9	0.042379115
178	0x3d9fdfe5	0.07806376
179	0xbd683824	-0.056694165
180	0x3d9ae5f8	0.07563394
181	0xbd0589d2	-0.03260214
182	0x3bbd9f25	0.005786794
183	0x3e100e4f	0.14067958
184	0x3d12c084	0.03582813
185	0x3daf511b	0.085603915
186	0x3e0d2bf9	0.13786305
187	0xbceaf641	-0.028681876
188	0x3d88549f	0.06656765
189	0x3c793019	0.015209221
190	0x3c268311	0.010163085
191	0x3d4684f9	0.048466656
192	0x3dfbde98	0.12298316
193	0xbd969a39	-0.073536344
194	0xbd7b071c	-0.061286077
195	0x3ceb5124	0.028725214
196	0xbd9d9452	-0.076943055
197	0x3d17a05d	0.03701817
198	0xbdab8ecd	-0.083768465
199	0xbd67b3c1	-0.05656791
200	0x3d1aaef2	0.037764497
201	0xbcc868a4	-0.024463959
202	0x3db9fbd9	0.09081239
203	0x3cd37032	0.025810335
204	0x3d9d6bc7	0.076865725
205	0x3d10fbcf	0.035396393
206	0xbd1f27d7	-0.038856354
207	0x3d3a269a	0.04544697
208	0xbd5b45d5	-0.053533394
209	0xbd564c60	-0.05231893
210	0x3e36b874	0.17843801
211	0x3decd95e	0.11564897
212	0xbd444760	-0.04791963
213	0xbcb08050	-0.02154556
214	0xbbe9ba04	-0.0071327705
215	0x3bd25384	0.0064186472
216	0x3d0af58a	0.03392557
217	0x3da7f860	0.08201671
218	0x3d9a519f	0.07535099
219	0x3d3088d1	0.04309923
220	0xbd025b3d	-0.031825293
221	0x3d87b7af	0.06626832
222	0xbd780d01	-0.060559276
223	0x3b1b6098	0.0023708697
224	0x3dcd5f79	0.100279756
225	0x3c9c8e74	0.019110896
226	0x3d1c83bb	0.038211565
227	0x3d9c82df	0.07642149
228	0xbe01412b	-0.12622516
229	0x3d4f299e	0.0505768
230	0xbd230053	-0.03979523
231	0x3db4bdab	0.08825239
232	0x3da94f0f	0.08267032
233	0xbd219576	-0.039449178
234	0x3c5074a0	0.012723118
235	0x3ca9ce70	0.02072832
236	0xbd4256d3	-0.047446083
237	0x3dee776f	0.11643874
238	0x3d6122a4	0.054964676
239	0xbb85b006	-0.0040798215
240	0x3cea47d8	0.02859871
241	0xbc95ba26	-0.018277239
242	0xbca34d02	-0.019934181
243	0x3a5ec1d0	0.0008497508
244	0xbd17cdd6	-0.037061535
245	0xbc5fbae5	-0.013655399
246	0x3d2d7972	0.042352147
247	0xbac918ec	-0.001534251
248	0xbadfb4c7	-0.0017067426
249	0x3a8fffa3	0.001098622
250	0x3df362ef	0.118841045
251	0x39ba2c29	0.00035509586
252	0x3dbc988d	0.09208784
253	0x3d8a7313	0.0676023
254	0x3ce1295a	0.027485538
255	0xbd3d6526	-0.04623904

seq.2.bias f4 [100]
0	0x3b93abbc	0.0045065563
1	0x3d05c6b8	0.032660216
2	0x3d202210	0.039094985
3	0x3d9f3c4c	0.077751726
4	0xbe27a1c2	-0.163703
5	0xbd524e06	-0.05134394
6	0xbc95c5d7	-0.018282814
7	0xbd9b1486	-0.07572274
8	0xbe1ace9d	-0.15117879
9	0x3ce71b5d	0.02821129
10	0xbde6a953	-0.11262765
11	0xbd2fd986	-0.042932056
12	0xbc7bcb66	-0.015368318
13	0xbdb265f3	-0.087108515
14	0xbdfbdad6	-0.12297599
15	0x3c6793ae	0.014134331
16	0xbcb23b61	-0.02175683
17	0xbbbf6444	-0.00584081
18	0x3c70e1c7	0.014702267
19	0x3dace3a9	0.0844186
20	0xbd42b251	-0.047533337
21	0xbd98f885	-0.07469276
22	0x3ca50c84	0.02014757
23	0x3dc281c2	0.094974056
24	0xbdff9e13	-0.12481322
25	0x3d066cf1	0.03281874
26	0xbd427416	-0.04747399
27	0xbd9242be	-0.07141636
28	0xbc8bc81f	-0.017063199
29	0x3ce43a4d	0.027859831
30	0xbc812a94	-0.015767373
31	0x3c80c21e	0.015717562
32	0xbe3c91be	-0.18414971
33	0x3d78bdf6	0.060728036
34	0xbdbd304b	-0.09237727
35	0x3dffd67d	0.12492082
36	0xbd64de70	-0.055876195
37	0xbc6bcb19	-0.014391684
38	0xbdc516fa	-0.09623523
39	0x3d08adc9	0.03336886
40	0xbd2d629c	-0.04233037
41	0xbd36837c	-0.044558987
42	0x3d8900f0	0.06689632
43	0x3c00f6a9	0.007871308
44	0xbdb169c7	-0.086627536
45	0xbdb2321e	-0.08700965
46	0x3d897c82	0.06713201
47	0x3c7c87c0	0.015413225
48	0x3d53add1	0.051679436
49	0xbce1406d	-0.02749654
50	0xbd2e79e7	-0.042596724
51	0xbd5427c9	-0.051795755
52	0x3da0f09f	0.07858395
53	0xbdc8b4e8	-0.0980013
54	0x3de05bcf	0.10955011
55	0x3d8b5ae5	0.06804446
56	0xbd260a07	-0.040536907
57	0xbdcbbd14	-0.09948173
58	0x3da029cf	0.07820474
59	0xbc03a3ba	-0.008034641
60	0xbd54b80d	-0.051933337
61	0xbde43337	-0.11142581
62	0xbcbe13c7	-0.02320279
63	0xbd8d44ec	-0.068979114
64	0xbe3b6f96	-0.18304285
65	0x3d288624	0.04114355
66	0xbd9e5f30	-0.07732999
67	0xbe80e58d	-0.25175133
68	0xbe30b880	-0.17257881
69	0xbd26c32a	-0.040713467
70	0xbda90217	-0.08252352
71	0xbd21c8c3	-0.039498102
72	0xbcc2d559	-0.023783373
73	0xbd641dda	-0.05569253
74	0xbd1ebe77	-0.03875586
75	0x3c21829a	0.009857798
76	0xbdb651d4	-0.08902326
77	0x3bd60e18	0.006532442
78	0x3cffa265	0.031205365
79	0xbcc41d3d	-0.023939723
80	0xbce4b2cd	-0.02791729
81	0x3b89b93f	0.0042029913
82	0xbc044999	-0.008074188
83	0xbdb710ef	-0.08938777
84	0x3cf43717	0.029811425
85	0xbbd0ae7e	-0.0063684573
86	0xbc109af4	-0.008826006
87	0xbda3b592	-0.07993616
88	0x3d693187	0.056932
89	0x3d8cd331	0.06876219
90	0xbd022921	-0.031777505
91	0xbd9498bd	-0.07255695
92	0xbd9912b3	-0.0747427
93	0xbdb1fd0b	-0.08690842
94	0x3c9d2291	0.019181522
95	0x3d3ccfeb	0.046096724
96	0x3c027d33	0.00796442
97	0x3d0ffd24	0.035153523
98	0xbcc0838d	-0.023500228
99	0xbd9cb93d	-0.07652519

seq.4.weight f4 [2, 100]
0	0x3e7941b0	0.24341464
1	0xbea4ca30	-0.32185507
2	0xbe7edbd5	-0.24888547
3	0xbe80a1e6	-0.2512352
4	0x3e070f5a	0.1318945
5	0x3dc1b769	0.09458811
6	0xbebff286	-0.37489718
7	0xbe917c3e	-0.28415102
8	0x3e65c748	0.22439301
9	0xbe66743a	-0.22505274
10	0x3edd1410	0.4317937
11	0x3ec2294d	0.37922135
12	0x3cec76a5	0.028865168
13	0x3e47dc00	0.19517517
14	0xbe6bad23	-0.23015265
15	0xbe2bdbe9	-0.16783108
16	0x3f235da0	0.63814735
17	0x3e227f3a	0.15868846
18	0xbefd3886	-0.49457186
19	0x3c8dc622	0.017306391
20	0x3e804938	0.2505586
21	0xbeb99652	-0.36247498
22	0xbd776fda	-0.060409404
23	0xbe19b3a3	-0.15009932
24	0x3e32e912	0.17471722
25	0x3e53609f	0.20642327
26	0xbeac44b6	-0.33646172
27	0x3e80c998	0.25153804
28	0xbe16cb59	-0.14726008
29	0x3e0daed4	0.13836223
30	0xbd99a044	-0.07501271
31	0xbd855d3e	-0.06511925
32	0xbddef27d	-0.10886095
33	0x3e1afa10	0.15134454
34	0xbe9f7d1a	-0.31150132
35	0x3e9e8243	0.30958757
36	0xbd83916a	-0.0642422
37	0x3ec37f1f	0.38182923
38	0xbefdcb1e	-0.4956903
39	0xbdd34417	-0.103157215
40	0x3ea076dc	0.31340683
41	0x3dd9bcc5	0.10631708
42	0xbdb2ca3c	-0.087299794
43	0x3d910724	0.0708144
44	0xbe7bbf53	-0.24584703
45	0x3dc4d5e4	0.09611109
46	0x3da518c8	0.08061367
47	0x3e19e3ad	0.15028258
48	0x3dbf66a2	0.093457475
49	0xbdf8d876	-0.12150662
50	0xbc3cfc75	-0.0115348
51	0x3caafe58	0.020873234
52	0x3c705f72	0.014671193
53	0x3cf02d6d	0.029318536
54	0xbef3a306	-0.47585315
55	0xbdcbc6ab	-0.09950002
56	0x3d230f44	0.03980948
57	0xbead8d65	-0.33896938
58	0x3dd7a01a	0.10528584
59	0x3ed01e34	0.40648043
60	0xbec5a32a	-0.38601047
61	0x3ea0ea4a	0.31428748
62	0x3ef008aa	0.4688161
63	0x3c85003f	0.016235469
64	0xbe67c79d	-0.2263474
65	0xbe528ee9	-0.20562328
66	0x3db823b7	0.08991187
67	0x3ddb2bf3	0.10701742
68	0x3c402a19	0.011728787
69	0x3e77d54a	0.24202457
70	0x3e2dce5f	0.16973256
71	0xbcfde321	-0.030992093
72	0x3e207142	0.15668204
73	0x3d40a831	0.0470354
74	0xbd978c95	-0.07399861
75	0xbe33191f	-0.17490052
76	0x3ea66c6a	0.32504588
77	0x3cb919fb	0.022595396
78	0x3ee70980	0.45124435
79	0xbf1ca55d	-0.61189824
80	0xbecd57c8	-0.40106034
81	0xbd254707	-0.04035094
82	0x3ee827eb	0.45342955
83	0xbea4679b	-0.32110295
84	0x3cbf2524	0.02333314
85	0xbccebd87	-0.025236858
86	0x3ecd4b11	0.40096334
87	0x3e0a813c	0.13525862
88	0x3ed29754	0.4113108
89	0x3e75905a	0.23980847
90	0x3d19e212	0.037569113
91	0xbc9df18a	-0.019280214
92	0xbec0cb03	-0.37654886
93	0x3f0bba51	0.5458117
94	0x3df3705f	0.118866675
95	0xbddfc990	-0.10927117
96	0xbd867d42	-0.0656686
97	0x3db3a69b	0.08772012
98	0xbbd7cd54	-0.0065857563
99	0x3e101030	0.14068675
100	0xbef1fa31	-0.47261193
101	0xbea0b39c	-0.3138703
102	0xbe02896b	-0.12747733
103	0xbed1ec51	-0.41000608
104	0xbee6b2eb	-0.4505838
105	0xba438dce	-0.000745979
106	0x3dbfd159	0.09366102
107	0x3da3976e	0.07987867
108	0xbee73c67	-0.4516327
109	0xbe2d9c27	-0.16954099
110	0xbe42f812	-0.19039944
111	0x3edd7893	0.43256053
112	0xbe80bb61	-0.2514296
113	0xbd0c7c24	-0.034298077
114	0x3f1ca7e7	0.611937
115	0xbecaefb3	-0.39636
116	0x3d90e80b	0.07075509
117	0xbe86d4f5	-0.26334348
118	0x3ebcb41b	0.3685616
119	0x3efa87cb	0.48931727
120	0xbd0acb4e	-0.033885293
121	0x3db50de0	0.08840537
122	0x3e8726e8	0.2639687
123	0x3e13717a	0.14398757
124	0x3ec88a69	0.391681
125	0x3eab6292	0.3347364
126	0xbecad33e	-0.3961429
127	0x3e639ccb	0.2222778
128	0x3f30725a	0.68924487
129	0xbe0ed91d	-0.1395001
130	0x3d27c22d	0.040956665
131	0x3c8e7fc4	0.017394908
132	0xbf2869b1	-0.6578627
133	0xbef3ef3a	-0.47643453
134	0x3f202741	0.62559897
135	0x3f172f93	0.5905697
136	0x3ec6f2ec	0.3885721
137	0xbc83b624	-0.016078062
138	0xbe9d70dd	-0.3075017
139	0x3ea65aed	0.32491246
140	0x3c30aeaf	0.010783835
141	0x3b2ee580	0.0026687086
142	0x3d17ce36	0.037061892
143	0x3e46bce8	0.19408
144	0xbec93153	-0.39295444
145	0x3d954b3a	0.07289739
146	0x3f163a2b	0.5868251
147	0xbe766b95	-0.24064477
148	0xbdc044d2	-0.093881264
149	0x3e24edee	0.16106388
150	0xbec226d8	-0.3792026
151	0x3df1a65b	0.11799308
152	0x3ea7bee7	0.32762834
153	0x3dc8e3e7	0.09809094
154	0x3e354e24	0.1770559
155	0x3e319276	0.17341027
156	0x3f0b6945	0.54457504
157	0x3e7b5ee8	0.24547923
158	0xbea1fb0a	-0.3163684
159	0x3d98ccb6	0.074609205
160	0x3e0f5618	0.13997686
161	0xbf0b8f52	-0.54515564
162	0x3e21f22b	0.15815036
163	0xbdd1e179	-0.102480836
164	0xbe8d43c0	-0.27590752
165	0x3ec27469	0.3797944
166	0xbebe3068	-0.37146306
167	0xbf23b09c	-0.6394136
168	0xbefb2f2f	-0.49059436
169	0xbc6c5707	-0.014425046
170	0xbeb343ae	-0.35012573
171	0xbec30406	-0.38089007
172	0xbe4edf4d	-0.2020237
173	0x3dd1dc0c	0.10247049
174	0x3d111d7a	0.0354285
175	0xbe3fe389	-0.18739142
176	0xbdc7d4a9	-0.097573586
177	0xbd3f6f5a	-0.046737053
178	0xbeeebab7	-0.46626827
179	0xbdf032a9	-0.11728413
180	0xbe3bad5a	-0.18327847
181	0x3eae74c7	0.3407347
182	0x3f558196	0.8340086
183	0xbe09565f	-0.13411854
184	0x3c2ccaec	0.010546427
185	0x3e98c2cd	0.2983612
186	0xbc083727	-0.008313931
187	0xbebe8d0a	-0.3721698
188	0xbd4aa6aa	-0.04947535
189	0xbd491f2f	-0.049102005
190	0xbd2bc234	-0.041933253
191	0x3d5d2d75	0.05399843
192	0xbeddd81c	-0.4332894
193	0x3db8137e	0.08988093
194	0x3f4421de	0.7661418
195	0xbe306ee3	-0.172298
196	0xbebcc141	-0.3686619
197	0xbc80f548	-0.01574196
198	0xbd553fcd	-0.0520628
199	0x3e31d993	0.17368154

seq.4.bias f4 [2]
0	0x3c16e867	0.0092106825
1	0x3e2d8d03	0.16948323
