examples/arch-comp/acc/models/controller_7_20/model.pt (torch, 25617 bytes, 9 tensors)

seq.0.bias f8 [20]
0	0xbfced1f52af4279e	-0.24078240010595392
1	0x3fda703b3dde681f	0.413100061815955
2	0xbfe0d1c63715b9f3	-0.5256072116733875
3	0xbfe4f80bf4d23432	-0.6552791387235912
4	0xbfe0c0bedd310efb	-0.5235285110615843
5	0xbfdb15bad79192f6	-0.4232012849009118
6	0xbfed7aaebf304683	-0.9212259039070009
7	0x3fb847565758ebc4	0.09483852036002732
8	0x3fec0d7994ce0e9d	0.8766448885293873
9	0x3fe234c2d1a99c24	0.5689405531856022
10	0xbfe04c12ed8b58bc	-0.5092863692796281
11	0x3fd8b03160b8a5fb	0.38575396008908996
12	0xbfeedce0bc1ed0ca	-0.9644626306749384
13	0x3fe11e32b40f8a3e	0.5349362866221055
14	0xbfd524186fd5b1bc	-0.33032809182511946
15	0xbfd6f739b4e3da3d	-0.35883944191974476
16	0x3fe136c3e139deae	0.5379351996370667
17	0xbfce57f9e0b500c9	-0.23705981704734416
18	0xbfe1d9c87d09293d	-0.55783485814144
19	0x3fc0e5ffa54a5ccf	0.13201900072883752

seq.2.bias f8 [20]
0	0xbfcdc0ac6dd91a6c	-0.2324424301497915
1	0x3fe871415c3b61e1	0.7638251115232003
2	0xbfefacb4ae1912eb	-0.9898322487211692
3	0x3fd72e66b3dd01f1	0.3622071033933301
4	0xbfdbb6251d5184da	-0.43299224722984564
5	0x3fe48c6ee2ab9342	0.6421427180435801
6	0xbfdaa1bb67f1abd6	-0.416121341235962
7	0xbfccdc287de4491a	-0.22546869418199195
8	0x3fecc70e5c878969	0.8992988402572283
9	0x3fe5a0af5c94c436	0.6758648689484577
10	0x3fe8f94f5858c36e	0.7804333425066099
11	0x3febb76de6a88d8d	0.8661412720725125
12	0xbfe7ba44946a8ba8	-0.7414877794984607
13	0xbfd363b5983e5f25	-0.3029607760195055
14	0x3fdb2ab77fca525e	0.4244822261764848
15	0x3fcff8c5cdabe4a6	0.24977943937827723
16	0x3fe55a026b3c6206	0.6672374815416908
17	0xbfe1d85446dd303d	-0.5576573738158072
18	0xbfd73bc87d9aa2d3	-0.36302387491245475
19	0xbfe22d0eb785b51f	-0.5680001816196273

seq.4.bias f8 [20]
0	0xbfe06d6ef0c9a7cd	-0.5133585646519748
1	0x3fee4a30f5a17107	0.9465565488312969
2	0x3feaaca00a2a89ce	0.8335724066312709
3	0x3fd37db2dd05ea06	0.30454703888213464
4	0xbfe8dc9a5b2d9669	-0.7769290715047649
5	0x3fa07590f4478983	0.032146959132449936
6	0xbfa579bbcff37f0d	-0.04194437898126866
7	0xbfebaa921a32b6bb	-0.8645716201478629
8	0xbfcc5e1458de2b43	-0.22162107791185734
9	0x3fe38f766b9316c5	0.6112625218454119
10	0x3fe2422ad8a11c97	0.5705770712892385
11	0xbfe8524b08921ac6	-0.7600455443760772
12	0xbfc683085c808908	-0.17587379948333415
13	0x3fe30bc5caee6457	0.5951870883465159
14	0xbfdf626b71d5df69	-0.49038206211797913
15	0x3fc6721e44bbda80	0.17535761219160761
16	0xbfeda7780a4f1c78	-0.9266929818485456
17	0x3fd6f8e22e18432c	0.35894064427798145
18	0x3fe4fa76ad51770f	0.6555741677400152
19	0x3fd9862d0ef34964	0.3988144536971474

seq.6.bias f8 [20]
0	0x3fe7ae2ca07102b4	0.7400115140554449
1	0x3fdaf545dbccc13a	0.42122026886774544
2	0x3fec5b1d6a6d4a3a	0.8861224249506627
3	0xbfa3dcf826987fd3	-0.03879523726595804
4	0xbfc125bc19606fcd	-0.1339640735540101
5	0x3f932d566220fe4c	0.018727636088668384
6	0x3fa8b6d92f7c3403	0.04827002243664682
7	0xbfb09801da0a6a03	-0.06481944630869667
8	0x3fed58c41609a05a	0.9170856886312422
9	0x3fe6cc54fc07d186	0.7124428675147534
10	0xbfd8aa5d13e3343b	-0.3853981680120488
11	0x3fdc2d207b606231	0.4402543263290993
12	0x3fe6b210ccf2ec5a	0.709236526766641
13	0xbfd8b6908a3f7944	-0.3861428594663219
14	0xbfe6004dbfffa4c1	-0.6875370740864569
15	0xbfeb0b04f3a45613	-0.8450951346046075
16	0x3fdfc6a668925c33	0.49649963581163375
17	0x3fb15d5289645322	0.06783023695272708
18	0xbfb8c568c36418bf	-0.09676222582138204
19	0x3fe2d389549d7d29	0.588322320236249

seq.8.bias f8 [20]
0	0xbfe51dc1bcfc183e	-0.6598824206455516
1	0xbfe4f199693e37aa	-0.6544920974281372
2	0xbfe9674b5fda6a10	-0.7938591835148276
3	0x3fcb2eef85addbd4	0.212369861863151
4	0xbfc6900ddf8039ac	-0.17627118504647166
5	0xbfdf4588950ce066	-0.48861898952191607
6	0xbfe3179871c89436	-0.5966303083738527
7	0xbfe3fce640908680	-0.6246215115572369
8	0x3fe88fba4f120e56	0.7675448936792673
9	0x3fd0e6037c2fe768	0.26403891685151004
10	0x3fcf1ca28645321a	0.243061366616886
11	0x3fd470eaf9baefa6	0.3193919600269005
12	0xbfe4c79085a85a5e	-0.6493609056950154
13	0x3fd01bcf7c9e9e48	0.25169741792567324
14	0x3fe81a9bdd0668d2	0.7532481495757344
15	0xbfe4a3a01d736c75	-0.6449738097393395
16	0x3fd2a1f60d5132b3	0.2911353235292992
17	0x3fe87a4c94ebd19f	0.7649290951363134
18	0xbfdffe83db290e7b	-0.49990936663036906
19	0x3fc61296f3bab8b0	0.17244231129501975

seq.10.bias f8 [20]
0	0x3fe0206fbb8ee9ae	0.503959528279031
1	0xbfef20c4e841d87e	-0.9727501426957728
2	0x3fef7c24f8219c56	0.9839043470682423
3	0xbfb6705b2569d965	-0.08765191710867766
4	0x3fa495b77f05af51	0.04020474839748423
5	0xbfea3e9705d5f466	-0.8201403726558396
6	0x3fe2476865fce919	0.5712167732192795
7	0x3fdbdd6435e4d360	0.4353876615817196
8	0x3fb7d91723e7922a	0.09315628649307742
9	0x3fdf3a2f724c1f35	0.48792635118342115
10	0x3fd7f8ba2b283a70	0.3745561047989332
11	0x3fcc0a94c0c36525	0.2190729085184923
12	0xbfeacc0efab6f593	-0.8374094864627061
13	0xbfcf1c083fb7ae7f	-0.24304297553259244
14	0xbfc80c7ba6c81c52	-0.18788095134388755
15	0x3fd7d8739f0ac394	0.37258616000604516
16	0xbfc84980dae61f5a	-0.18974314392493846
17	0x3fbbf10a858a9106	0.10914674530301136
18	0x3fce4f5d0c6a050f	0.2367969809165875
19	0xbfc52fc1d46d8b08	-0.16551993248420893

seq.12.bias f8 [20]
0	0x3fd74e2b2d9963dc	0.36414603665394707
1	0xbfedb3e2fc234367	-0.9282088207784057
2	0xbfbe987ede392be8	-0.11951439786314177
3	0xbfbebeeed7eb4e6c	-0.1201009060999298
4	0x3fe115d9712fab02	0.5339171610515623
5	0x3feffc18f6393fce	0.9995236214690466
6	0xbfdf01178c900c37	-0.4844416496927723
7	0x3fe8a8d24432c4cc	0.770608075332484
8	0xbfecd81db55a1975	-0.9013813535719196
9	0xbfd59221f72b4a76	-0.3370442308197775
10	0x3fdd6241b3254dad	0.4591221093625915
11	0xbf6be69288dbb425	-0.0034058439258530964
12	0x3fb7c4a4ec4f3ad6	0.09284430283808418
13	0xbfe190b7a4917f8c	-0.5489156927323946
14	0xbfe82474af9b64ec	-0.7544501714538945
15	0xbf9e019e34015d6c	-0.02930304710784297
16	0x3fe7eddfb74dfdc7	0.7477873401803031
17	0x3fd21e16a9c63a04	0.2830864580108996
18	0xbfba8ed48ce04970	-0.10374191703184521
19	0xbfe743851297e51c	-0.726992164912335

seq.14.weight f8 [1, 20]
0	0xbfa053ec1cf5700e	-0.03189027646541841
1	0x3fbb074f734d83a1	0.10558029713639751
2	0x3f94e310f64eb3bb	0.02039743903485534
3	0x3f8c09f7c1ad4d05	0.013690887067844057
4	0xbf9b4a39f66aa870	-0.026650338807180096
5	0x3f886df00b66e130	0.01192843947215802
6	0x3fa4536cf8704197	0.03969898731895965
7	0x3f5be67d709cdada	0.0017029023169478547
8	0xbf25686f43aef35d	-0.00016332967956414037
9	0x3ef47faa680ad05c	1.9549077935735216e-05
10	0x3f72f8f9d3b2d0cd	0.004631973158371672
11	0xbfa84a08a249921f	-0.04743983250662986
12	0xbfabc8db071c1213	-0.05426678144252519
13	0x3f8c89556fc3366a	0.01393381831476433
14	0xbf818d1cd7c4b0b8	-0.008569932303167924
15	0xbfb776adc74716ce	-0.09165464511087437
16	0xbf894cb41eca00f0	-0.012353331746681268
17	0x3f96764e07c5bba8	0.021935672020329783
18	0x3f73abf2c38b735a	0.0048026545489080145
19	0x3f7555996eea2d43	0.005208587025332281

seq.14.bias f8 [1]
0	0xbfd64a22975fbe5d	-0.34827484877221143
