benchmarks/models/nn_3_sigmoid/model.pt (torch, 4603 bytes, 6 tensors)

seq.0.weight f4 [20, 2]
000000 94 f6 75 3e c2 7e c4 3e 61 c3 3d be 52 ab 97 be
       0.24019843 0.3837796 -0.18531562 -0.29622895
000010 83 d0 71 be 4d 32 c1 be 71 2f 02 be 3c 25 50 be
       -0.23614697 -0.3773369 -0.1271341 -0.20326704
000020 51 8e 88 be ff 23 da be 1a 23 6c 3e 02 a9 bc 3e
       -0.2667108 -0.42605588 0.23060265 0.36847693
000030 cd f0 80 be 3b 01 ce be 95 45 87 be 9c 18 d8 be
       -0.25183716 -0.40235314 -0.26420274 -0.42206275
000040 77 d2 88 3e af 8e da 3e 94 82 6d 3e 4c c1 bd 3e
       0.26723072 0.42686984 0.23194343 0.37061536
000050 36 14 5d 3e 8e a6 b0 3e 0a fa 81 be 12 a8 cf be
       0.21589741 0.3450207 -0.25386077 -0.40557915
000060 8a 28 80 3e 98 bf cc 3e 14 cd 93 be 3e 10 ec be
       0.2503093 0.39989924 -0.288674 -0.46106142
000070 45 29 06 3e 9e 71 56 3e aa 7c e5 3d 80 63 37 3e
       0.1310168 0.20941779 0.112054184 0.1790905
000080 e7 0e 88 be 06 5b d9 be 84 d5 42 bb fb 4e 95 bb
       -0.2657387 -0.42452258 -0.0029729316 -0.0045565343
000090 b6 29 89 3e 93 1a db 3e b7 26 87 3e b8 e4 d7 3e
       0.26789635 0.42793712 0.26396725 0.42166686

seq.0.bias f4 [20]
000000 ce 2e ff bd 1d f4 c4 3d b3 50 fa 3d f7 1d 88 3d
       -0.12460099 0.096168734 0.122224234 0.0664634
000010 e5 50 0d 3e f0 10 f5 bd de 70 05 3e 4b fc 0b 3e
       0.1380039 -0.11966121 0.13031337 0.13670461
000020 02 d8 0d be 7d 78 f6 bd 92 98 e5 bd 89 85 06 3e
       -0.13851932 -0.120347 -0.11210741 0.13136877
000030 86 e9 04 be ab f1 18 3e 16 92 8d bd 60 20 74 bd
       -0.12979707 0.14935939 -0.06912629 -0.059601188
000040 78 cb 0c 3e 06 98 7a be 18 32 0e be 83 1e 0c be
       0.13749492 -0.24472055 -0.13886297 -0.13683514

seq.2.weight f4 [20, 20]
000000 f0 04 b4 be a0 da 8a 3e 96 0c b1 3e 5c 7b 3e 3e
       -0.35160017 0.27119923 0.34579915 0.18601745
000010 33 0e c8 3e d0 cb ac be 8c db bc 3e 71 2b c6 3e
       0.39073333 -0.33749247 0.3688625 0.38705018
000020 92 5f c8 be 84 ce ad be 41 bd a1 be 9f 61 be 3e
       -0.39135414 -0.3394662 -0.31589702 0.37183854
000030 20 a1 bb be b8 9d d8 3e 31 1f 44 be 5f b5 27 be
       -0.36646366 0.4230783 -0.19152524 -0.16377781
000040 a9 53 c7 3e 1f 75 8a 3b 27 e0 c8 be a5 e9 c5 be
       0.38931015 0.0042253877 -0.39233515 -0.3865482
000050 85 38 bd 3e b4 cc 91 be ed f3 b9 be 06 ec 47 be
       0.36957183 -0.2847649 -0.36318913 -0.1952363
000060 6d 27 d2 be 22 a0 b5 3e 14 5f c6 be 06 2b d0 be
       -0.41045704 0.35473734 -0.38744414 -0.40657824
000070 bc 9f d2 3e 44 af b6 3e 19 ff a9 3e 2b fa c7 be
       0.41137493 0.35680592 0.33202437 -0.3905805
000080 ca 38 c5 3e 09 93 e3 be ec 2b 4e 3e b4 4f 30 3e
       0.3851989 -0.44448116 0.20133942 0.17217904
000090 26 63 d1 be a3 ff 8c bb 9c 27 d3 3e b1 09 d0 3e
       -0.40895957 -0.004302935 0.41241157 0.40632394
0000a0 b5 df c3 3e f4 ca 96 be 1f 67 c0 be 0d b8 4e be
       0.38256612 -0.29451716 -0.37578675 -0.20187397
0000b0 c7 7a d9 be 0a 05 bc 3e 54 47 cd be d0 6c d7 be
       -0.42476484 0.36722594 -0.40093482 -0.42075205
0000c0 c5 10 da 3e 58 1d bd 3e 38 fb af 3e e0 ed ce be
       0.4259092 0.3693645 0.34371352 -0.4041586
0000d0 5a 2d cc 3e 2d 8b eb be ab 5e 55 3e 61 81 36 3e
       0.3987835 -0.4600462 0.20836894 0.17822792
0000e0 29 af d8 be 71 69 8f bb 86 9c da 3e 9e 62 d7 3e
       -0.42321137 -0.0043765833 0.42697543 0.42067426
0000f0 48 4b f0 be 96 2b b9 3e 5d 52 ec 3e ad d8 7d 3e
       -0.46932435 0.36166066 0.46156588 0.24789687
000100 d8 96 05 3f f5 9d e6 be fa 25 fc 3e e2 52 04 3f
       0.52183294 -0.45042387 0.49247724 0.5168897
000110 bd cb 05 bf 65 f9 e7 be a8 d0 d7 be 8a 31 fe 3e
       -0.52264005 -0.4530746 -0.4215138 0.4964717
000120 ce 7c fa be 1e b6 10 3f 7e b2 82 be 95 86 5f be
       -0.48923343 0.5652789 -0.25526804 -0.21828683
000130 69 19 05 3f f3 68 b9 3b 9d 21 06 bf 81 25 04 bf
       0.519919 0.005658263 -0.5239504 -0.51619726
000140 b2 c4 fc be 4d 9f c2 3e c1 7d f8 3e b0 5c 85 3e
       -0.49368817 0.38012162 0.48533443 0.26047277
000150 34 7e 0c 3f c5 97 f2 be e7 94 04 3f c3 28 0b 3f
       0.5488007 -0.47381416 0.51789707 0.5435907
000160 d9 c3 0c bf ef 04 f4 be 37 02 e3 be 63 a7 05 3f
       -0.5498634 -0.47660014 -0.44337627 0.52208537
000170 cc c1 03 bf 2d 37 18 3f 44 6e 89 be d5 14 6b be
       -0.51467586 0.5945919 -0.26841938 -0.22957166
000180 75 fa 0b 3f 70 54 c0 3b 4f 1f 0d bf 37 07 0b bf
       0.5467904 0.0058694407 -0.551259 -0.54307884
000190 3f 38 bc 3e c3 13 91 be 5d 08 b9 be 09 f5 46 be
       0.36761662 -0.2833539 -0.36139193 -0.19429411
0001a0 a8 1b d1 be fd aa b4 3e 89 63 c5 be ed 21 cf be
       -0.40841413 0.35286704 -0.38552502 -0.4045557
0001b0 a9 84 d1 3e a4 b8 b5 3e c5 19 a9 3e 82 fb c6 be
       0.40921524 0.35492432 0.33027473 -0.3886376
0001c0 c9 2e c4 3e 0c 71 e2 be 53 0c 4d 3e 82 5a 2f 3e
       0.38316944 -0.44226873 0.20024233 0.1712437
0001d0 09 58 d0 be b7 05 8e bb a4 0a d2 3e b6 f1 ce 3e
       -0.40692165 -0.0043341774 0.41023743 0.40418786
0001e0 0c 1c 02 bf 66 65 c8 3e 2e c1 ff 3e f6 4f 89 3e
       -0.50824046 0.3913986 0.49952072 0.26818818
0001f0 b1 97 10 3f e8 bb f9 be 9b 73 08 3f 57 38 0f 3f
       0.5648146 -0.48776174 0.533014 0.5594534
000200 2b e4 10 bf 1f 32 fb be 19 b0 e9 be a3 8f 09 3f
       -0.56598157 -0.49061677 -0.45642164 0.537348
000210 fb a1 07 bf 81 a3 1c 3f 3c 92 8d be 68 14 72 be
       -0.5298154 0.6118699 -0.2765063 -0.23640597
000220 78 0f 10 3f cd 9a c4 3b e7 41 11 bf 9a 1a 0f bf
       0.56273603 0.005999899 -0.56741184 -0.55899966
000230 82 a7 db be 65 6b a9 3e 12 2d d8 3e 46 5c 68 3e
       -0.42901236 0.33089748 0.42221886 0.2269145
000240 f4 59 f4 3e 48 d7 d2 be 08 a5 e6 3e 36 0e f2 3e
       0.4772488 -0.41179872 0.45047784 0.47276467
000250 e9 99 f4 be eb 11 d4 be 80 51 c5 be 63 7d e8 3e
       -0.47773674 -0.4141992 -0.38538742 0.45408162
000260 45 ff e4 be 92 56 04 3f 0d fb 6e be 5b 5e 4c be
       -0.44726005 0.51694596 -0.23337956 -0.19957869
000270 73 77 f3 3e e7 14 ad 3b 1e 36 f5 be 95 95 f1 be
       0.4755207 0.005282033 -0.4789285 -0.47184435
000280 15 a4 e4 3e e7 25 b0 be ed ca e0 be 89 75 71 be
       0.44656435 -0.34403917 -0.4390482 -0.23579992
000290 1f 24 fe be 1b 71 db 3e ef d9 ef be 8e bb fb be
       -0.49636933 0.4285973 -0.46845958 -0.4916653
0002a0 45 9a fe 3e 15 ba dc 3e 64 5b cd 3e 5c cb f1 be
       0.49727073 0.4311072 0.40108788 -0.47225463
0002b0 76 58 ee 3e 8d a4 09 bf 94 ce 78 3e 7c c1 54 3e
       0.46551865 -0.5376671 0.24297553 0.20776933
0002c0 63 35 fd be 2c 04 ae bb 18 3f ff 3e b3 76 fb 3e
       -0.49454793 -0.005310556 0.49852824 0.49113998
0002d0 ac f7 e5 be 7d 3e b1 3e 90 28 e2 3e af 03 73 3e
       -0.4491552 0.34617987 0.44171572 0.23731874
0002e0 14 a8 ff 3e ec b6 dc be a9 4b f1 3e bd 3c fd 3e
       0.4993292 -0.43108308 0.47128037 0.49460402
0002f0 59 07 00 bf 86 01 de be 69 8e ce be aa 3e f3 3e
       -0.5001121 -0.43360537 -0.40343025 0.47508746
000300 20 b9 ef be f8 74 0a 3f a9 42 7a be 85 fe 55 be
       -0.46820927 0.5408473 -0.24439491 -0.20897873
000310 b1 b7 fe 3e 8d 10 b1 3b 35 5a 00 bf dd e8 fc be
       0.4974952 0.0054035843 -0.50137645 -0.4939641
000320 91 ed cb 3e 22 fd 9c be 8d 50 c8 be 54 33 57 be
       0.39829686 -0.30661875 -0.39123955 -0.21015674
000330 f7 6e e2 be e9 bc c3 3e 95 b8 d5 be eb 49 e0 be
       -0.44225284 0.38230065 -0.41742387 -0.43806395
000340 45 08 e3 3e 24 e2 c4 3e 48 33 b7 3e e5 71 d7 be
       0.44342247 0.38453782 0.35781312 -0.42079082
000350 30 90 d4 3e da 3e f5 be c9 1c 5e 3e 31 f9 3d 3e
       0.41516256 -0.47899514 0.21690668 0.1855209
000360 ec 9a e1 be c5 9d 95 bb 85 9a e3 3e 43 3d e0 3e
       -0.4406351 -0.0045659267 0.44453827 0.4379674
000370 31 9e 9c be bc b7 71 3e 80 0d 9a 3e ba d7 25 3e
       -0.3058944 0.23605245 0.30088425 0.16195574
000380 ee 08 ae 3e a5 57 96 be 32 4f a4 3e 55 65 ac 3e
       0.33991188 -0.29363742 0.3209167 0.3367106
000390 1b 4c ae be 11 38 97 be 4b bb 8c be 42 a2 a5 3e
       -0.3404244 -0.29534963 -0.27486643 0.32350355
0003a0 ba 3a a3 be 76 68 bc 3e 14 b5 2a be b9 fa 11 be
       -0.31880742 0.36798447 -0.16670638 -0.142558
0003b0 38 67 ad 3e f8 a9 71 3b 54 bc ae be 68 29 ac be
       0.33867812 0.003687499 -0.34128058 -0.3362534
0003c0 4e b6 e7 3e 48 79 b2 be b4 c3 e3 be 93 a1 74 be
       0.45256275 -0.34858155 -0.44485247 -0.2388976
0003d0 94 c0 00 bf d8 62 de 3e b0 05 f3 be 33 10 ff be
       -0.5029385 0.43434787 -0.47465277 -0.49817047
0003e0 9d 02 01 3f a7 b0 df 3e 73 1d d0 3e 12 fe f4 be
       0.5039461 0.43689463 0.40647468 -0.4785009
0003f0 ee 8a f1 3e 33 77 0b bf 1e 2a 7c 3e 89 a3 57 3e
       0.47176307 -0.5447876 0.24625441 0.21058477

seq.2.bias f4 [20]
000000 22 c2 4b 3d b7 08 5a bd bb f3 63 bd e1 b1 7e 3d
       0.049745686 -0.053230967 -0.05565236 0.062181357
000010 50 e9 86 3d ea 75 56 bd 0b 50 8b 3d 4f 1f 67 3d
       0.065874696 -0.052358545 0.06802376 0.056426343
000020 f6 b8 77 bd eb 51 76 3d e3 b6 6a bd 0f 08 38 3d
       -0.060479127 0.060136717 -0.05730332 0.04492956
000030 5c 7a 7c bd 4a 06 77 bd 1f 97 73 bd fe 04 75 bd
       -0.06164013 -0.060308732 -0.059470292 -0.059819214
000040 2d b7 64 bd ec 43 83 3d c5 46 80 bd 94 e8 62 bd
       -0.055838753 0.064094394 -0.06263498 -0.055397585

seq.4.weight f4 [1, 20]
000000 65 d2 3d 3f 23 ce 46 bf c3 ee 4d bf 80 cd 7e 3f
       0.7414916 -0.7765829 -0.80442446 0.9953232
000010 e8 38 86 3f 64 ef 45 bf f6 44 8a 3f 0f a1 68 3f
       1.0486116 -0.77318406 1.0802295 0.90870756
000020 8d 73 71 bf 54 9b 73 3f cf 92 56 bf 0d f9 24 3f
       -0.9431694 0.95158887 -0.8381776 0.6444252
000030 37 ba 74 bf b0 c3 6b bf 8a 69 6a bf b1 53 60 bf
       -0.9559664 -0.9209547 -0.9156729 -0.876277
000040 b0 4e 55 bf 79 e0 81 3f bf 98 78 bf 5b 34 52 bf
       -0.8332319 1.0146629 -0.9710807 -0.8211114

seq.6.weight f8 [1, 1]
000000 00 00 00 00 00 00 10 40
       4.0
