examples/arch-comp/quad/models/quad_controller_3_64/model.pt (torch, 40303 bytes, 10 tensors)

seq.0.weight f4 [64, 12]
2.9837667e-05 6.328617e-05 0.028213354 1.2914255e-05 -2.2334863e-05 -0.0087156575 0.016660038 0.045489676
-3.5685633e-05 0.016666178 0.04552016 1.5391586e-05 -0.034529928 -7.1897284e-06 -3.6487181e-06 0.07914268
1.8930474e-05 4.6431787e-06 -0.021698082 0.031300947 -0.036951736 -3.600875e-06 0.03132085 -0.036970086
1.582339e-05 0.25129095 -8.339115e-06 -1.1137095e-06 -0.046626985 -1.8604227e-05 1.3169524e-05 0.014825842
0.012042423 -0.031313255 -3.2361055e-05 0.012050529 -0.0312819 -1.47659875e-05 -0.0145216435 -1.7607286e-05
-2.7444556e-05 -0.034364317 -1.8842791e-05 6.427989e-06 0.010109218 -0.025509777 -0.016670624 -2.603565e-06
-0.025520872 -0.01668398 9.59744e-06 0.4327783 2.0292307e-05 1.6455106e-06 0.020535355 3.833822e-05
-1.921791e-05 -0.0060410188 0.035450745 -0.0456497 1.804537e-05 0.035447232 -0.045686316 -3.533205e-07
0.02544344 -6.4697933e-06 -1.7419326e-05 0.022212006 1.1318466e-05 4.412341e-06 -0.009182039 0.033789866
0.011956135 -2.0156413e-05 0.033796564 0.011910025 -1.3672083e-05 0.43895042 8.515695e-06 -2.549019e-06
-0.09779941 -2.9534724e-05 -3.402629e-07 0.026366325 -0.0067596966 0.037961636 -2.067291e-05 -0.0067688585
0.038002256 2.5706167e-06 -0.14846312 -3.6532e-06 5.282519e-06 0.08522994 2.057005e-05 9.862662e-06
-0.033508893 -0.023640279 -0.022511665 1.6852231e-05 -0.023634613 -0.02251909 -9.4822735e-06 -0.46681434
1.2370081e-05 2.4937553e-06 -0.039853167 -6.5286276e-06 -1.4376059e-05 0.008894358 0.013399871 -0.04890349
-2.5365567e-05 0.013408293 -0.048873894 -2.0021456e-05 -0.21657227 -7.966426e-06 -1.5052718e-05 0.044990886
2.0736024e-06 9.862955e-06 -0.012986647 -0.021202337 -0.015754232 1.6660379e-06 -0.021199284 -0.015749373
-1.9628595e-05 0.27705497 -1.2144001e-05 2.513072e-06 0.10336447 1.6004535e-05 -1.6156579e-05 -0.033820927
0.015117255 -0.011916908 6.561706e-06 0.015113027 -0.011937279 1.6094564e-05 0.27656215 -1.4105896e-05
2.5867516e-06 0.030497242 1.1935232e-05 -4.0231544e-06 -0.011942364 -0.018144239 -0.008356511 3.391271e-05
-0.018148983 -0.008391876 1.72213e-05 0.38042605 -9.484984e-06 -3.4943696e-08 0.04192113 6.1237624e-06
2.0944173e-05 -0.012742191 -0.028218554 -0.027994303 -3.4636178e-06 -0.028203584 -0.027990626 -1.0494063e-05
0.10425579 1.6895465e-05 4.6314235e-06 -0.12262162 -1.1383956e-05 8.12621e-06 0.04416941 -0.00078728487
0.0058322367 2.7868045e-06 -0.00079510343 0.005864309 9.9040035e-06 -1.057516 -2.4753997e-05 -4.7262156e-06
0.039731596 -1.4180493e-05 -9.305594e-06 -0.0119092455 0.006375228 -0.006660679 -5.04962e-06 0.00637045
-0.0066443863 5.459621e-06 0.025174726 7.137771e-06 -2.0722948e-05 -0.09917136 -4.409374e-06 6.662735e-06
0.03245691 0.011892356 0.008354448 -5.605565e-06 0.01190395 0.0083522145 -9.021963e-06 0.40219954
-1.3044155e-06 -1.3622386e-05 0.06026743 2.426159e-05 1.5163365e-05 -0.024071358 -0.032458108 0.028353445
-1.4133511e-06 -0.0324164 0.028346673 -3.6576286e-05 0.6661871 -1.50136475e-05 -3.3197557e-05 -0.0040949993
-5.793936e-07 7.458407e-06 0.0044740587 -0.022385322 0.031982686 -5.984306e-06 -0.022378296 0.031941865
-2.047281e-05 0.5348988 3.3218417e-05 1.5819338e-05 -0.07496645 5.4083976e-06 -7.411212e-06 0.02385286
-0.02450677 -0.0074014184 -2.5792742e-05 -0.024488349 -0.0073557016 3.8932285e-06 -0.565891 -2.0965754e-05
1.2770763e-05 0.08504876 3.9479346e-06 5.1382585e-07 -0.014612855 0.0042166575 -0.0067485333 1.1983078e-05
00000000: e74b fa37 81b8 8438 b11f e73c 4eaa 5837
00000010: c15b bbb7 1ecc 0ebc a27a 883c 6253 3a3d
00000020: 28ad 15b8 8287 883c 5973 3a3d 2e1d 8137
00000030: 416f 0dbd 4c3f f1b6 80dc 74b6 8f15 a23d
00000040: e2cc 9e37 9acc 9b36 2dc0 b1bc 6c35 003d
00000050: b45a 17bd 90a6 71b6 4b4a 003d f26d 17bd
00000060: 79bc 8437 35a9 803e 3ae8 0bb7 c47a 95b5
00000070: f0fb 3ebd 4610 9cb7 adf2 5c37 17e8 723c
00000080: 954d 453c 5442 00bd 6bbb 07b8 956f 453c
00000090: 7321 00bd 6fbb 77b7 30ec 6dbc 5cb3 93b7
000000a0: bc38 e6b7 99c1 0cbd 9610 9eb7 01b0 d736
000000b0: 22a1 253c e1f9 d0bc d590 88bc e8b8 2eb6
000000c0: 2611 d1bc d8ac 88bc b104 2137 1e95 dd3e
000000d0: 6639 aa37 50db dc35 c339 a83c 5acd 2038
000000e0: 2636 a1b7 bdf3 c5bb cd34 113d 2efb 3abd
000000f0: 2360 9737 1e31 113d 9321 3bbd 00b0 bdb4
00000100: c36e d03c 1a17 d9b6 b81f 92b7 f4f5 b53c
00000110: 71e4 3d37 b80d 9436 4370 16bc 3e67 0a3d
00000120: aae3 433c 9115 a9b7 446e 0a3d 4422 433c
00000130: 2661 65b7 1cbe e03e a2de 0e37 d00f 2bb6
00000140: 0f4b c8bd 56c1 f7b7 60ad b6b4 31fe d73c
00000150: 7280 ddbb a97d 1b3d bc6a adb7 4dcd ddbb
00000160: 41a8 1b3d dc82 2c36 b706 18be 8029 75b6
00000170: 7e40 b136 098d ae3d d98d ac37 d077 2537
00000180: 9f40 09bd 42a9 c1bc 626a b8bc e45d 8d37
00000190: 609d c1bc f479 b8bc 0e16 1fb7 4a02 efbe
000001a0: 1889 4f37 645a 2736 133d 23bd 7c10 dbb6
000001b0: b430 71b7 a4b9 113c 228b 5b3c 074f 48bd
000001c0: 24c8 d4b7 75ae 5b3c fe2f 48bd c0f3 a7b7
000001d0: 1fc5 5dbe 8aa7 05b7 ee8a 7cb7 5d48 383d
000001e0: 3828 0b36 1279 2537 f2c5 54bc 86b0 adbc
000001f0: 050f 81bc a09c df35 1faa adbc d404 81bc
00000200: 16a8 a4b7 26da 8d3e 16be 4bb7 40a6 2836
00000210: c0b0 d33d 7a41 8637 fd87 87b7 d087 0abd
00000220: 5dae 773c 233f 43bc a02c dc36 a19c 773c
00000230: 9494 43bc d002 8737 8e99 8d3e 5da8 6cb7
00000240: 0e98 2d36 5ad5 f93c 6e3d 4837 a2fe 86b6
00000250: e8a9 43bc 3aa3 94bc bfe9 08bc 7f3d 0e38
00000260: 2dad 94bc 147e 09bc 7676 9037 34c7 c23e
00000270: b221 1fb7 0015 16b3 7eb5 2b3d b87a cd36
00000280: 45b1 af37 9fc4 50bc 992a e7bc 4f54 e5bc
00000290: 8070 68b6 340b e7bc 994c e5bc a80f 30b7
000002a0: 0f84 d53d bcba 8d37 a067 9b36 0b21 fbbd
000002b0: b8fd 3eb7 ce55 0837 fcea 343d cb61 4eba
000002c0: 591c bf3b f004 3b36 7d6e 50ba 6429 c03b
000002d0: 5f29 2637 af5c 87bf cea6 cfb7 e295 9eb6
000002e0: 99bd 223d c1e8 6db7 391f 1cb7 ff1e 43bc
000002f0: 4ae7 d03b d341 dabb e86f a9b6 35bf d03b
00000300: 27b9 d9bb ca31 b736 3a3b ce3c fc80 ef36
00000310: 31d6 adb7 5b1a cbbd 3cf4 93b6 7590 df36
00000320: 89f1 043d 28d8 423c 18e1 083c 7017 bcb6
00000330: c908 433c bad7 083c 095d 17b7 19ed cd3e
00000340: 6013 afb5 b48b 64b7 fbda 763d 5e85 cb37
00000350: 2866 7e37 4c31 c5bc cbf2 04bd 7c45 e83c
00000360: 60b2 bdb5 0fc7 04bd 4837 e83c 7d69 19b8
00000370: 3d8b 2a3f 20e3 7bb7 9b3d 0bb8 582f 86bb
00000380: a087 1bb5 3a43 fa36 209b 923b 6c61 b7bc
00000390: 4700 033d cccc c8b6 b052 b7bc 79d5 023d
000003a0: 06bd abb7 21ef 083f 0154 0b38 c5b3 8437
000003b0: 0388 99bd c879 b536 d4ad f8b6 1367 c33c
000003c0: 6cc2 c8bc 9987 f2bb 7e5d d8b7 ca9b c8bc
000003d0: 1908 f1bb 94a2 8236 3cde 10bf 9ddf afb7
000003e0: 0242 5637 0b2e ae3d 8078 8436 d8ed 0935
000003f0: c26a 6fbc e32b 8a3b cd22 ddbb ee0a 4937

seq.0.bias f4 [64]
4.142994e-06 -0.07923238 -7.706843e-06 4.1650187e-06 0.023039902 -0.021973396 -0.021523662 -1.1584696e-05
-0.021978008 -0.02149908 1.003571e-06 -0.16520008 -6.0588514e-05 -7.408475e-05 -0.016239004 -4.3228603e-05
4.0074688e-06 0.009187178 0.035068497 -0.024818765 -2.0396255e-05 0.035079416 -0.024830354 -1.7425542e-05
0.35653326 1.8118815e-05 -3.0572037e-06 -0.053261124 5.1104043e-06 1.5780253e-05 0.014171615 -0.014205698
-0.0075411117 -2.3921348e-06 -0.01421169 -0.007561756 1.5090002e-05 0.47068954 -2.2621645e-05 -6.7796673e-06
0.068554655 1.6049866e-05 -1.1435433e-05 -0.024712425 0.018091574 0.0019686045 7.253773e-06 0.018076722
0.0019327851 -4.8747097e-07 0.48229563 -3.0542993e-05 -9.409843e-06 0.02625784 -1.4329795e-05 -1.8566105e-05
-0.0070894635 0.04992891 0.003327324 2.3287486e-05 0.049917024 0.003327142 1.3141673e-05 0.08777118
00000000: 0c04 8b36 9644 a2bd a34c 01b7 3dc1 8b36
00000010: 2dbe bc3c 8d01 b4bc 6452 b0bc e45b 42b7
00000020: 390b b4bc d71e b0bc 70b2 8635 362a 29be
00000030: 6c20 7eb8 f35d 9bb8 a907 85bc 5c50 35b8
00000040: e577 8636 d185 163c fca3 0f3d b950 cbbc
00000050: a018 abb7 6faf 0f3d 0769 cbbc 112d 92b7
00000060: 878b b63e dcfd 9737 5c2a 4db6 5628 5abd
00000070: 0a7a ab36 d65f 8437 1030 683c 04bf 68bc
00000080: 6e1b f7bb 9088 20b6 26d8 68bc 9bc8 f7bb
00000090: 112b 7d37 38fe f03e 9dc3 bdb7 e67c e3b6
000000a0: 6266 8c3d d3a2 8637 d0da 3fb7 b671 cabc
000000b0: c834 943c b403 013b 7065 f336 a215 943c
000000c0: 8255 fd3a c0da 02b5 74ef f63e 4a1b 00b8
000000d0: f8de 1db7 af1a d73c 006a 70b7 68be 9bb7
000000e0: bb4e e8bb 4282 4c3d 3c0f 5a3b 7f59 c337
000000f0: cb75 4c3d 2e0c 5a3b 0e7b 5c37 60c1 b33d

seq.2.weight f4 [64, 64]
-1.0610331 1.1247928 -0.37491435 0.80832237 0.7438198 0.56323564 -0.8703155 0.64267814
0.14962345 0.60236937 1.1287082 -0.21112093 -0.0882106 -1.6399176 -0.1518853 -0.43478316
0.5526505 -0.9357693 -0.95985866 -0.9114073 -0.19972715 0.61848414 0.18445596 0.48037085
0.5210508 -0.87433434 0.9521473 -0.38151187 -1.3215063 -0.5803404 0.14315477 -0.17995493
0.49882054 -0.5620683 0.8429656 0.477332 0.9284897 0.12218096 -0.7647529 -0.16898474
-0.710618 -0.7209126 0.57877326 0.35557058 0.9146084 -1.3565823 -1.0870577 -1.1711698
0.7816561 0.10535242 0.4718733 0.78195924 0.4357248 -0.044192385 0.7103115 0.7412293
0.31324086 -0.7010834 0.76385 -0.3950884 0.50143385 0.55458987 1.0117215 -0.2517612
-0.1567576 -1.37748 -1.0310943 0.016761502 -0.1623259 -0.28153294 -0.47278452 1.0158015
-0.2294467 0.3315108 1.1871272 0.37470266 -0.45002618 1.0905696 0.15761156 0.12539795
-0.41610166 0.79540735 0.7544908 0.62930936 0.6075938 -0.9964086 -0.30776694 -0.08214336
0.26382804 1.1111716 -0.33477315 -0.21126759 -0.21286418 -0.52527386 0.34390995 -1.0703878
1.0450593 -0.20346569 -1.203244 0.28655127 -1.2742913 1.1919113 0.76990354 0.2624938
0.4862981 -0.39676574 0.23269963 -0.82790065 0.17963311 -0.22311932 0.5716667 0.49072218
-0.13815212 -1.1036168 -1.0778097 0.021742737 0.8023914 -0.73774105 0.44365102 0.87230635
-0.88451856 -0.5745574 -0.8632535 -0.04513988 0.959503 -0.45834818 0.19768351 0.28841513
0.71427584 0.02688834 0.328621 0.56483203 -0.14573933 0.34831643 0.179932 -0.16434531
-1.2833124 0.35344145 0.324482 -0.042538706 1.2762794 -0.19832198 1.1377035 -1.3294904
-0.004684568 0.3931622 -1.031468 0.09496062 0.01162961 0.680781 -0.9546233 -1.032352
1.0985227 0.33069754 -0.43865505 0.1500192 0.94715077 0.7643214 0.7727489 0.16660261
0.6261617 -0.9608976 -0.12282795 0.29372683 -0.58635837 -0.966327 -0.491748 0.9268298
-0.9991696 -0.4485631 0.331139 -1.3205142 -0.87569445 0.33578208 -0.014063638 0.16921653
0.48490378 -1.0861723 -0.08219158 -0.4067948 -0.084943496 -0.86080337 0.7795428 0.76901203
0.6071118 0.7540679 -0.39102945 -0.12412363 0.3434409 -0.6400161 0.043342017 1.0988089
-0.04201257 -0.5733699 -0.11504668 -0.1303267 0.11158722 -0.6037972 0.49742997 -0.61057186
-0.66993666 -0.73988885 -0.9610443 -0.98944914 0.3803141 -0.81925756 0.49174112 0.42865768
-0.6683655 -0.87830025 0.09117093 1.0326619 0.59309256 -1.1105614 0.974399 0.9357212
0.22746146 0.33227605 -0.5317653 0.7140882 0.702535 -0.3520602 0.22403936 0.5771348
-0.6055639 -0.54024136 -0.34398723 -0.72627455 0.17251025 -0.64589626 0.81562215 0.58288264
0.86582243 0.7759316 0.18488912 -0.112157404 -0.7917458 0.4729296 0.6953955 -0.2844054
0.16700278 0.38557625 0.008195909 1.1070423 -0.2582037 -0.8326347 0.08488968 0.39549494
-0.58521616 -0.89453125 -0.6874459 0.05450833 0.9640124 -0.07124987 0.043111272 0.280101
00000000: efcf 87bf 36f9 8f3f c6f4 bfbe 37ee 4e3f
00000010: f96a 3e3f 3630 103f ffcc 5ebf 8e86 243f
00000020: e436 193e e134 1a3f 8379 903f 1630 58be
00000030: c2a7 b4bd d2e8 d1bf d287 1bbe e69b debe
00000040: 817a 0d3f 948e 6fbf 4cb9 75bf fd51 69bf
00000050: 4685 4cbe fa54 1e3f 06e2 3c3e 2bf3 f53e
00000060: 9663 053f 60d4 5fbf edbf 733f 8655 c3be
00000070: 1e27 a9bf 3091 14bf 2a97 123e 1b46 38be
00000080: 6865 ff3e b5e3 0fbf 98cc 573f dc64 f43e
00000090: 80b1 6d3f 033a fa3d d9c6 43bf 560a 2dbe
000000a0: 10eb 35bf ba8d 38bf 7c2a 143f 590d b63e
000000b0: c723 6a3f 7da4 adbf b524 8bbf e4e8 95bf
000000c0: 9d1a 483f 02c3 d73d 6199 f13e 7b2e 483f
000000d0: 5217 df3e 1303 35bd f9d6 353f 34c1 3d3f
000000e0: 1b61 a03e 347a 33bf ac8b 433f 0749 cabe
000000f0: f85d 003f 9af9 0d3f 1780 813f d8e6 80be
00000100: 1085 20be 4451 b0bf e6fa 83bf 6b4f 893c
00000110: c338 26be 1625 90be d010 f2be c905 823f
00000120: 13f4 6abe c9bb a93e c9f3 973f 07d9 bf3e
00000130: d569 e6be c997 8b3f ed64 213e 5268 003e
00000140: 470b d5be d19f 4b3f 4f26 413f 6b1a 213f
00000150: 448b 1b3f a214 7fbf a193 9dbe c73a a8bd
00000160: 7814 873e df3a 8e3f 6367 abbe 8856 58be
00000170: 11f9 59be 5978 06bf f714 b03e 7802 89bf
00000180: 81c4 853f 4f59 50be e603 9abf d9b6 923e
00000190: fa1b a3bf 8d90 983f 6618 453f 9665 863e
000001a0: 11fc f83e e124 cbbe d048 6e3e 4cf1 53bf
000001b0: bef1 373e 6479 64be c058 123f f03f fb3e
000001c0: c077 0dbe 5143 8dbf abf5 89bf d31d b23c
000001d0: 8669 4d3f 99dc 3cbf 3a26 e33e 784f 5f3f
000001e0: cf6f 62bf 3216 13bf 2efe 5cbf 98e4 38bd
000001f0: fda1 753f 9dac eabe 8c6d 4a3e 26ab 933e
00000200: c8da 363f f044 dc3c 0341 a83e d598 103f
00000210: b13c 15be 8856 b23e 1840 383e 234a 28be
00000220: 9543 a4bf 47f6 b43e 8122 a63e 113d 2ebd
00000230: 205d a33f eb14 4bbe 45a0 913f be2c aabf
00000240: 0181 99bb 8e4c c93e 2507 84bf b77a c23d
00000250: 1f8a 3e3c aa47 2e3f 3162 74bf 1c24 84bf
00000260: 649c 8c3f 3051 a93e 6597 e0be a29e 193e
00000270: 7978 723f 91aa 433f dfd2 453f e099 2a3e
00000280: 224c 203f 63fd 75bf 388d fbbd 5d63 963e
00000290: 951b 16bf 3561 77bf 65c6 fbbe b844 6d3f
000002a0: 94c9 7fbf 10aa e5be 0d8b a93e 9c06 a9bf
000002b0: 832d 60bf a1eb ab3e 2c6b 66bc 1947 2d3e
000002c0: 4f45 f83e b207 8bbf 0f54 a8bd 6847 d0be
000002d0: dbf6 adbd 9c5d 5cbf 1e90 473f f9dd 443f
000002e0: ae6b 1b3f 980a 413f 0335 c8be 8834 febd
000002f0: 7cd7 af3e 18d8 23bf 6687 313d c5a5 8c3f
00000300: 5f15 2cbd 5fc8 12bf 989d ebbd 5d74 05be
00000310: d787 e43d 7492 1abf 24af fe3e 704e 1cbf
00000320: f880 2bbf 5b69 3dbf 0007 76bf 8a4c 7dbf
00000330: 88b8 c23e ddba 51bf 7ec5 fb3e 0579 db3e
00000340: 001a 2bbf 49d8 60bf d3b7 ba3d 442e 843f
00000350: ead4 173f e026 8ebf 3672 793f 6d8b 6f3f
00000360: a8eb 683e 1620 aa3e c521 08bf 7cce 363f
00000370: 55d9 333f 3c41 b4be 936a 653e 1bbf 133f
00000380: 3c06 1bbf 424d 0abf 181f b0be 21ed 39bf
00000390: 87a6 303e 7559 25bf 9dcc 503f cc37 153f
000003a0: 8aa6 5d3f 74a3 463f 9353 3d3e c8b2 e5bd
000003b0: daaf 4abf d423 f23e 7105 323f 969d 91be
000003c0: c702 2b3e 406a c53e 2248 063c 90b3 8d3f
000003d0: 4633 84be 8c27 55bf a4da ad3d 507e ca3e
000003e0: bad0 15bf 0000 65bf 74fc 2fbf 2044 5f3d
000003f0: 84c9 763f 74eb 91bd 7295 303d 6669 8f3e

seq.2.bias f4 [64]
-0.0155655695 0.09990483 -0.19746774 -0.5291853 -0.47959042 -0.24733041 0.788492 0.50796026
-0.22256652 -0.21752094 0.3656742 -0.18413968 -0.62932366 -0.33599582 0.70954096 -0.0075973957
-0.10580406 0.007982313 -0.2168696 -0.08672772 0.19002606 0.42171416 -0.0997154 -0.015286412
0.26617065 -0.30948088 -0.038783453 -0.24557723 0.130645 -0.033587556 0.3100693 -0.1523443
0.7626606 0.6149176 0.099055395 0.7467177 0.3093415 0.2141899 -0.20915562 0.5967795
-0.7282511 -0.49034402 -0.0045490568 -0.0051204623 -0.7320419 -0.08466153 0.04137518 -0.54355097
-0.29935226 -0.16456568 0.09115267 0.20657569 -0.0015273731 -0.078703545 -0.49883315 -0.61897284
-0.10082036 0.005184883 -0.25545025 -0.42478895 -0.54766685 0.8196598 -0.69899726 0.10456242
00000000: bb06 7fbc e79a cc3d fc34 4abe b078 07bf
00000010: e08c f5be 2f44 7dbe 9dda 493f af09 023f
00000020: 7ae8 63be cfbd 5ebe a639 bb3e 1d8f 3cbe
00000030: 5b1b 21bf a507 acbe 7aa4 353f 93f3 f8bb
00000040: cdaf d8bd 3fc8 023c 1013 5ebe 4e9e b1bd
00000050: 3196 423e ebea d73e 9637 ccbd dc73 7abc
00000060: 8547 883e 4774 9ebe 66db 1ebd 9978 7bbe
00000070: cec7 053e 1b93 09bd 67c1 9e3e 2500 1cbe
00000080: ba3d 433f 3d6b 1d3f 8edd ca3d e428 3f3f
00000090: 0262 9e3e 9954 5b3e e42c 56be 8bc6 183f
000000a0: aa6e 3abf 5f0e fbbe 4110 95bb 8dc9 a7bb
000000b0: 1967 3bbf 0663 adbd 0579 293d 2826 0bbf
000000c0: b344 99be e883 28be 40ae ba3d 9488 533e
000000d0: 2332 c8ba 532f a1bd 0f67 ffbe 0175 1ebf
000000e0: e87a cebd f3e5 a93b 60ca 82be f07d d9be
000000f0: e533 0cbf 3ad5 513f 7cf1 32bf d224 d63d

seq.4.weight f4 [64, 64]
-0.9418833 -0.29713342 0.15526615 0.97024584 -0.16281201 -0.119501024 0.27970418 0.757977
0.009863187 0.6091953 0.49060118 0.58263266 -0.4884221 -0.7459739 0.5981285 0.47520623
0.24699225 -0.49414513 -0.7683896 0.25636154 0.33273298 0.56386465 0.64267504 -0.6752703
-0.46519807 0.17640269 -0.19594204 -0.2912821 -0.66739196 -0.36767933 0.34048682 -0.3322902
-0.517061 0.0040567485 0.8440039 0.91568536 -0.64203733 -0.7386978 0.38365662 -0.51146847
0.58851165 0.7980907 -0.4694725 0.18427561 -0.10579462 0.80600286 0.26609057 -0.41794685
-0.9102394 1.0084907 -0.44054967 -0.22397749 0.42182446 0.53279734 -0.76154506 -0.16133487
0.0049031293 0.27123412 0.44768474 -0.6368377 0.6566577 -0.14168128 -0.37164757 -0.05003082
0.041563336 -0.099951215 0.9428214 -0.50694346 1.0551953 0.6331225 -1.3575743 0.09146719
0.05706851 1.4414608 0.7664866 1.1718074 0.8199025 0.7768265 -0.6045828 -0.3583223
-1.0267968 0.9152481 -1.0351437 -1.3319286 0.39079082 1.3676323 -0.06208272 -0.7019658
0.5322667 -0.20281765 0.33060813 1.1928443 -0.36254767 0.19321196 -0.27150977 0.46353832
-0.038166795 -1.2349001 0.4950782 1.4531484 0.36871856 -1.4139956 0.05899031 0.617817
0.7239735 1.1870478 0.9003796 0.029371371 0.7716833 0.25518945 0.7245928 1.3052553
0.5052403 -0.8861801 -0.74938065 -0.64802486 -0.22248799 -0.72727185 -1.1003447 -1.0822318
-0.7420509 -1.0683548 -0.1222809 0.7031647 0.68812704 -1.2155199 -0.54634905 0.21998207
0.50140023 -0.042138543 -1.4030259 0.25905362 -1.0335209 -1.2654324 -0.7702351 -0.86361235
0.93652886 1.4344221 1.046521 -0.8136366 0.71196574 -0.111366816 -1.1452185 -0.39905965
0.1940263 -1.0506803 0.72665215 0.61650646 0.6244519 -0.37594736 0.12204903 0.9344705
-0.013994007 0.33278245 0.7853158 -0.9895143 -0.5285974 0.44018447 -0.11136614 -0.14656086
0.5958326 -0.13180146 0.048997827 0.8041938 0.43840516 1.439162 -0.37720492 -0.24513094
0.04166071 -0.7812386 -0.85108614 0.0008861311 -1.1839819 0.11018874 -1.2293715 0.6407079
1.268949 0.06426199 -0.21850668 0.76386994 1.0715251 -0.5864019 0.58297044 -0.55339205
-0.045355175 -0.74806947 -0.1852363 0.026812203 0.79814 1.0960019 0.73574615 0.9990043
-1.0959642 0.24381365 -0.0149841225 -0.36019465 -0.19422677 -1.1613071 0.082660876 0.012263178
0.24669714 0.15295151 -0.5829512 -0.8663597 0.221903 0.070307426 -0.6185241 1.1894412
-0.6677798 0.80263996 -0.46572727 -0.31117627 0.17264152 -0.049719438 0.28611678 -0.08289468
0.1131077 1.1045785 0.075686626 0.9814855 0.43551937 0.058786523 -0.16725422 -0.23029354
1.4180745 -1.0156826 -0.5056447 0.6799316 0.21531889 -0.9308603 -0.8303908 0.5249294
-0.1544772 -0.33266756 -1.1169388 0.6467959 0.658158 -0.08241324 0.5364416 -1.1676887
0.84008706 -0.1328641 -0.041369546 0.5804887 0.44686127 0.6098505 0.2409588 0.60769856
0.45705718 -0.5156239 -0.7556414 0.0251694 0.41851476 -0.91554445 0.5005021 0.815976
00000000: 441f 71bf df21 98be 17fe 1e3e 0862 783f
00000010: 31b8 26be f4bc f4bd 6335 8f3e c80a 423f
00000020: 3499 213c 39f4 1b3f 1430 fb3e 6a27 153f
00000030: 7612 fabe 25f8 3ebf f31e 193f 3b4e f33e
00000040: 89eb 7c3e 9700 fdbe 2eb5 44bf d241 833e
00000050: fa5b aa3e 6f59 103f 5a86 243f 84de 2cbf
00000060: 712e eebe e8a2 343e 08a5 48be ed22 95be
00000070: 33da 2abf 7740 bcbe 4a54 ae3e f121 aabe
00000080: 1c5e 04bf 79ee 843b a410 583f 5b6a 6a3f
00000090: 8f5c 24bf 4d1b 3dbf a46e c43e 99ef 02bf
000000a0: b3a8 163f ac4f 4c3f b35e f0be bfb2 3c3e
000000b0: daaa d8bd 3456 4e3f 063d 883e 21fd d5be
000000c0: 7305 69bf 3916 813f ba8f e1be 5b5a 65be
000000d0: 60f9 d73e 6865 083f 9ef4 42bf f834 25be
000000e0: 6eaa a03b 33df 8a3e ef36 e53e cc07 23bf
000000f0: b81a 283f e614 11be 9748 bebe 1eed 4cbd
00000100: 513e 2a3d 39b3 ccbd be5c 713f 0cc7 01bf
00000110: a410 873f 5114 223f ffc4 adbf 2653 bb3d
00000120: acc0 693d ca81 b83f 7738 443f c9fd 953f
00000130: 21e5 513f 1ade 463f f0c5 1abf 0576 b7be
00000140: 146e 83bf b34d 6a3f 977f 84bf a37c aabf
00000150: bc15 c83e 930e af3f 734a 7ebd 08b4 33bf
00000160: a142 083f 6eaf 4fbe 7845 a93e 1faf 983f
00000170: d99f b9be 5bd9 453e 5403 8bbe e554 ed3e
00000180: c954 1cbd 3511 9ebf e47a fd3e c400 ba3f
00000190: aec8 bc3e cffd b4bf d39f 713d 4129 1e3f
000001a0: 5456 393f 2ff1 973f 477f 663f 3b9c f03c
000001b0: 098d 453f 31a8 823e ea7e 393f 9b12 a73f
000001c0: 6e57 013f b3dc 62bf 69d7 3fbf f5e4 25bf
000001d0: e4d3 63be 7d2e 3abf 18d8 8cbf 9286 8abf
000001e0: 0cf7 3dbf dabf 88bf 696e fabd 9a02 343f
000001f0: 1829 303f 2896 9bbf 88dd 0bbf fb42 613e
00000200: c45b 003f 7799 2cbd 5a96 b3bf ada2 843e
00000210: 6a4a 84bf b0f9 a1bf 212e 45bf b315 5dbf
00000220: 5bc0 6f3f 259b b73f 66f4 853f 7d4a 50bf
00000230: 6343 363f 4914 e4bd 8596 92bf 8c51 ccbe
00000240: d5ae 463e b17c 86bf e005 3a3f 5ed3 1d3f
00000250: 14dc 1f3f 2c7c c0be d8f4 f93d 7539 6f3f
00000260: 1f47 65bc 7662 aa3e 750a 493f cf50 7dbf
00000270: 2952 07bf dc5f e13e ee13 e4bd 0d14 16be
00000280: 7c88 183f f6f6 06be f2b1 483d a5df 4d3f
00000290: a476 e03e 7636 b83f 0121 c1be 9b03 7bbe
000002a0: 6ca4 2a3d 41ff 47bf c8e0 59bf 404b 683a
000002b0: b88c 97bf a2aa e13d 0c5c 9dbf 6f05 243f
000002c0: ec6c a23f ca9b 833d 37c0 5fbe fb8c 433f
000002d0: bc27 893f 6f1e 16bf 8d3d 153f 1aab 0dbf
000002e0: 59c6 39bd 7b81 3fbf 96ae 3dbe 44a5 db3c
000002f0: e752 4c3f ca49 8c3f dc59 3c3f bfbe 7f3f
00000300: 8e48 8cbf 49aa 793e f77f 75bc 6f6b b8be
00000310: 62e3 46be b6a5 94bf 1b4a a93d 7feb 483c
00000320: 2d9e 7c3e 529f 1c3e 4a3c 15bf c0c9 5dbf
00000330: 8a3a 633e 57fd 8f3d 9857 1ebf 9c3f 983f
00000340: 9ef3 2abf d079 4d3f ce73 eebe 7f52 9fbe
00000350: f0c8 303e 9ca6 4bbd e67d 923e b0c4 a9bd
00000360: 03a5 e73d d462 8d3f 9701 9b3d a242 7b3f
00000370: 65fc de3e 23ca 703d b144 2bbe 12d2 6bbe
00000380: 7783 b53f e301 82bf ee71 01bf ff0f 2e3f
00000390: 8e7c 5c3e dc4c 6ebf 7e94 54bf c661 063f
000003a0: 452f 1ebe 6753 aabe daf7 8ebf 6b94 253f
000003b0: 0b7d 283f 46c8 a8bd 3d54 093f d376 95bf
000003c0: f20f 573f 870d 08be 1d73 29bd e89a 143f
000003d0: 00cb e43e 2a1f 1c3f e7bd 763e 2292 1b3f
000003e0: 6603 ea3e eeff 03bf b771 41bf 0f30 ce3c
000003f0: 9147 d63e 1f61 6abf e820 003f cee3 503f

seq.4.bias f4 [64]
0.83562803 -0.25615433 -0.4667373 0.14432189 -0.15428758 0.116315 1.0672845 1.5843117
-0.28354272 -0.08114276 -0.25948408 -0.36251938 -0.16199797 -0.7319163 -0.20106247 0.08299913
-0.33237737 -0.366568 0.5800448 0.23966251 0.916087 -0.042423744 -0.3759995 -0.76009667
0.0067027686 1.2891893 0.76167923 -0.5267662 -0.485437 -0.35878056 0.06983121 0.7467148
0.5483011 -0.2929475 -0.49734917 -1.0872195 0.34755537 -0.53379 -0.25387692 1.1485801
0.54004097 -1.1836104 0.14767855 -0.32532752 -0.64630574 0.8468625 -0.6430721 -0.5374277
-0.22836997 0.3381668 -0.45393258 0.11157134 0.07075498 -0.022449452 1.1591934 0.47866973
0.45795858 0.15610962 -1.2355311 -0.07629928 0.07050483 -0.105458096 -0.3024425 0.16771293
00000000: b8eb 553f a926 83be 31f8 eebe 1ec9 133e
00000010: 90fd 1dbe 8f36 ee3d c79c 883f baca ca3f
00000020: 832c 91be 2d2e a6bd 19db 84be 249c b9be
00000030: cce2 25be de5e 3bbf 52e3 4dbe 73fb a93d
00000040: 5e2d aabe cdae bbbe d17d 143f 176a 753e
00000050: ad84 6a3f 85c4 2dbd 0283 c0be b295 42bf
00000060: e6a2 db3b 2804 a53f 69fd 423f 26da 06bf
00000070: 338b f8be 16b2 b7be aa03 8f3d b328 3f3f
00000080: 765d 0c3f 37fd 95be 8da4 febe 022a 8bbf
00000090: c7f2 b13e 76a6 08bf 28fc 81be ac04 933f
000000a0: 2040 0a3f 8c80 97bf 0c39 173e 5491 a6be
000000b0: 4b74 25bf fbcb 583f 60a0 24bf dd94 09bf
000000c0: d1d9 69be 3324 ad3e da69 e8be 847f e43d
000000d0: fde7 903d eae7 b7bc 7360 943f 3314 f53e
000000e0: 8c79 ea3e 33db 1f3e e225 9ebf cc42 9cbd
000000f0: d664 903d 6afa d7bd bed9 9abe f0bc 2b3e

seq.6.weight f4 [3, 64]
2.1112425 2.04901 1.9753796 0.16599227 2.0748835 0.19937062 -1.5512295 -1.1269035
2.7057714 -0.36869314 -1.8232695 1.9156878 -0.98835105 1.2537125 -0.2628561 0.93479043
1.1465439 1.688736 -0.76846474 -2.211039 1.5416856 1.1563761 -1.8554515 1.4756976
-0.11273428 1.7023827 1.2619904 1.3619552 1.7209768 1.162106 1.9643493 -0.11163479
1.0988843 1.8735305 1.1929715 -1.9407032 1.2368317 -1.4523898 1.757397 2.3171325
-1.7384073 -2.4515991 1.9941134 -1.4276927 2.0038712 1.2510729 -1.8129987 1.2198664
-0.71867114 -2.2744398 -2.236067 -2.1565409 -2.0547225 -0.0035200743 -1.9247539 1.9133381
-0.881678 0.35575098 1.9041786 0.9576306 -1.5503246 1.6266017 0.103455365 2.3947933
0.068979666 0.15219982 0.8947694 -0.39231652 0.47533745 -0.62272537 -0.82182866 0.42286688
1.51999 0.7110747 -0.42669788 -0.7256888 0.68197817 -1.6761905 -0.88565737 0.19231343
-1.3682569 -0.25441977 -0.56849515 1.3849076 0.11086928 0.098834746 -0.45698303 -0.077725366
0.33541712 2.1010017 -0.54125375 -1.1594174 1.0642446 0.5905701 -0.89611953 0.32740426
2.0219154 1.5479423 0.43120858 -0.9673062 -0.59334767 -0.59188277 0.24789427 0.6947524
0.018491078 -1.1661166 -0.18390849 -0.05344302 0.104941875 -0.84382665 -0.46314105 -0.20939356
0.10253016 -0.063507505 0.28822872 0.5812853 -0.386025 -0.5601487 0.010206448 -0.49316308
0.38310403 1.5534643 -0.019518564 -0.6459555 0.012735061 -1.0171046 -0.2960144 1.860937
0.31646788 -0.40321848 0.039312445 1.15612 0.24892734 -1.8916286 0.5091252 2.2532015
1.1503841 0.9799075 0.033561524 0.5645423 0.74446464 0.61099786 -1.454582 0.25763816
-2.5280445 -0.9632997 -0.72445524 0.16755316 -0.82006496 -0.41025174 -0.26638502 1.1118952
-0.4873264 -1.2226326 0.41020748 0.50300103 0.22421435 -0.40969104 -0.10119194 0.45566082
0.37387958 0.5635437 -0.7223322 0.768256 -0.72115195 -0.091865376 -0.34238717 0.29156718
0.44743776 0.19345033 1.1922345 0.6173306 -0.4617959 0.39298823 -0.18008067 -0.9988876
0.24332532 -0.7538468 -0.4304927 0.0497609 0.09788478 0.82030994 -0.0067564757 0.5677129
-0.2986748 -0.96074146 -1.1291705 -0.22938183 1.0109441 -1.8508424 -0.97050416 1.1173027
00000000: 991e 0740 fb22 0340 3dd9 fc3f e1f9 293e
00000010: e4ca 0440 d027 4c3e b08e c6bf 603e 90bf
00000020: 5c2b 2d40 59c5 bcbe e560 e9bf 4235 f53f
00000030: 9304 7dbf a779 a03f 1395 86be 6d4e 6f3f
00000040: f3c1 923f 8028 d83f 1bba 44bf aa81 0dc0
00000050: f455 c53f 2204 943f 6f7f edbf a9e3 bc3f
00000060: 3be1 e6bd ade7 d93f e788 a13f 8c54 ae3f
00000070: f848 dc3f e4bf 943f cc6f fb3f c8a0 e4bd
00000080: 3ea8 8c3f d9cf ef3f 4ab3 983f f668 f8bf
00000090: 8050 9e3f e9e7 b9bf 63f2 e03f e64b 1440
000000a0: 2184 debf 00e7 1cc0 1c3f ff3f a2be b6bf
000000b0: 6d3f 0040 2823 a03f 5710 e8bf 9524 9c3f
000000c0: d5fa 37bf 6c90 11c0 b91b 0fc0 c404 0ac0
000000d0: 9380 03c0 0cb1 66bb 565e f6bf 43e8 f43f
000000e0: a6b5 61bf fe24 b63e 20bc f33f 4727 753f
000000f0: 0971 c6bf 7c34 d03f 68e0 d33d 4b44 1940
00000100: 3645 8d3d 45da 1b3e 9b0f 653f b6dd c8be
00000110: 6e5f f33e ee6a 1fbf 5d63 52bf 0282 d83e
00000120: 088f c23f fe08 363f 2578 dabe bec6 39bf
00000130: 1f96 2e3f 698d d6bf 71ba 62bf d0ed 443e
00000140: 0b23 afbf 4f43 82be e688 11bf a744 b13f
00000150: 6f0f e33d df69 ca3d aef9 e9be 7a2e 9fbd
00000160: cbbb ab3e d076 0640 9b8f 0abf ca67 94bf
00000170: 2b39 883f 9a2f 173f 1768 65bf 88a1 a73e
00000180: 1067 0140 f922 c63f 5fc7 dc3e 61a1 77bf
00000190: a2e5 17bf a185 17bf ffd7 7d3e 4bdb 313f
000001a0: 9a7a 973c 4f43 95bf 8252 3cbe 11e7 5abd
000001b0: c4eb d63d 0605 58bf d320 edbe 446b 56be
000001c0: 55fb d13d 3910 82bd b792 933e 1dcf 143f
000001d0: 12a5 c5be e865 0fbf f238 273c df7f fcbe
000001e0: 3626 c43e ebd7 c63f 65e5 9fbc 575d 25bf
000001f0: b8a6 503c 7c30 82bf 338f 97be 2f33 ee3f
00000200: 1408 a23e a772 cebe 1606 213d bdfb 933f
00000210: cfe6 7e3e e320 f2bf 0756 023f 7434 1040
00000220: c93f 933f 38db 7a3f cf77 093d d885 103f
00000230: 3c95 3e3f 5b6a 1c3f be2f babf 26e9 833e
00000240: 7bcb 21c0 cf9a 76bf e675 39bf 0e93 2b3e
00000250: c7ef 51bf 840c d2be 9e63 88be 9552 8e3f
00000260: d982 f9be 3a7f 9cbf b706 d23e adc4 003f
00000270: 7298 653e 06c3 d1be b83d cfbd 604c e93e
00000280: 256d bf3e 6644 103f c3ea 38bf 6dac 443f
00000290: 6a9d 38bf ea23 bcbd 5f4d afbe 4b48 953e
000002a0: 9016 e53e d817 463e 249b 983f 6109 1e3f
000002b0: 8370 ecbe c135 c93e 1167 38be 19b7 7fbf
000002c0: 462a 793e 1bfc 40bf 8a69 dcbe 16d2 4b3d
000002d0: d177 c83d d5ff 513f 6d65 ddbb a255 113f
000002e0: e7eb 98be 27f3 75bf a988 90bf 12e3 6abe
000002f0: 9e66 813f 67e8 ecbf f672 78bf c603 8f3f

seq.6.bias f4 [3]
1.3191497 0.5328518 -0.107289076
00000000: e6d9 a83f fa68 083f 60ba dbbd

seq.7.weight f8 [3, 3]
1.0 0.0 0.0 0.0 1.0 0.0 0.0 0.0
1.0
00000000: 0000 0000 0000 f03f 0000 0000 0000 0000
00000010: 0000 0000 0000 0000 0000 0000 0000 0000
00000020: 0000 0000 0000 f03f 0000 0000 0000 0000
00000030: 0000 0000 0000 0000 0000 0000 0000 0000
00000040: 0000 0000 0000 f03f

seq.7.bias f4 [3]
-0.0 -0.0 -0.0
00000000: 0000 0080 0000 0080 0000 0080
