examples/quadrotor/models/6r32r32r3-BnB/premodel.pt (torch, 7495 bytes, 3 tensors)

Linear.0.bias f4 [32]
00000000: 8594 e73e edff 013f 325f 823e 172d f73d
00000010: 150c 9cbd 4991 5fba 8966 94bc aefb 293f
00000020: c9b5 a6be 8a35 0b3c 5fe4 a53e 0e68 e2b8
00000030: 2138 ca3e af67 cfbe b853 17b9 a139 8bbe
00000040: 4097 ee3e 1796 263f fc14 55bd a8fe 283f
00000050: 2608 6fbe 6e52 87ba b2d0 82be 33b9 46bd
00000060: 6677 a9bd 0391 a1bd 912c 8e3e 65de de3e
00000070: faa1 67be d547 2bbe 3300 38bb 11b9 e23e
0.452305 0.50781137 0.25463253 0.12069147 -0.07619492 -0.0008528424 -0.018115299 0.6639966
-0.32560566 0.008496651 0.32400796 -0.000107959015 0.39495948 -0.40508792 -0.0001443167 -0.27192405
0.4659977 0.6507277 -0.052021965 0.66013575 -0.23342952 -0.0010324249 -0.25549847 -0.048516463
-0.082747266 -0.07888987 0.27768376 0.4352905 -0.22620383 -0.1672662 -0.002807629 0.4428182

Linear.2.bias f4 [32]
00000000: 74d4 23be 1aef 67bc 55a4 6cbd 0174 963e
00000010: afca 1dbe 2ad2 a03e e110 cbb8 bbbd 153e
00000020: a14a 913d 9e24 ec3d b0e8 82bc 76f5 a2bd
00000030: cf98 403e ce29 6f3e 8959 4d3e 5018 12be
00000040: fa77 f2bd 7d53 e3bd 50c5 693e 2d33 ceb7
00000050: 715d 80bb 9087 1dbc 2044 27be d698 283e
00000060: 1e67 7d3e a4ad 80bd 334e 2bbe a163 23be
00000070: d0e4 32be 0e77 00be 89d0 9bbd ae44 babd
-0.15999013 -0.014156127 -0.057773907 0.2938538 -0.15409349 0.31410342 -9.682938e-05 0.14623158
0.070943125 0.11530422 -0.015980095 -0.07956974 0.18808292 0.23355791 0.20053686 -0.14267087
-0.1183929 -0.110999085 0.22829175 -2.4580944e-05 -0.003917389 -0.00961484 -0.16334581 0.16464552
0.24746367 -0.06283119 -0.1672905 -0.15955974 -0.17470098 -0.12545416 -0.07608134 -0.09095131

Linear.4.bias f4 [3]
00000000: 7511 963d 1f9a 133f ad5e 213d
0.073275484 0.57657045 0.03939693
