benchmarks/models/nn_6_tanh/model.pt (torch, 6331 bytes, 7 tensors)

seq.0.weight f4 [20, 4]
0	0xbe324521	-0.17409183
1	0xbd1614ac	-0.036640808
2	0x3dd78408	0.1052323
3	0x3e435bd4	0.19077998
4	0x3e32651f	0.17421387
5	0x3d160e24	0.03663458
6	0xbdd6ff6c	-0.104979366
7	0xbe437861	-0.1908889
8	0xbe31f3ff	-0.17378233
9	0xbd156195	-0.036470015
10	0x3dd69273	0.10477152
11	0x3e430527	0.19044934
12	0xbe328a70	-0.17435622
13	0xbd14f0c4	-0.036362424
14	0x3dd753ee	0.10514055
15	0x3e439eff	0.19103621
16	0xbc07de93	-0.008292812
17	0xbae17812	-0.0017201921
18	0x3ba670dd	0.0050793723
19	0x3c1dd67f	0.009633659
20	0xbdeec380	-0.116583824
21	0xbcc9853b	-0.024599662
22	0x3d909073	0.070588015
23	0x3e0440ca	0.1291534
24	0xbe32c8b7	-0.17459379
25	0xbd1607d4	-0.03662856
26	0x3dd779bc	0.10521266
27	0x3e43f199	0.19135131
28	0x3c9dcf4a	0.019263882
29	0x3b7ea780	0.0038857162
30	0xbc3a38bd	-0.0113660665
31	0xbcae7355	-0.021295229
32	0xbe334d8f	-0.17510055
33	0xbd16e81a	-0.036842443
34	0x3dd86903	0.105669044
35	0x3e447ff2	0.19189432
36	0xbe336a55	-0.17521031
37	0xbd167c7d	-0.036739815
38	0x3dd845ec	0.105602115
39	0x3e44aae3	0.19205813
40	0xbdec5ac5	-0.115407504
41	0xbcc68da8	-0.024237469
42	0x3d8dd6a6	0.069257066
43	0x3e01db43	0.12681298
44	0xbd667cca	-0.056271352
45	0xbc403cbf	-0.011733233
46	0x3d06b45e	0.032886855
47	0x3d7da946	0.06192901
48	0x3e322485	0.17396744
49	0x3d1588b6	0.03650733
50	0xbdd6bdc2	-0.10485412
51	0xbe432314	-0.1905635
52	0x3c9d1df3	0.01917932
53	0x3b850a1d	0.0040600435
54	0xbc41f158	-0.011837326
55	0xbcae55d9	-0.02128117
56	0x3e325bc1	0.17417814
57	0x3d14868f	0.036261138
58	0xbdd6f9f5	-0.10496894
59	0xbe43742c	-0.19087285
60	0xbe0e3aba	-0.1388959
61	0xbceef644	-0.029170163
62	0x3dac33db	0.08408328
63	0x3e1b7fb7	0.15185438
64	0xbe325778	-0.17416179
65	0xbd130415	-0.035892565
66	0x3dd71006	0.10501103
67	0x3e437069	0.1908585
68	0x3e31c520	0.17360353
69	0x3d1530b6	0.036423407
70	0xbdd65cda	-0.10466929
71	0xbe42c286	-0.19019517
72	0xbd05b46e	-0.032642774
73	0xbbdfc9d2	-0.006829479
74	0x3ca38f7e	0.019965883
75	0x3d14dc8d	0.036343146
76	0x3e33762d	0.17525549
77	0x3d16af2d	0.036788154
78	0xbdd82d5e	-0.10555528
79	0xbe447e71	-0.19188859

seq.0.bias f4 [20]
0	0xbe8abc68	-0.27096868
1	0x3e8ace96	0.27110738
2	0xbe8a88d3	-0.27057514
3	0xbe8ae890	-0.27130556
4	0xbcda796c	-0.026669227
5	0xbe49741b	-0.19673197
6	0xbe8b0fff	-0.27160642
7	0x3d22f183	0.039781105
8	0xbe8b5fa2	-0.272214
9	0xbe8b73c7	-0.2723677
10	0xbe4748ff	-0.1946144
11	0xbdd8a70c	-0.10578737
12	0x3e8a9ccb	0.2707275
13	0x3d4afeb2	0.049559303
14	0x3e8acb55	0.27108255
15	0xbe67be4e	-0.22631189
16	0xbe8ac77c	-0.2710532
17	0x3e8a6763	0.27032003
18	0xbd919834	-0.071091086
19	0x3e8b59f3	0.27217063

seq.2.weight f4 [20, 20]
0	0x3c6f9252	0.014622288
1	0xbc6f6887	-0.014612324
2	0x3c6f36dd	0.014600483
3	0x3c6fdd14	0.0146401115
4	0x3a2df60b	0.00066360895
5	0x3c213768	0.00983987
6	0x3c700a7f	0.01465094
7	0xbace8437	-0.0015755956
8	0x3c70fbc4	0.014708463
9	0x3c710c18	0.014712356
10	0x3c1e04e2	0.009644719
11	0x3b9936c1	0.0046757166
12	0xbc6f58ac	-0.014608543
13	0xbad0eb97	-0.0015939352
14	0xbc6f8414	-0.014618892
15	0x3c3ec819	0.011644387
16	0x3c6f1df0	0.01459454
17	0xbc6ea388	-0.014565356
18	0x3b32298b	0.0027185406
19	0xbc70cf59	-0.014697873
20	0x3c42ddb8	0.011893682
21	0xbc4343c4	-0.011918012
22	0x3c427e06	0.011870867
23	0x3c42d933	0.011892605
24	0x3a15aa67	0.0005709291
25	0x3c027b3c	0.007963952
26	0x3c432d9a	0.011912728
27	0xbaa96e46	-0.0012926541
28	0x3c43e886	0.011957293
29	0x3c43ec59	0.011958205
30	0x3c0075ff	0.007840632
31	0x3b77d76b	0.0037817608
32	0xbc425e41	-0.011863292
33	0xbaa9104d	-0.0012898535
34	0xbc42e355	-0.0118950205
35	0x3c1aeb4c	0.009455513
36	0x3c426b7b	0.011866446
37	0xbc427007	-0.01186753
38	0x3b10ba6f	0.002208378
39	0xbc43ba78	-0.011946313
40	0x3c82d39b	0.015970042
41	0xbc82c482	-0.015962843
42	0x3c827bf4	0.015928246
43	0x3c82d0a4	0.015968628
44	0x3a48bbb2	0.00076573633
45	0x3c2f5eb9	0.010703736
46	0x3c8306ba	0.015994418
47	0xbae372ef	-0.0017352978
48	0x3c837e5a	0.01605146
49	0x3c839675	0.016062954
50	0x3c2c8505	0.010529761
51	0x3ba7a8e6	0.00511657
52	0xbc827d2c	-0.015928827
53	0xbae32c19	-0.0017331868
54	0xbc82b9fc	-0.015957825
55	0x3c508c7e	0.012728808
56	0x3c82a19d	0.015946204
57	0xbc823ff0	-0.015899628
58	0x3b428e3e	0.0029686834
59	0xbc836b49	-0.016042368
60	0x3c303171	0.010753975
61	0xbc2ffc0a	-0.010741243
62	0x3c2f8e98	0.010715149
63	0x3c303711	0.010755316
64	0x3a06fd91	0.00051494787
65	0x3beca461	0.007221744
66	0x3c306f63	0.010768744
67	0xba98e75e	-0.0011665632
68	0x3c31c266	0.010849571
69	0x3c3141c6	0.010818904
70	0x3be9c800	0.0071344376
71	0x3b5fd0b7	0.0034151503
72	0xbc2fe55f	-0.010735839
73	0xba991997	-0.00116806
74	0xbc309485	-0.010777597
75	0x3c0c0b09	0.008547553
76	0x3c2fc173	0.010727274
77	0xbc3001c9	-0.010742613
78	0x3b034502	0.0020030146
79	0xbc30f119	-0.01079967
80	0x3c26c4de	0.010178773
81	0xbc270123	-0.010193142
82	0x3c2652c1	0.010151566
83	0x3c26f2ef	0.010189756
84	0x3a000bb1	0.00048845547
85	0x3bdf5428	0.006815452
86	0x3c27162d	0.010198158
87	0xba90e631	-0.001105493
88	0x3c27c0e1	0.010238857
89	0x3c287d36	0.010283759
90	0x3bdcd975	0.00673979
91	0x3b5429ee	0.0032373625
92	0xbc266b6f	-0.01015745
93	0xba9135af	-0.0011078621
94	0xbc26adbe	-0.010173259
95	0x3c0602df	0.008179395
96	0x3c26785f	0.010160535
97	0xbc261ba3	-0.010138425
98	0x3af551b8	0.0018716371
99	0xbc2853b0	-0.010273859
100	0x3b8f5cf0	0.0043750927
101	0xbb8f0023	-0.00436403
102	0x3b8ea990	0.0043537095
103	0x3b8f202a	0.004367848
104	0x395bc691	0.0002095944
105	0x3b3f958a	0.002923342
106	0x3b90015f	0.0043946947
107	0xb9f85302	-0.00047364092
108	0x3b8fec17	0.004392158
109	0x3b8ff338	0.0043930076
110	0x3b3c08a1	0.0028691667
111	0x3ab6d3b7	0.0013948594
112	0xbb8ec445	-0.0043568932
113	0xb9f94401	-0.00047543648
114	0xbb8f980b	-0.0043821386
115	0x3b638496	0.0034716479
116	0x3b8dc2fe	0.0043262234
117	0xbb8f29e4	-0.0043690074
118	0x3a557fd4	0.0008144353
119	0xbb905ec7	-0.0044058296
120	0xbc97bc65	-0.01852245
121	0x3c979f11	0.018508466
122	0xbc9755d9	-0.018473553
123	0xbc97c8d0	-0.018528372
124	0xba69598f	-0.000890159
125	0xbc4b5742	-0.012410941
126	0xbc9807ac	-0.018558346
127	0x3b040c01	0.0020148756
128	0xbc989297	-0.018624587
129	0xbc989674	-0.01862643
130	0xbc483a55	-0.012220939
131	0xbbc15a27	-0.0059006396
132	0x3c976fb2	0.018485878
133	0x3b0430ee	0.0020170766
134	0x3c97beee	0.01852366
135	0xbc716ea6	-0.014735853
136	0xbc9770ae	-0.018486347
137	0x3c972dda	0.01845448
138	0xbb62ae32	-0.0034588692
139	0x3c988363	0.018617338
140	0xbbda2187	-0.006656829
141	0x3bd9f878	0.0066519342
142	0xbbdb5b25	-0.006694215
143	0xbbda55ff	-0.0066630836
144	0xb9a652fc	-0.00031723815
145	0xbb920a38	-0.0044567846
146	0xbbdcf44c	-0.0067429896
147	0x3a3738f0	0.00069893803
148	0xbbdd703a	-0.006757763
149	0xbbdb609b	-0.006694866
150	0xbb8fcf88	-0.0043887533
151	0xbb0aadf5	-0.0021160815
152	0x3bdb8e60	0.006700322
153	0x3a3d7534	0.00072272425
154	0x3bda0c69	0.0066543114
155	0xbbad7692	-0.0052936757
156	0xbbd9cd54	-0.0066467915
157	0x3bdb1e3d	0.0066869543
158	0xbaa21550	-0.0012365971
159	0x3bdb2d59	0.0066887555
160	0x3c679fbd	0.014137206
161	0xbc676344	-0.014122788
162	0x3c66e15a	0.014091814
163	0x3c67e23c	0.01415306
164	0x3a2fdd24	0.0006708673
165	0x3c1b15eb	0.009465675
166	0x3c6836c4	0.014173213
167	0xbac9a0a4	-0.0015382958
168	0x3c68c541	0.014207185
169	0x3c68f91a	0.014219547
170	0x3c194dab	0.009356896
171	0x3b938022	0.0045013586
172	0xbc6762a8	-0.014122643
173	0xbac956be	-0.0015360934
174	0xbc676a68	-0.01412449
175	0x3c384589	0.011247047
176	0x3c671165	0.014103268
177	0xbc668c6d	-0.014071566
178	0x3b2bf970	0.0026241206
179	0xbc68ed4c	-0.014216732
180	0x3c57b36b	0.013165335
181	0xbc572584	-0.013131503
182	0x3c56d870	0.013113126
183	0x3c574909	0.0131399715
184	0x3a1c24d7	0.00059564173
185	0x3c10f560	0.008847564
186	0x3c57fc6b	0.01318274
187	0xbab9170c	-0.0014121248
188	0x3c588c96	0.013217112
189	0x3c58de6d	0.013236624
190	0x3c0e2656	0.008676132
191	0x3b8a021d	0.0042116777
192	0xbc572df1	-0.013133512
193	0xbabbc994	-0.0014327043
194	0xbc57381e	-0.013135938
195	0x3c2bf15a	0.010494554
196	0x3c5754bf	0.013142764
197	0xbc567109	-0.013088473
198	0x3b2007fb	0.002441882
199	0xbc58a695	-0.01322331
200	0xbc8db009	-0.017295854
201	0x3c8d9538	0.017283067
202	0xbc8d594f	-0.0172545
203	0xbc8daf4c	-0.017295502
204	0xba581850	-0.0008243369
205	0xbc3e4893	-0.011613983
206	0xbc8e04f8	-0.017336354
207	0x3af7fadd	0.0018919368
208	0xbc8e7a54	-0.017392315
209	0xbc8e7533	-0.01738987
210	0xbc3af696	-0.01141133
211	0xbbb5ab0e	-0.005544073
212	0x3c8d6672	0.017260764
213	0x3af72ac6	0.0018857352
214	0x3c8d9e7a	0.017287482
215	0xbc61b3fb	-0.013775821
216	0xbc8d6df1	-0.017264338
217	0x3c8d2a18	0.017231986
218	0xbb52e825	-0.0032181826
219	0x3c8e7837	0.017391307
220	0x3bcb90bc	0.006212322
221	0xbbcb0723	-0.006195919
222	0x3bcc9bd3	0.0062441616
223	0x3bcca188	0.006244842
224	0x399a459f	0.0002942504
225	0x3b8807d6	0.0041513247
226	0x3bcbe1c7	0.006221983
227	0xba3096f3	-0.00067363604
228	0x3bcc4ebe	0.0062349727
229	0x3bcdd25e	0.0062811812
230	0x3b862fe2	0.0040950635
231	0x3aff06c1	0.0019456969
232	0xbbcaba78	-0.0061867796
233	0xba2e59db	-0.0006650963
234	0xbbcb20ab	-0.0061989627
235	0x3ba1992b	0.004931589
236	0x3bcc5d78	0.0062367283
237	0xbbcc0817	-0.0062265503
238	0x3a96f47e	0.0011516956
239	0xbbcc2dc1	-0.00623104
240	0xbc8d4062	-0.017242614
241	0x3c8d2481	0.01722932
242	0xbc8cdb1d	-0.017194325
243	0xbc8d517e	-0.017250773
244	0xba593f94	-0.0008287367
245	0xbc3d515b	-0.011555041
246	0xbc8d95f0	-0.01728341
247	0x3af59dde	0.0018739065
248	0xbc8e0ab7	-0.017339094
249	0xbc8e1d7c	-0.017348044
250	0xbc3a7167	-0.011379576
251	0xbbb3c1e5	-0.0054857605
252	0x3c8cf2c2	0.0172056
253	0x3af56028	0.0018720673
254	0x3c8d3ec8	0.01724185
255	0xbc60b019	-0.01371386

seq.2.bias f4 [20]
0	0xb6c940c0	-5.9978047e-06
1	0xb81a120c	-3.673327e-05
2	0x38309b7c	4.2106476e-05
3	0xb8136922	-3.5145444e-05
4	0xb8891065	-6.535723e-05
5	0x36c9d1b0	6.0146776e-06
6	0xb92790c0	-0.00015980285
7	0x372cdc58	1.0303302e-05
8	0xb745d890	-1.1792537e-05
9	0xb81e3f2c	-3.772897e-05
10	0xb8c62015	-9.4473515e-05
11	0x3663fee0	3.3973993e-06
12	0xb8ab660c	-8.172923e-05
13	0xb7ac17d4	-2.0515094e-05
14	0x378994ac	1.6400903e-05
15	0x35acf8c0	1.2887394e-06
16	0x396ca474	0.00022567977
17	0x3c86f9b3	0.016476488
18	0x392671f0	0.00015873439
19	0xb7d77b10	-2.5687303e-05

seq.4.weight f4 [20, 20]
0	0xbd02fcc5	-0.03197934
1	0xbcd51424	-0.02601058
2	0xbd0f06db	-0.034918647
3	0xbcc073b1	-0.023492666
4	0xbcb64945	-0.022251735
5	0xbc1c69b3	-0.009546685
6	0x3d2606c9	0.040533815
7	0x3c6e744e	0.014554096
8	0xbcfd2933	-0.030903434
9	0xbceb60ef	-0.028732745
10	0x3d1afa23	0.037836205
11	0xbc5e1adb	-0.0135562075
12	0x3d1a77e3	0.03771199
13	0x3d07a06d	0.03311198
14	0x3cb648f4	0.022251584
15	0xbc3eebd9	-0.01165291
16	0xbd318980	-0.04334402
17	0x3927ea4b	0.00016013642
18	0x3ba548d6	0.005044083
19	0x3c201cef	0.009772523
20	0xbddf51b3	-0.10904255
21	0xbdb58c7f	-0.08864688
22	0xbdf3cf72	-0.119048014
23	0xbda41a97	-0.08012884
24	0xbd9b640e	-0.07587443
25	0xbd055389	-0.03255037
26	0x3e0d7de3	0.13817553
27	0x3d4b3fb3	0.049621295
28	0xbdd7c69d	-0.10535929
29	0xbdc89ea4	-0.09795883
30	0x3e0413ad	0.1289813
31	0xbd3d35cd	-0.046193887
32	0x3e03b41a	0.12861672
33	0x3de73a8e	0.11290465
34	0x3d9b5c5b	0.07585975
35	0xbd22ae7f	-0.039717194
36	0xbe175f17	-0.14782368
37	0x3a09c12c	0.000525492
38	0x3c8ce497	0.017198844
39	0x3d086e3e	0.03330826
40	0x3d9987e5	0.07496623
41	0x3d79a7f6	0.060951196
42	0x3da7a0f5	0.08184997
43	0x3d61b4c4	0.055104032
44	0x3d55a1c9	0.052156243
45	0x3cb74676	0.022372466
46	0xbdc29c0b	-0.09502419
47	0xbd0bb9d6	-0.034112774
48	0x3d945d61	0.07244373
49	0x3d89f4ff	0.067361824
50	0xbdb5aa27	-0.088703446
51	0x3d022d0a	0.031781234
52	0xbdb51aa2	-0.088429704
53	0xbd9f00bb	-0.07763811
54	0xbd559d44	-0.052151933
55	0x3cdfcd30	0.02731952
56	0x3dd02421	0.10163141
57	0xb9c10d99	-0.0003682196
58	0xbc42afcc	-0.011882734
59	0xbcbbad03	-0.022909647
60	0x3ce49101	0.027901175
61	0x3cb9da75	0.022687176
62	0x3cf98a76	0.030461531
63	0x3ca8035e	0.020509418
64	0x3c9f0ca3	0.019415205
65	0x3c086f16	0.008327266
66	0xbd10d1aa	-0.0353562
67	0xbc4fd300	-0.012684584
68	0x3cdcdf35	0.026961902
69	0x3ccd5c36	0.025068384
70	0xbd0736c5	-0.033011217
71	0x3c41c887	0.011827595
72	0xbd06cb62	-0.032908805
73	0xbceca738	-0.02888833
74	0xbc9eddcb	-0.019392869
75	0x3c269868	0.010168172
76	0x3d1ae2f3	0.037814092
77	0xb899d1e2	-7.334702e-05
78	0xbb9036d7	-0.0044010687
79	0xbc0bafae	-0.008525772
80	0xba8a9bb2	-0.0010574965
81	0xba617418	-0.0008600368
82	0xba975d13	-0.0011548124
83	0xba4bbcd9	-0.0007771976
84	0xba40f26c	-0.00073603424
85	0xb9a579ed	-0.00031562094
86	0x3aafb64a	0.0013405767
87	0x39fc275b	0.00048094508
88	0xba85f042	-0.0010218697
89	0xba791fbf	-0.0009503327
90	0x3aa404e1	0.0012513661
91	0xb9eaf584	-0.0004481488
92	0x3aa381fc	0.0012474651
93	0x3a8f8ce1	0.0010952019
94	0x3a40c0ee	0.00073529675
95	0xb9ca1578	-0.00038544438
96	0xbabbe0d6	-0.0014333974
97	0x36ac1e3a	5.1295183e-06
98	0x392eeaae	0.00016681358
99	0x39a96ec2	0.00032316713
100	0xbca34cfc	-0.01993417
101	0xbc84c0f7	-0.016205294
102	0xbcb246f5	-0.02176235
103	0xbc700392	-0.014649289
104	0xbc632991	-0.013864891
105	0xbbc3befa	-0.005973694
106	0x3ccef321	0.025262417
107	0x3c1493fa	0.0090684835
108	0xbc9db56f	-0.019251553
109	0xbc92a107	-0.01789905
110	0x3cc12c81	0.023580791
111	0xbc0a6bdb	-0.008448566
112	0x3cc096a6	0.023509335
113	0x3ca915b8	0.02064024
114	0x3c631807	0.013860709
115	0xbbeded6a	-0.007260968
116	0xbcdd447d	-0.027010197
117	0x38d1dfb2	0.00010007563
118	0x3b4e0733	0.0031437397
119	0x3bc791c4	0.0060903747
120	0x3ca3e099	0.020004557
121	0x3c854cec	0.01627203
122	0x3cb2f4c6	0.021845233
123	0x3c70b5c4	0.014691774
124	0x3c6404ba	0.0139171425
125	0x3bc3c073	0.0059738695
126	0xbccfbeef	-0.025359599
127	0xbc15356b	-0.009106974
128	0x3c9e6a00	0.019337654
129	0x3c9345bb	0.017977586
130	0xbcc1f389	-0.023675697
131	0x3c0af324	0.008480821
132	0xbcc13655	-0.023585478
133	0xbca976c1	-0.02068651
134	0xbc63f760	-0.013913959
135	0x3beeea33	0.0072911023
136	0x3cde1f77	0.027114613
137	0xb8d27e39	-0.00010037091
138	0xbb4e66cb	-0.0031494375
139	0xbbc85957	-0.0061141658
140	0xbc7420e4	-0.01490042
141	0xbc468427	-0.0121164685
142	0xbc853399	-0.016259955
143	0xbc336883	-0.0109502105
144	0xbc29df28	-0.010368146
145	0xbb91f688	-0.0044544376
146	0x3c9a9367	0.018869115
147	0x3bddef83	0.006772937
148	0xbc6bc31d	-0.01438978
149	0xbc5b28d6	-0.013376435
150	0x3c9068e1	0.017628135
151	0xbbcee8b7	-0.006314363
152	0x3c900178	0.017578825
153	0x3c7d78bd	0.015470681
154	0x3c29b07b	0.010357018
155	0xbbb42355	-0.005497376
156	0xbca58036	-0.020202737
157	0x389afc4e	7.390288e-05
158	0x3b19f2a1	0.0023490565
159	0x3b950f49	0.0045489413
160	0x3d906cf8	0.07052034
161	0x3d6ae4df	0.057347175
162	0x3d9db1e1	0.07699943
163	0x3d545398	0.051837534
164	0x3d490750	0.04907924
165	0x3cac6888	0.021045938
166	0xbdb7080c	-0.08937082
167	0xbd037073	-0.03208966
168	0x3d8b91ab	0.06814893
169	0x3d81c74f	0.06336843
170	0xbdaade88	-0.08343226
171	0x3cf4c697	0.029879851
172	0xbdaa59a6	-0.0831788
173	0xbd9594c0	-0.073037624
174	0xbd48e96a	-0.049050726
175	0x3cd28697	0.025698943
176	0x3dc3cd5e	0.09560655
177	0xb9a8b444	-0.00032177765
178	0xbc36377d	-0.011121628
179	0xbcb08c48	-0.021551266
180	0x3da08ee9	0.07839758
181	0x3d828845	0.063736476
182	0x3daf4bcf	0.08559381
183	0x3d6bf64a	0.057607926
184	0x3d5f6a44	0.054544702
185	0x3cbfa60c	0.023394607
186	0xbdcb712d	-0.09933696
187	0xbd1220fd	-0.03567599
188	0x3d9b1293	0.07571902
189	0x3d904111	0.070436604
190	0xbdbdf5a7	-0.0927537
191	0x3d081e59	0.033232067
192	0xbdbd5d98	-0.09246367
193	0xbda63c7b	-0.081170045
194	0xbd5f5d43	-0.0545323
195	0x3cea030b	0.028565904
196	0x3dd99246	0.106236026
197	0xb9ce92ad	-0.00039400664
198	0xbc4a9993	-0.0123657165
199	0xbcc43f7f	-0.023956059
200	0xbdc78f96	-0.09744184
201	0xbda23be1	-0.07921577
202	0xbdd9dfc8	-0.10638386
203	0xbd92a81a	-0.07160969
204	0xbd8adebd	-0.06780765
205	0xbcee39d3	-0.029080307
206	0x3dfcf23e	0.123508915
207	0x3d35a02d	0.04434221
208	0xbdc0d231	-0.09415091
209	0xbdb34130	-0.08752668
210	0x3dec1aaa	0.11528523
211	0xbd292ebf	-0.041304346
212	0x3deb5faa	0.11492856
213	0x3dcea711	0.10090459
214	0x3d8ad64f	0.06779157
215	0xbd116515	-0.03549679
216	0xbe073965	-0.13205488
217	0x39f82a5f	0.00047333815
218	0x3c7ba628	0.015359439
219	0x3cf3e44d	0.029771948
220	0xbbddfcfb	-0.0067745424
221	0xbbb47a21	-0.005507723
222	0xbbf26ce0	-0.007398233
223	0xbba32db1	-0.004979812
224	0xbb9a7a60	-0.0047142953
225	0xbb047b5f	-0.0020215136
226	0x3c0cac3b	0.008585985
227	0x3b4a0a25	0.00308288
228	0xbbd6866b	-0.0065467856
229	0xbbc77ab3	-0.006087625
230	0x3c035ab7	0.008017234
231	0xbb3c3a03	-0.00287211
232	0x3c02f10c	0.00799204
233	0x3be5d596	0.007013987
234	0x3b9a58fa	0.004710314
235	0xbb21d108	-0.0024691243
236	0xbc16745c	-0.009183016
237	0x380c8883	3.3505738e-05
238	0x3a8c086a	0.001068366
239	0x3b07afca	0.0020704144
240	0xbd4b25c9	-0.04959658
241	0xbd252b53	-0.04032452
242	0xbd5dc9b4	-0.054147437
243	0xbd154ab3	-0.03644819
244	0xbd0d4f50	-0.034499466
245	0xbc7288c2	-0.014803113
246	0x3d80b437	0.06284373
247	0x3cb8e5e3	0.022570556
248	0xbd444c5c	-0.047924384
249	0xbd36775d	-0.044547427
250	0x3d705a4f	0.058679875
251	0xbcac3a75	-0.021023968
252	0x3d6f9dff	0.058500286
253	0x3d525e92	0.05135972
254	0x3d0d42dd	0.034487594
255	0xbc9408fb	-0.018070688

seq.4.bias f4 [20]
0	0x36a815c0	5.009322e-06
1	0xb95a1008	-0.00020796072
2	0xb8efe4e0	-0.000114390394
3	0x3823041a	3.886605e-05
4	0x3c0d0848	0.008607931
5	0xb949e1fd	-0.00019253041
6	0x39e6f72e	0.00044053182
7	0xba11f255	-0.00055674213
8	0xb9065b36	-0.00012813215
9	0xb8d25029	-0.00010028511
10	0xb85759fc	-5.13438e-05
11	0xbb72b3ab	-0.003703336
12	0x38f59fd6	0.00011712282
13	0x3ac4d217	0.0015016225
14	0x38e30222	0.00010824601
15	0xb8a3e223	-7.814567e-05
16	0x3787c85c	1.6186554e-05
17	0x38c1b607	9.2368624e-05
18	0x3a070991	0.0005151267
19	0xbb092ced	-0.002093132

seq.6.weight f4 [1, 20]
0	0x3da13537	0.07871478
1	0x3e898b45	0.26864067
2	0xbe3d04a3	-0.184588
3	0xbd8ca47b	-0.0686731
4	0x3b2a682c	0.0026002033
5	0x3d48ebf4	0.049053147
6	0xbd49cff3	-0.04927058
7	0x3d1639d6	0.03667625
8	0xbe31cd4c	-0.17363471
9	0xbe45a778	-0.19302166
10	0x3e75c0b4	0.23999292
11	0x3c889e3a	0.01667701
12	0x3dfa0473	0.1220788
13	0xbcad6f2f	-0.02117118
14	0x3e41488e	0.18875334
15	0x3d85633c	0.06513068
16	0x3da7a9fc	0.08186719
17	0x3e3065dd	0.17226358
18	0xbd1a6718	-0.037695974
19	0x3ca574c7	0.020197285
